…
I0319 16:02:26.159771 28742 net.cpp:294] The NetState phase (0) differed from the phase (1) specified by a rule in layer data
I0319 16:02:26.159777 28742 net.cpp:294] The NetState phase (0) differed from the phase (1) specified by a rule in layer softmax_output_test
I0319 16:02:26.159824 28742 net.cpp:51] Initializing net from parameters: 
name: "Go_player"
state {
  phase: TRAIN
}
layer {
  name: "data"
  type: "ImageData"
  top: "data"
  top: "label"
  include {
    phase: TRAIN
  }
  image_data_param {
    source: "dataset_train.txt"
    batch_size: 64
    shuffle: true
  }
}
layer {
  name: "conv1"
  type: "Convolution"
  bottom: "data"
  top: "conv1"
  convolution_param {
    num_output: 50
    pad: 2
    kernel_size: 5
    stride: 1
    weight_filler {
      type: "xavier"
    }
    bias_filler {
      type: "constant"
    }
  }
}
layer {
  name: "relu1"
  type: "ReLU"
  bottom: "conv1"
  top: "relu1"
  relu_param {
    negative_slope: 0.01
  }
}
layer {
  name: "conv2"
  type: "Convolution"
  bottom: "relu1"
  top: "conv2"
  convolution_param {
    num_output: 100
    pad: 2
    kernel_size: 5
    stride: 1
    weight_filler {
      type: "xavier"
    }
    bias_filler {
      type: "constant"
    }
  }
}
layer {
  name: "relu2"
  type: "ReLU"
  bottom: "conv2"
  top: "relu2"
  relu_param {
    negative_slope: 0.01
  }
}
layer {
  name: "conv3"
  type: "Convolution"
  bottom: "relu2"
  top: "conv3"
  convolution_param {
    num_output: 1
    pad: 2
    kernel_size: 5
    stride: 1
    weight_filler {
      type: "xavier"
    }
    bias_filler {
      type: "constant"
    }
  }
}
layer {
  name: "relu3"
  type: "ReLU"
  bottom: "conv3"
  top: "relu3"
  relu_param {
    negative_slope: 0.01
  }
}
layer {
  name: "fc8"
  type: "InnerProduct"
  bottom: "relu3"
  top: "fc8"
  inner_product_param {
    num_output: 362
    weight_filler {
      type: "xavier"
    }
    bias_filler {
      type: "constant"
    }
  }
}
layer {
  name: "softmax_output"
  type: "SoftmaxWithLoss"
  bottom: "fc8"
  bottom: "label"
  top: "softmax_output"
  include {
    phase: TRAIN
  }
}
I0319 16:02:26.159859 28742 layer_factory.hpp:77] Creating layer data
I0319 16:02:26.159878 28742 net.cpp:84] Creating Layer data
I0319 16:02:26.159883 28742 net.cpp:380] data -> data
I0319 16:02:26.159896 28742 net.cpp:380] data -> label
I0319 16:02:26.159904 28742 image_data_layer.cpp:38] Opening file dataset_train.txt
I0319 16:02:26.415791 28742 image_data_layer.cpp:53] Shuffling data
I0319 16:02:26.617316 28742 image_data_layer.cpp:63] A total of 650514 images.
I0319 16:02:26.618821 28742 image_data_layer.cpp:90] output data size: 64,3,19,19
I0319 16:02:26.620599 28742 net.cpp:122] Setting up data
I0319 16:02:26.620610 28742 net.cpp:129] Top shape: 64 3 19 19 (69312)
I0319 16:02:26.620615 28742 net.cpp:129] Top shape: 64 (64)
I0319 16:02:26.620616 28742 net.cpp:137] Memory required for data: 277504
I0319 16:02:26.620621 28742 layer_factory.hpp:77] Creating layer conv1
I0319 16:02:26.620640 28742 net.cpp:84] Creating Layer conv1
I0319 16:02:26.620645 28742 net.cpp:406] conv1 <- data
I0319 16:02:26.620656 28742 net.cpp:380] conv1 -> conv1
I0319 16:02:26.622668 28742 net.cpp:122] Setting up conv1
I0319 16:02:26.622679 28742 net.cpp:129] Top shape: 64 50 19 19 (1155200)
I0319 16:02:26.622681 28742 net.cpp:137] Memory required for data: 4898304
I0319 16:02:26.622699 28742 layer_factory.hpp:77] Creating layer relu1
I0319 16:02:26.622709 28742 net.cpp:84] Creating Layer relu1
I0319 16:02:26.622711 28742 net.cpp:406] relu1 <- conv1
I0319 16:02:26.622735 28742 net.cpp:380] relu1 -> relu1
I0319 16:02:26.622766 28742 net.cpp:122] Setting up relu1
I0319 16:02:26.622771 28742 net.cpp:129] Top shape: 64 50 19 19 (1155200)
I0319 16:02:26.622772 28742 net.cpp:137] Memory required for data: 9519104
I0319 16:02:26.622774 28742 layer_factory.hpp:77] Creating layer conv2
I0319 16:02:26.622782 28742 net.cpp:84] Creating Layer conv2
I0319 16:02:26.622786 28742 net.cpp:406] conv2 <- relu1
I0319 16:02:26.622789 28742 net.cpp:380] conv2 -> conv2
I0319 16:02:26.623713 28742 net.cpp:122] Setting up conv2
I0319 16:02:26.623719 28742 net.cpp:129] Top shape: 64 100 19 19 (2310400)
I0319 16:02:26.623721 28742 net.cpp:137] Memory required for data: 18760704
I0319 16:02:26.623729 28742 layer_factory.hpp:77] Creating layer relu2
I0319 16:02:26.623735 28742 net.cpp:84] Creating Layer relu2
I0319 16:02:26.623737 28742 net.cpp:406] relu2 <- conv2
I0319 16:02:26.623741 28742 net.cpp:380] relu2 -> relu2
I0319 16:02:26.623760 28742 net.cpp:122] Setting up relu2
I0319 16:02:26.623764 28742 net.cpp:129] Top shape: 64 100 19 19 (2310400)
I0319 16:02:26.623766 28742 net.cpp:137] Memory required for data: 28002304
I0319 16:02:26.623769 28742 layer_factory.hpp:77] Creating layer conv3
I0319 16:02:26.623775 28742 net.cpp:84] Creating Layer conv3
I0319 16:02:26.623777 28742 net.cpp:406] conv3 <- relu2
I0319 16:02:26.623781 28742 net.cpp:380] conv3 -> conv3
I0319 16:02:26.624006 28742 net.cpp:122] Setting up conv3
I0319 16:02:26.624011 28742 net.cpp:129] Top shape: 64 1 19 19 (23104)
I0319 16:02:26.624012 28742 net.cpp:137] Memory required for data: 28094720
I0319 16:02:26.624019 28742 layer_factory.hpp:77] Creating layer relu3
I0319 16:02:26.624023 28742 net.cpp:84] Creating Layer relu3
I0319 16:02:26.624025 28742 net.cpp:406] relu3 <- conv3
I0319 16:02:26.624029 28742 net.cpp:380] relu3 -> relu3
I0319 16:02:26.624048 28742 net.cpp:122] Setting up relu3
I0319 16:02:26.624053 28742 net.cpp:129] Top shape: 64 1 19 19 (23104)
I0319 16:02:26.624054 28742 net.cpp:137] Memory required for data: 28187136
I0319 16:02:26.624058 28742 layer_factory.hpp:77] Creating layer fc8
I0319 16:02:26.624063 28742 net.cpp:84] Creating Layer fc8
I0319 16:02:26.624065 28742 net.cpp:406] fc8 <- relu3
I0319 16:02:26.624069 28742 net.cpp:380] fc8 -> fc8
I0319 16:02:26.625705 28742 net.cpp:122] Setting up fc8
I0319 16:02:26.625711 28742 net.cpp:129] Top shape: 64 362 (23168)
I0319 16:02:26.625713 28742 net.cpp:137] Memory required for data: 28279808
I0319 16:02:26.625720 28742 layer_factory.hpp:77] Creating layer softmax_output
I0319 16:02:26.625728 28742 net.cpp:84] Creating Layer softmax_output
I0319 16:02:26.625731 28742 net.cpp:406] softmax_output <- fc8
I0319 16:02:26.625735 28742 net.cpp:406] softmax_output <- label
I0319 16:02:26.625741 28742 net.cpp:380] softmax_output -> softmax_output
…
I0319 16:02:26.626927 28742 net.cpp:294] The NetState phase (1) differed from the phase (0) specified by a rule in layer data
I0319 16:02:26.626937 28742 net.cpp:294] The NetState phase (1) differed from the phase (0) specified by a rule in layer softmax_output
I0319 16:02:26.627002 28742 net.cpp:51] Initializing net from parameters: 
name: "Go_player"
state {
  phase: TEST
}
layer {
  name: "data"
  type: "ImageData"
  top: "data"
  top: "label"
  include {
    phase: TEST
  }
  image_data_param {
    source: "dataset_test.txt"
    batch_size: 4
    shuffle: true
  }
}
layer {
  name: "conv1"
  type: "Convolution"
  bottom: "data"
  top: "conv1"
  convolution_param {
    num_output: 50
    pad: 2
    kernel_size: 5
    stride: 1
    weight_filler {
      type: "xavier"
    }
    bias_filler {
      type: "constant"
    }
  }
}
layer {
  name: "relu1"
  type: "ReLU"
  bottom: "conv1"
  top: "relu1"
  relu_param {
    negative_slope: 0.01
  }
}
layer {
  name: "conv2"
  type: "Convolution"
  bottom: "relu1"
  top: "conv2"
  convolution_param {
    num_output: 100
    pad: 2
    kernel_size: 5
    stride: 1
    weight_filler {
      type: "xavier"
    }
    bias_filler {
      type: "constant"
    }
  }
}
layer {
  name: "relu2"
  type: "ReLU"
  bottom: "conv2"
  top: "relu2"
  relu_param {
    negative_slope: 0.01
  }
}
layer {
  name: "conv3"
  type: "Convolution"
  bottom: "relu2"
  top: "conv3"
  convolution_param {
    num_output: 1
    pad: 2
    kernel_size: 5
    stride: 1
    weight_filler {
      type: "xavier"
    }
    bias_filler {
      type: "constant"
    }
  }
}
layer {
  name: "relu3"
  type: "ReLU"
  bottom: "conv3"
  top: "relu3"
  relu_param {
    negative_slope: 0.01
  }
}
layer {
  name: "fc8"
  type: "InnerProduct"
  bottom: "relu3"
  top: "fc8"
  inner_product_param {
    num_output: 362
    weight_filler {
      type: "xavier"
    }
    bias_filler {
      type: "constant"
    }
  }
}
layer {
  name: "softmax_output_test"
  type: "SoftmaxWithLoss"
  bottom: "fc8"
  bottom: "label"
  top: "softmax_output_test"
  include {
    phase: TEST
  }
}
I0319 16:02:26.627041 28742 layer_factory.hpp:77] Creating layer data
I0319 16:02:26.627053 28742 net.cpp:84] Creating Layer data
I0319 16:02:26.627058 28742 net.cpp:380] data -> data
I0319 16:02:26.627063 28742 net.cpp:380] data -> label
I0319 16:02:26.627070 28742 image_data_layer.cpp:38] Opening file dataset_test.txt
I0319 16:02:26.657788 28742 image_data_layer.cpp:53] Shuffling data
I0319 16:02:26.668324 28742 image_data_layer.cpp:63] A total of 36562 images.
I0319 16:02:26.668509 28742 image_data_layer.cpp:90] output data size: 4,3,19,19
I0319 16:02:26.669883 28742 net.cpp:122] Setting up data
I0319 16:02:26.669894 28742 net.cpp:129] Top shape: 4 3 19 19 (4332)
I0319 16:02:26.669898 28742 net.cpp:129] Top shape: 4 (4)
I0319 16:02:26.669899 28742 net.cpp:137] Memory required for data: 17344
I0319 16:02:26.669903 28742 layer_factory.hpp:77] Creating layer conv1
I0319 16:02:26.669920 28742 net.cpp:84] Creating Layer conv1
I0319 16:02:26.669924 28742 net.cpp:406] conv1 <- data
I0319 16:02:26.669931 28742 net.cpp:380] conv1 -> conv1
I0319 16:02:26.670255 28742 net.cpp:122] Setting up conv1
I0319 16:02:26.670261 28742 net.cpp:129] Top shape: 4 50 19 19 (72200)
I0319 16:02:26.670264 28742 net.cpp:137] Memory required for data: 306144
I0319 16:02:26.670274 28742 layer_factory.hpp:77] Creating layer relu1
I0319 16:02:26.670280 28742 net.cpp:84] Creating Layer relu1
I0319 16:02:26.670284 28742 net.cpp:406] relu1 <- conv1
I0319 16:02:26.670287 28742 net.cpp:380] relu1 -> relu1
I0319 16:02:26.670310 28742 net.cpp:122] Setting up relu1
I0319 16:02:26.670313 28742 net.cpp:129] Top shape: 4 50 19 19 (72200)
I0319 16:02:26.670315 28742 net.cpp:137] Memory required for data: 594944
I0319 16:02:26.670317 28742 layer_factory.hpp:77] Creating layer conv2
I0319 16:02:26.670325 28742 net.cpp:84] Creating Layer conv2
I0319 16:02:26.670326 28742 net.cpp:406] conv2 <- relu1
I0319 16:02:26.670331 28742 net.cpp:380] conv2 -> conv2
I0319 16:02:26.671263 28742 net.cpp:122] Setting up conv2
I0319 16:02:26.671269 28742 net.cpp:129] Top shape: 4 100 19 19 (144400)
I0319 16:02:26.671272 28742 net.cpp:137] Memory required for data: 1172544
I0319 16:02:26.671280 28742 layer_factory.hpp:77] Creating layer relu2
I0319 16:02:26.671285 28742 net.cpp:84] Creating Layer relu2
I0319 16:02:26.671288 28742 net.cpp:406] relu2 <- conv2
I0319 16:02:26.671291 28742 net.cpp:380] relu2 -> relu2
I0319 16:02:26.671309 28742 net.cpp:122] Setting up relu2
I0319 16:02:26.671314 28742 net.cpp:129] Top shape: 4 100 19 19 (144400)
I0319 16:02:26.671315 28742 net.cpp:137] Memory required for data: 1750144
I0319 16:02:26.671317 28742 layer_factory.hpp:77] Creating layer conv3
I0319 16:02:26.671324 28742 net.cpp:84] Creating Layer conv3
I0319 16:02:26.671325 28742 net.cpp:406] conv3 <- relu2
I0319 16:02:26.671329 28742 net.cpp:380] conv3 -> conv3
I0319 16:02:26.671588 28742 net.cpp:122] Setting up conv3
I0319 16:02:26.671593 28742 net.cpp:129] Top shape: 4 1 19 19 (1444)
I0319 16:02:26.671596 28742 net.cpp:137] Memory required for data: 1755920
I0319 16:02:26.671603 28742 layer_factory.hpp:77] Creating layer relu3
I0319 16:02:26.671607 28742 net.cpp:84] Creating Layer relu3
I0319 16:02:26.671609 28742 net.cpp:406] relu3 <- conv3
I0319 16:02:26.671613 28742 net.cpp:380] relu3 -> relu3
I0319 16:02:26.671630 28742 net.cpp:122] Setting up relu3
I0319 16:02:26.671634 28742 net.cpp:129] Top shape: 4 1 19 19 (1444)
I0319 16:02:26.671636 28742 net.cpp:137] Memory required for data: 1761696
I0319 16:02:26.671638 28742 layer_factory.hpp:77] Creating layer fc8
I0319 16:02:26.671643 28742 net.cpp:84] Creating Layer fc8
I0319 16:02:26.671645 28742 net.cpp:406] fc8 <- relu3
I0319 16:02:26.671649 28742 net.cpp:380] fc8 -> fc8
I0319 16:02:26.672417 28742 net.cpp:122] Setting up fc8
I0319 16:02:26.672422 28742 net.cpp:129] Top shape: 4 362 (1448)
I0319 16:02:26.672425 28742 net.cpp:137] Memory required for data: 1767488
I0319 16:02:26.672428 28742 layer_factory.hpp:77] Creating layer softmax_output_test
I0319 16:02:26.672436 28742 net.cpp:84] Creating Layer softmax_output_test
I0319 16:02:26.672438 28742 net.cpp:406] softmax_output_test <- fc8
I0319 16:02:26.672441 28742 net.cpp:406] softmax_output_test <- label
I0319 16:02:26.672446 28742 net.cpp:380] softmax_output_test -> softmax_output_test
…
