…
I0323 00:43:03.265275  8853 net.cpp:294] The NetState phase (0) differed from the phase (1) specified by a rule in layer data
I0323 00:43:03.265283  8853 net.cpp:294] The NetState phase (0) differed from the phase (1) specified by a rule in layer softmax_output_test
I0323 00:43:03.265365  8853 net.cpp:51] Initializing net from parameters: 
name: "Go_player"
state {
  phase: TRAIN
}
layer {
  name: "data"
  type: "ImageData"
  top: "data"
  top: "label"
  include {
    phase: TRAIN
  }
  image_data_param {
    source: "dataset_train.txt"
    batch_size: 64
    shuffle: true
  }
}
layer {
  name: "conv1"
  type: "Convolution"
  bottom: "data"
  top: "conv1"
  convolution_param {
    num_output: 64
    pad: 2
    kernel_size: 5
    stride: 1
    weight_filler {
      type: "xavier"
    }
    bias_filler {
      type: "constant"
    }
  }
}
layer {
  name: "relu1"
  type: "ReLU"
  bottom: "conv1"
  top: "relu1"
  relu_param {
    negative_slope: 0.01
  }
}
layer {
  name: "bn1"
  type: "BatchNorm"
  bottom: "relu1"
  top: "bn1"
  param {
    lr_mult: 0
    decay_mult: 0
  }
  param {
    lr_mult: 0
    decay_mult: 0
  }
  param {
    lr_mult: 0
    decay_mult: 0
  }
}
layer {
  name: "conv2"
  type: "Convolution"
  bottom: "bn1"
  top: "conv2"
  convolution_param {
    num_output: 64
    pad: 2
    kernel_size: 5
    stride: 1
    weight_filler {
      type: "xavier"
    }
    bias_filler {
      type: "constant"
    }
  }
}
layer {
  name: "relu2"
  type: "ReLU"
  bottom: "conv2"
  top: "relu2"
  relu_param {
    negative_slope: 0.01
  }
}
layer {
  name: "bn2"
  type: "BatchNorm"
  bottom: "relu2"
  top: "bn2"
  param {
    lr_mult: 0
    decay_mult: 0
  }
  param {
    lr_mult: 0
    decay_mult: 0
  }
  param {
    lr_mult: 0
    decay_mult: 0
  }
}
layer {
  name: "conv3"
  type: "Convolution"
  bottom: "bn2"
  top: "conv3"
  convolution_param {
    num_output: 64
    pad: 2
    kernel_size: 5
    stride: 1
    weight_filler {
      type: "xavier"
    }
    bias_filler {
      type: "constant"
    }
  }
}
layer {
  name: "relu3"
  type: "ReLU"
  bottom: "conv3"
  top: "relu3"
  relu_param {
    negative_slope: 0.01
  }
}
layer {
  name: "bn3"
  type: "BatchNorm"
  bottom: "relu3"
  top: "bn3"
  param {
    lr_mult: 0
    decay_mult: 0
  }
  param {
    lr_mult: 0
    decay_mult: 0
  }
  param {
    lr_mult: 0
    decay_mult: 0
  }
}
layer {
  name: "conv4"
  type: "Convolution"
  bottom: "bn3"
  top: "conv4"
  convolution_param {
    num_output: 64
    pad: 2
    kernel_size: 5
    stride: 1
    weight_filler {
      type: "xavier"
    }
    bias_filler {
      type: "constant"
    }
  }
}
layer {
  name: "relu4"
  type: "ReLU"
  bottom: "conv4"
  top: "relu4"
  relu_param {
    negative_slope: 0.01
  }
}
layer {
  name: "bn4"
  type: "BatchNorm"
  bottom: "relu4"
  top: "bn4"
  param {
    lr_mult: 0
    decay_mult: 0
  }
  param {
    lr_mult: 0
    decay_mult: 0
  }
  param {
    lr_mult: 0
    decay_mult: 0
  }
}
layer {
  name: "conv5"
  type: "Convolution"
  bottom: "bn4"
  top: "conv5"
  convolution_param {
    num_output: 1
    pad: 2
    kernel_size: 5
    stride: 1
    weight_filler {
      type: "xavier"
    }
    bias_filler {
      type: "constant"
    }
  }
}
layer {
  name: "relu5"
  type: "ReLU"
  bottom: "conv5"
  top: "relu5"
  relu_param {
    negative_slope: 0.01
  }
}
layer {
  name: "bn5"
  type: "BatchNorm"
  bottom: "relu5"
  top: "bn5"
  param {
    lr_mult: 0
    decay_mult: 0
  }
  param {
    lr_mult: 0
    decay_mult: 0
  }
  param {
    lr_mult: 0
    decay_mult: 0
  }
}
layer {
  name: "fc"
  type: "InnerProduct"
  bottom: "bn5"
  top: "fc"
  inner_product_param {
    num_output: 362
    weight_filler {
      type: "xavier"
    }
    bias_filler {
      type: "constant"
    }
  }
}
layer {
  name: "softmax_output"
  type: "SoftmaxWithLoss"
  bottom: "fc"
  bottom: "label"
  top: "softmax_output"
  include {
    phase: TRAIN
  }
}
I0323 00:43:03.265427  8853 layer_factory.hpp:77] Creating layer data
I0323 00:43:03.265445  8853 net.cpp:84] Creating Layer data
I0323 00:43:03.265450  8853 net.cpp:380] data -> data
I0323 00:43:03.265463  8853 net.cpp:380] data -> label
I0323 00:43:03.265471  8853 image_data_layer.cpp:38] Opening file dataset_train.txt
I0323 00:43:03.386085  8853 image_data_layer.cpp:53] Shuffling data
I0323 00:43:03.463817  8853 image_data_layer.cpp:63] A total of 289608 images.
I0323 00:43:03.467169  8853 image_data_layer.cpp:90] output data size: 64,3,19,19
I0323 00:43:03.468904  8853 net.cpp:122] Setting up data
I0323 00:43:03.468914  8853 net.cpp:129] Top shape: 64 3 19 19 (69312)
I0323 00:43:03.468919  8853 net.cpp:129] Top shape: 64 (64)
I0323 00:43:03.468920  8853 net.cpp:137] Memory required for data: 277504
I0323 00:43:03.468925  8853 layer_factory.hpp:77] Creating layer conv1
I0323 00:43:03.468950  8853 net.cpp:84] Creating Layer conv1
I0323 00:43:03.468953  8853 net.cpp:406] conv1 <- data
I0323 00:43:03.468964  8853 net.cpp:380] conv1 -> conv1
I0323 00:43:03.470892  8853 net.cpp:122] Setting up conv1
I0323 00:43:03.470902  8853 net.cpp:129] Top shape: 64 64 19 19 (1478656)
I0323 00:43:03.470906  8853 net.cpp:137] Memory required for data: 6192128
I0323 00:43:03.470921  8853 layer_factory.hpp:77] Creating layer relu1
I0323 00:43:03.470929  8853 net.cpp:84] Creating Layer relu1
I0323 00:43:03.470932  8853 net.cpp:406] relu1 <- conv1
I0323 00:43:03.470937  8853 net.cpp:380] relu1 -> relu1
I0323 00:43:03.470963  8853 net.cpp:122] Setting up relu1
I0323 00:43:03.470968  8853 net.cpp:129] Top shape: 64 64 19 19 (1478656)
I0323 00:43:03.470969  8853 net.cpp:137] Memory required for data: 12106752
I0323 00:43:03.470971  8853 layer_factory.hpp:77] Creating layer bn1
I0323 00:43:03.470976  8853 net.cpp:84] Creating Layer bn1
I0323 00:43:03.470979  8853 net.cpp:406] bn1 <- relu1
I0323 00:43:03.470983  8853 net.cpp:380] bn1 -> bn1
I0323 00:43:03.471248  8853 net.cpp:122] Setting up bn1
I0323 00:43:03.471253  8853 net.cpp:129] Top shape: 64 64 19 19 (1478656)
I0323 00:43:03.471256  8853 net.cpp:137] Memory required for data: 18021376
I0323 00:43:03.471266  8853 layer_factory.hpp:77] Creating layer conv2
I0323 00:43:03.471276  8853 net.cpp:84] Creating Layer conv2
I0323 00:43:03.471278  8853 net.cpp:406] conv2 <- bn1
I0323 00:43:03.471283  8853 net.cpp:380] conv2 -> conv2
I0323 00:43:03.472014  8853 net.cpp:122] Setting up conv2
I0323 00:43:03.472019  8853 net.cpp:129] Top shape: 64 64 19 19 (1478656)
I0323 00:43:03.472021  8853 net.cpp:137] Memory required for data: 23936000
I0323 00:43:03.472025  8853 layer_factory.hpp:77] Creating layer relu2
I0323 00:43:03.472030  8853 net.cpp:84] Creating Layer relu2
I0323 00:43:03.472033  8853 net.cpp:406] relu2 <- conv2
I0323 00:43:03.472036  8853 net.cpp:380] relu2 -> relu2
I0323 00:43:03.472054  8853 net.cpp:122] Setting up relu2
I0323 00:43:03.472056  8853 net.cpp:129] Top shape: 64 64 19 19 (1478656)
I0323 00:43:03.472059  8853 net.cpp:137] Memory required for data: 29850624
I0323 00:43:03.472060  8853 layer_factory.hpp:77] Creating layer bn2
I0323 00:43:03.472064  8853 net.cpp:84] Creating Layer bn2
I0323 00:43:03.472066  8853 net.cpp:406] bn2 <- relu2
I0323 00:43:03.472071  8853 net.cpp:380] bn2 -> bn2
I0323 00:43:03.472242  8853 net.cpp:122] Setting up bn2
I0323 00:43:03.472246  8853 net.cpp:129] Top shape: 64 64 19 19 (1478656)
I0323 00:43:03.472249  8853 net.cpp:137] Memory required for data: 35765248
I0323 00:43:03.472271  8853 layer_factory.hpp:77] Creating layer conv3
I0323 00:43:03.472278  8853 net.cpp:84] Creating Layer conv3
I0323 00:43:03.472281  8853 net.cpp:406] conv3 <- bn2
I0323 00:43:03.472285  8853 net.cpp:380] conv3 -> conv3
I0323 00:43:03.472995  8853 net.cpp:122] Setting up conv3
I0323 00:43:03.473001  8853 net.cpp:129] Top shape: 64 64 19 19 (1478656)
I0323 00:43:03.473002  8853 net.cpp:137] Memory required for data: 41679872
I0323 00:43:03.473006  8853 layer_factory.hpp:77] Creating layer relu3
I0323 00:43:03.473011  8853 net.cpp:84] Creating Layer relu3
I0323 00:43:03.473014  8853 net.cpp:406] relu3 <- conv3
I0323 00:43:03.473017  8853 net.cpp:380] relu3 -> relu3
I0323 00:43:03.473035  8853 net.cpp:122] Setting up relu3
I0323 00:43:03.473039  8853 net.cpp:129] Top shape: 64 64 19 19 (1478656)
I0323 00:43:03.473042  8853 net.cpp:137] Memory required for data: 47594496
I0323 00:43:03.473043  8853 layer_factory.hpp:77] Creating layer bn3
I0323 00:43:03.473047  8853 net.cpp:84] Creating Layer bn3
I0323 00:43:03.473049  8853 net.cpp:406] bn3 <- relu3
I0323 00:43:03.473053  8853 net.cpp:380] bn3 -> bn3
I0323 00:43:03.473232  8853 net.cpp:122] Setting up bn3
I0323 00:43:03.473237  8853 net.cpp:129] Top shape: 64 64 19 19 (1478656)
I0323 00:43:03.473239  8853 net.cpp:137] Memory required for data: 53509120
I0323 00:43:03.473244  8853 layer_factory.hpp:77] Creating layer conv4
I0323 00:43:03.473250  8853 net.cpp:84] Creating Layer conv4
I0323 00:43:03.473253  8853 net.cpp:406] conv4 <- bn3
I0323 00:43:03.473258  8853 net.cpp:380] conv4 -> conv4
I0323 00:43:03.474746  8853 net.cpp:122] Setting up conv4
I0323 00:43:03.474755  8853 net.cpp:129] Top shape: 64 64 19 19 (1478656)
I0323 00:43:03.474756  8853 net.cpp:137] Memory required for data: 59423744
I0323 00:43:03.474766  8853 layer_factory.hpp:77] Creating layer relu4
I0323 00:43:03.474771  8853 net.cpp:84] Creating Layer relu4
I0323 00:43:03.474773  8853 net.cpp:406] relu4 <- conv4
I0323 00:43:03.474777  8853 net.cpp:380] relu4 -> relu4
I0323 00:43:03.474795  8853 net.cpp:122] Setting up relu4
I0323 00:43:03.474799  8853 net.cpp:129] Top shape: 64 64 19 19 (1478656)
I0323 00:43:03.474800  8853 net.cpp:137] Memory required for data: 65338368
I0323 00:43:03.474802  8853 layer_factory.hpp:77] Creating layer bn4
I0323 00:43:03.474807  8853 net.cpp:84] Creating Layer bn4
I0323 00:43:03.474809  8853 net.cpp:406] bn4 <- relu4
I0323 00:43:03.474813  8853 net.cpp:380] bn4 -> bn4
I0323 00:43:03.474982  8853 net.cpp:122] Setting up bn4
I0323 00:43:03.474985  8853 net.cpp:129] Top shape: 64 64 19 19 (1478656)
I0323 00:43:03.474987  8853 net.cpp:137] Memory required for data: 71252992
I0323 00:43:03.474993  8853 layer_factory.hpp:77] Creating layer conv5
I0323 00:43:03.475000  8853 net.cpp:84] Creating Layer conv5
I0323 00:43:03.475003  8853 net.cpp:406] conv5 <- bn4
I0323 00:43:03.475008  8853 net.cpp:380] conv5 -> conv5
I0323 00:43:03.475976  8853 net.cpp:122] Setting up conv5
I0323 00:43:03.475983  8853 net.cpp:129] Top shape: 64 1 19 19 (23104)
I0323 00:43:03.475986  8853 net.cpp:137] Memory required for data: 71345408
I0323 00:43:03.475991  8853 layer_factory.hpp:77] Creating layer relu5
I0323 00:43:03.475994  8853 net.cpp:84] Creating Layer relu5
I0323 00:43:03.475996  8853 net.cpp:406] relu5 <- conv5
I0323 00:43:03.476001  8853 net.cpp:380] relu5 -> relu5
I0323 00:43:03.476018  8853 net.cpp:122] Setting up relu5
I0323 00:43:03.476022  8853 net.cpp:129] Top shape: 64 1 19 19 (23104)
I0323 00:43:03.476023  8853 net.cpp:137] Memory required for data: 71437824
I0323 00:43:03.476025  8853 layer_factory.hpp:77] Creating layer bn5
I0323 00:43:03.476029  8853 net.cpp:84] Creating Layer bn5
I0323 00:43:03.476032  8853 net.cpp:406] bn5 <- relu5
I0323 00:43:03.476035  8853 net.cpp:380] bn5 -> bn5
I0323 00:43:03.476235  8853 net.cpp:122] Setting up bn5
I0323 00:43:03.476240  8853 net.cpp:129] Top shape: 64 1 19 19 (23104)
I0323 00:43:03.476243  8853 net.cpp:137] Memory required for data: 71530240
I0323 00:43:03.476248  8853 layer_factory.hpp:77] Creating layer fc
I0323 00:43:03.476265  8853 net.cpp:84] Creating Layer fc
I0323 00:43:03.476267  8853 net.cpp:406] fc <- bn5
I0323 00:43:03.476272  8853 net.cpp:380] fc -> fc
I0323 00:43:03.477025  8853 net.cpp:122] Setting up fc
I0323 00:43:03.477030  8853 net.cpp:129] Top shape: 64 362 (23168)
I0323 00:43:03.477031  8853 net.cpp:137] Memory required for data: 71622912
I0323 00:43:03.477035  8853 layer_factory.hpp:77] Creating layer softmax_output
I0323 00:43:03.477041  8853 net.cpp:84] Creating Layer softmax_output
I0323 00:43:03.477042  8853 net.cpp:406] softmax_output <- fc
I0323 00:43:03.477046  8853 net.cpp:406] softmax_output <- label
I0323 00:43:03.477051  8853 net.cpp:380] softmax_output -> softmax_output
…
I0323 00:43:03.478217  8853 net.cpp:294] The NetState phase (1) differed from the phase (0) specified by a rule in layer data
I0323 00:43:03.478232  8853 net.cpp:294] The NetState phase (1) differed from the phase (0) specified by a rule in layer softmax_output
I0323 00:43:03.478341  8853 net.cpp:51] Initializing net from parameters: 
name: "Go_player"
state {
  phase: TEST
}
layer {
  name: "data"
  type: "ImageData"
  top: "data"
  top: "label"
  include {
    phase: TEST
  }
  image_data_param {
    source: "dataset_train.txt"
    batch_size: 4
    shuffle: true
  }
}
layer {
  name: "conv1"
  type: "Convolution"
  bottom: "data"
  top: "conv1"
  convolution_param {
    num_output: 64
    pad: 2
    kernel_size: 5
    stride: 1
    weight_filler {
      type: "xavier"
    }
    bias_filler {
      type: "constant"
    }
  }
}
layer {
  name: "relu1"
  type: "ReLU"
  bottom: "conv1"
  top: "relu1"
  relu_param {
    negative_slope: 0.01
  }
}
layer {
  name: "bn1"
  type: "BatchNorm"
  bottom: "relu1"
  top: "bn1"
  param {
    lr_mult: 0
    decay_mult: 0
  }
  param {
    lr_mult: 0
    decay_mult: 0
  }
  param {
    lr_mult: 0
    decay_mult: 0
  }
}
layer {
  name: "conv2"
  type: "Convolution"
  bottom: "bn1"
  top: "conv2"
  convolution_param {
    num_output: 64
    pad: 2
    kernel_size: 5
    stride: 1
    weight_filler {
      type: "xavier"
    }
    bias_filler {
      type: "constant"
    }
  }
}
layer {
  name: "relu2"
  type: "ReLU"
  bottom: "conv2"
  top: "relu2"
  relu_param {
    negative_slope: 0.01
  }
}
layer {
  name: "bn2"
  type: "BatchNorm"
  bottom: "relu2"
  top: "bn2"
  param {
    lr_mult: 0
    decay_mult: 0
  }
  param {
    lr_mult: 0
    decay_mult: 0
  }
  param {
    lr_mult: 0
    decay_mult: 0
  }
}
layer {
  name: "conv3"
  type: "Convolution"
  bottom: "bn2"
  top: "conv3"
  convolution_param {
    num_output: 64
    pad: 2
    kernel_size: 5
    stride: 1
    weight_filler {
      type: "xavier"
    }
    bias_filler {
      type: "constant"
    }
  }
}
layer {
  name: "relu3"
  type: "ReLU"
  bottom: "conv3"
  top: "relu3"
  relu_param {
    negative_slope: 0.01
  }
}
layer {
  name: "bn3"
  type: "BatchNorm"
  bottom: "relu3"
  top: "bn3"
  param {
    lr_mult: 0
    decay_mult: 0
  }
  param {
    lr_mult: 0
    decay_mult: 0
  }
  param {
    lr_mult: 0
    decay_mult: 0
  }
}
layer {
  name: "conv4"
  type: "Convolution"
  bottom: "bn3"
  top: "conv4"
  convolution_param {
    num_output: 64
    pad: 2
    kernel_size: 5
    stride: 1
    weight_filler {
      type: "xavier"
    }
    bias_filler {
      type: "constant"
    }
  }
}
layer {
  name: "relu4"
  type: "ReLU"
  bottom: "conv4"
  top: "relu4"
  relu_param {
    negative_slope: 0.01
  }
}
layer {
  name: "bn4"
  type: "BatchNorm"
  bottom: "relu4"
  top: "bn4"
  param {
    lr_mult: 0
    decay_mult: 0
  }
  param {
    lr_mult: 0
    decay_mult: 0
  }
  param {
    lr_mult: 0
    decay_mult: 0
  }
}
layer {
  name: "conv5"
  type: "Convolution"
  bottom: "bn4"
  top: "conv5"
  convolution_param {
    num_output: 1
    pad: 2
    kernel_size: 5
    stride: 1
    weight_filler {
      type: "xavier"
    }
    bias_filler {
      type: "constant"
    }
  }
}
layer {
  name: "relu5"
  type: "ReLU"
  bottom: "conv5"
  top: "relu5"
  relu_param {
    negative_slope: 0.01
  }
}
layer {
  name: "bn5"
  type: "BatchNorm"
  bottom: "relu5"
  top: "bn5"
  param {
    lr_mult: 0
    decay_mult: 0
  }
  param {
    lr_mult: 0
    decay_mult: 0
  }
  param {
    lr_mult: 0
    decay_mult: 0
  }
}
layer {
  name: "fc"
  type: "InnerProduct"
  bottom: "bn5"
  top: "fc"
  inner_product_param {
    num_output: 362
    weight_filler {
      type: "xavier"
    }
    bias_filler {
      type: "constant"
    }
  }
}
layer {
  name: "softmax_output_test"
  type: "SoftmaxWithLoss"
  bottom: "fc"
  bottom: "label"
  top: "softmax_output_test"
  include {
    phase: TEST
  }
}
I0323 00:43:03.478418  8853 layer_factory.hpp:77] Creating layer data
I0323 00:43:03.478430  8853 net.cpp:84] Creating Layer data
I0323 00:43:03.478433  8853 net.cpp:380] data -> data
I0323 00:43:03.478440  8853 net.cpp:380] data -> label
I0323 00:43:03.478446  8853 image_data_layer.cpp:38] Opening file dataset_train.txt
I0323 00:43:03.657423  8853 image_data_layer.cpp:53] Shuffling data
I0323 00:43:03.741080  8853 image_data_layer.cpp:63] A total of 289608 images.
I0323 00:43:03.743937  8853 image_data_layer.cpp:90] output data size: 4,3,19,19
I0323 00:43:03.744499  8853 net.cpp:122] Setting up data
I0323 00:43:03.744508  8853 net.cpp:129] Top shape: 4 3 19 19 (4332)
I0323 00:43:03.744513  8853 net.cpp:129] Top shape: 4 (4)
I0323 00:43:03.744514  8853 net.cpp:137] Memory required for data: 17344
I0323 00:43:03.744518  8853 layer_factory.hpp:77] Creating layer conv1
I0323 00:43:03.744537  8853 net.cpp:84] Creating Layer conv1
I0323 00:43:03.744541  8853 net.cpp:406] conv1 <- data
I0323 00:43:03.744549  8853 net.cpp:380] conv1 -> conv1
I0323 00:43:03.744896  8853 net.cpp:122] Setting up conv1
I0323 00:43:03.744902  8853 net.cpp:129] Top shape: 4 64 19 19 (92416)
I0323 00:43:03.744904  8853 net.cpp:137] Memory required for data: 387008
I0323 00:43:03.744915  8853 layer_factory.hpp:77] Creating layer relu1
I0323 00:43:03.744937  8853 net.cpp:84] Creating Layer relu1
I0323 00:43:03.744940  8853 net.cpp:406] relu1 <- conv1
I0323 00:43:03.744946  8853 net.cpp:380] relu1 -> relu1
I0323 00:43:03.744967  8853 net.cpp:122] Setting up relu1
I0323 00:43:03.744971  8853 net.cpp:129] Top shape: 4 64 19 19 (92416)
I0323 00:43:03.744973  8853 net.cpp:137] Memory required for data: 756672
I0323 00:43:03.744976  8853 layer_factory.hpp:77] Creating layer bn1
I0323 00:43:03.744982  8853 net.cpp:84] Creating Layer bn1
I0323 00:43:03.744983  8853 net.cpp:406] bn1 <- relu1
I0323 00:43:03.744988  8853 net.cpp:380] bn1 -> bn1
I0323 00:43:03.745172  8853 net.cpp:122] Setting up bn1
I0323 00:43:03.745177  8853 net.cpp:129] Top shape: 4 64 19 19 (92416)
I0323 00:43:03.745178  8853 net.cpp:137] Memory required for data: 1126336
I0323 00:43:03.745189  8853 layer_factory.hpp:77] Creating layer conv2
I0323 00:43:03.745198  8853 net.cpp:84] Creating Layer conv2
I0323 00:43:03.745200  8853 net.cpp:406] conv2 <- bn1
I0323 00:43:03.745205  8853 net.cpp:380] conv2 -> conv2
I0323 00:43:03.746013  8853 net.cpp:122] Setting up conv2
I0323 00:43:03.746018  8853 net.cpp:129] Top shape: 4 64 19 19 (92416)
I0323 00:43:03.746021  8853 net.cpp:137] Memory required for data: 1496000
I0323 00:43:03.746026  8853 layer_factory.hpp:77] Creating layer relu2
I0323 00:43:03.746031  8853 net.cpp:84] Creating Layer relu2
I0323 00:43:03.746033  8853 net.cpp:406] relu2 <- conv2
I0323 00:43:03.746038  8853 net.cpp:380] relu2 -> relu2
I0323 00:43:03.746057  8853 net.cpp:122] Setting up relu2
I0323 00:43:03.746060  8853 net.cpp:129] Top shape: 4 64 19 19 (92416)
I0323 00:43:03.746062  8853 net.cpp:137] Memory required for data: 1865664
I0323 00:43:03.746064  8853 layer_factory.hpp:77] Creating layer bn2
I0323 00:43:03.746069  8853 net.cpp:84] Creating Layer bn2
I0323 00:43:03.746071  8853 net.cpp:406] bn2 <- relu2
I0323 00:43:03.746076  8853 net.cpp:380] bn2 -> bn2
I0323 00:43:03.746274  8853 net.cpp:122] Setting up bn2
I0323 00:43:03.746279  8853 net.cpp:129] Top shape: 4 64 19 19 (92416)
I0323 00:43:03.746280  8853 net.cpp:137] Memory required for data: 2235328
I0323 00:43:03.746290  8853 layer_factory.hpp:77] Creating layer conv3
I0323 00:43:03.746299  8853 net.cpp:84] Creating Layer conv3
I0323 00:43:03.746300  8853 net.cpp:406] conv3 <- bn2
I0323 00:43:03.746305  8853 net.cpp:380] conv3 -> conv3
I0323 00:43:03.747098  8853 net.cpp:122] Setting up conv3
I0323 00:43:03.747104  8853 net.cpp:129] Top shape: 4 64 19 19 (92416)
I0323 00:43:03.747107  8853 net.cpp:137] Memory required for data: 2604992
I0323 00:43:03.747112  8853 layer_factory.hpp:77] Creating layer relu3
I0323 00:43:03.747117  8853 net.cpp:84] Creating Layer relu3
I0323 00:43:03.747120  8853 net.cpp:406] relu3 <- conv3
I0323 00:43:03.747124  8853 net.cpp:380] relu3 -> relu3
I0323 00:43:03.747143  8853 net.cpp:122] Setting up relu3
I0323 00:43:03.747146  8853 net.cpp:129] Top shape: 4 64 19 19 (92416)
I0323 00:43:03.747148  8853 net.cpp:137] Memory required for data: 2974656
I0323 00:43:03.747150  8853 layer_factory.hpp:77] Creating layer bn3
I0323 00:43:03.747155  8853 net.cpp:84] Creating Layer bn3
I0323 00:43:03.747157  8853 net.cpp:406] bn3 <- relu3
I0323 00:43:03.747161  8853 net.cpp:380] bn3 -> bn3
I0323 00:43:03.747344  8853 net.cpp:122] Setting up bn3
I0323 00:43:03.747347  8853 net.cpp:129] Top shape: 4 64 19 19 (92416)
I0323 00:43:03.747349  8853 net.cpp:137] Memory required for data: 3344320
I0323 00:43:03.747355  8853 layer_factory.hpp:77] Creating layer conv4
I0323 00:43:03.747362  8853 net.cpp:84] Creating Layer conv4
I0323 00:43:03.747365  8853 net.cpp:406] conv4 <- bn3
I0323 00:43:03.747370  8853 net.cpp:380] conv4 -> conv4
I0323 00:43:03.749049  8853 net.cpp:122] Setting up conv4
I0323 00:43:03.749056  8853 net.cpp:129] Top shape: 4 64 19 19 (92416)
I0323 00:43:03.749059  8853 net.cpp:137] Memory required for data: 3713984
I0323 00:43:03.749069  8853 layer_factory.hpp:77] Creating layer relu4
I0323 00:43:03.749074  8853 net.cpp:84] Creating Layer relu4
I0323 00:43:03.749078  8853 net.cpp:406] relu4 <- conv4
I0323 00:43:03.749092  8853 net.cpp:380] relu4 -> relu4
I0323 00:43:03.749114  8853 net.cpp:122] Setting up relu4
I0323 00:43:03.749117  8853 net.cpp:129] Top shape: 4 64 19 19 (92416)
I0323 00:43:03.749119  8853 net.cpp:137] Memory required for data: 4083648
I0323 00:43:03.749121  8853 layer_factory.hpp:77] Creating layer bn4
I0323 00:43:03.749126  8853 net.cpp:84] Creating Layer bn4
I0323 00:43:03.749128  8853 net.cpp:406] bn4 <- relu4
I0323 00:43:03.749133  8853 net.cpp:380] bn4 -> bn4
I0323 00:43:03.749313  8853 net.cpp:122] Setting up bn4
I0323 00:43:03.749318  8853 net.cpp:129] Top shape: 4 64 19 19 (92416)
I0323 00:43:03.749320  8853 net.cpp:137] Memory required for data: 4453312
I0323 00:43:03.749326  8853 layer_factory.hpp:77] Creating layer conv5
I0323 00:43:03.749334  8853 net.cpp:84] Creating Layer conv5
I0323 00:43:03.749336  8853 net.cpp:406] conv5 <- bn4
I0323 00:43:03.749342  8853 net.cpp:380] conv5 -> conv5
I0323 00:43:03.749567  8853 net.cpp:122] Setting up conv5
I0323 00:43:03.749572  8853 net.cpp:129] Top shape: 4 1 19 19 (1444)
I0323 00:43:03.749574  8853 net.cpp:137] Memory required for data: 4459088
I0323 00:43:03.749578  8853 layer_factory.hpp:77] Creating layer relu5
I0323 00:43:03.749583  8853 net.cpp:84] Creating Layer relu5
I0323 00:43:03.749585  8853 net.cpp:406] relu5 <- conv5
I0323 00:43:03.749589  8853 net.cpp:380] relu5 -> relu5
I0323 00:43:03.749608  8853 net.cpp:122] Setting up relu5
I0323 00:43:03.749611  8853 net.cpp:129] Top shape: 4 1 19 19 (1444)
I0323 00:43:03.749614  8853 net.cpp:137] Memory required for data: 4464864
I0323 00:43:03.749615  8853 layer_factory.hpp:77] Creating layer bn5
I0323 00:43:03.749619  8853 net.cpp:84] Creating Layer bn5
I0323 00:43:03.749621  8853 net.cpp:406] bn5 <- relu5
I0323 00:43:03.749626  8853 net.cpp:380] bn5 -> bn5
I0323 00:43:03.749809  8853 net.cpp:122] Setting up bn5
I0323 00:43:03.749814  8853 net.cpp:129] Top shape: 4 1 19 19 (1444)
I0323 00:43:03.749815  8853 net.cpp:137] Memory required for data: 4470640
I0323 00:43:03.749820  8853 layer_factory.hpp:77] Creating layer fc
I0323 00:43:03.749828  8853 net.cpp:84] Creating Layer fc
I0323 00:43:03.749831  8853 net.cpp:406] fc <- bn5
I0323 00:43:03.749835  8853 net.cpp:380] fc -> fc
I0323 00:43:03.750612  8853 net.cpp:122] Setting up fc
I0323 00:43:03.750617  8853 net.cpp:129] Top shape: 4 362 (1448)
I0323 00:43:03.750618  8853 net.cpp:137] Memory required for data: 4476432
I0323 00:43:03.750622  8853 layer_factory.hpp:77] Creating layer softmax_output_test
I0323 00:43:03.750628  8853 net.cpp:84] Creating Layer softmax_output_test
I0323 00:43:03.750630  8853 net.cpp:406] softmax_output_test <- fc
I0323 00:43:03.750633  8853 net.cpp:406] softmax_output_test <- label
I0323 00:43:03.750638  8853 net.cpp:380] softmax_output_test -> softmax_output_test
…
