…
I0402 13:11:47.641661 24574 net.cpp:294] The NetState phase (0) differed from the phase (1) specified by a rule in layer data
I0402 13:11:47.641670 24574 net.cpp:294] The NetState phase (0) differed from the phase (1) specified by a rule in layer softmax_output_test
I0402 13:11:47.641752 24574 net.cpp:51] Initializing net from parameters: 
name: "Go_player"
state {
  phase: TRAIN
}
layer {
  name: "data"
  type: "ImageData"
  top: "data"
  top: "label"
  include {
    phase: TRAIN
  }
  image_data_param {
    source: "dataset_train.txt"
    batch_size: 64
    shuffle: true
  }
}
layer {
  name: "conv1"
  type: "Convolution"
  bottom: "data"
  top: "conv1"
  convolution_param {
    num_output: 75
    pad: 2
    kernel_size: 5
    stride: 1
    weight_filler {
      type: "xavier"
    }
    bias_filler {
      type: "constant"
    }
  }
}
layer {
  name: "relu1"
  type: "ReLU"
  bottom: "conv1"
  top: "relu1"
  relu_param {
    negative_slope: 0.01
  }
}
layer {
  name: "bn1"
  type: "BatchNorm"
  bottom: "relu1"
  top: "bn1"
  param {
    lr_mult: 0
    decay_mult: 0
  }
  param {
    lr_mult: 0
    decay_mult: 0
  }
  param {
    lr_mult: 0
    decay_mult: 0
  }
}
layer {
  name: "conv2"
  type: "Convolution"
  bottom: "bn1"
  top: "conv2"
  convolution_param {
    num_output: 75
    pad: 2
    kernel_size: 5
    stride: 1
    weight_filler {
      type: "xavier"
    }
    bias_filler {
      type: "constant"
    }
  }
}
layer {
  name: "relu2"
  type: "ReLU"
  bottom: "conv2"
  top: "relu2"
  relu_param {
    negative_slope: 0.01
  }
}
layer {
  name: "bn2"
  type: "BatchNorm"
  bottom: "relu2"
  top: "bn2"
  param {
    lr_mult: 0
    decay_mult: 0
  }
  param {
    lr_mult: 0
    decay_mult: 0
  }
  param {
    lr_mult: 0
    decay_mult: 0
  }
}
layer {
  name: "conv3"
  type: "Convolution"
  bottom: "bn2"
  top: "conv3"
  convolution_param {
    num_output: 75
    pad: 2
    kernel_size: 5
    stride: 1
    weight_filler {
      type: "xavier"
    }
    bias_filler {
      type: "constant"
    }
  }
}
layer {
  name: "relu3"
  type: "ReLU"
  bottom: "conv3"
  top: "relu3"
  relu_param {
    negative_slope: 0.01
  }
}
layer {
  name: "bn3"
  type: "BatchNorm"
  bottom: "relu3"
  top: "bn3"
  param {
    lr_mult: 0
    decay_mult: 0
  }
  param {
    lr_mult: 0
    decay_mult: 0
  }
  param {
    lr_mult: 0
    decay_mult: 0
  }
}
layer {
  name: "conv4"
  type: "Convolution"
  bottom: "bn3"
  top: "conv4"
  convolution_param {
    num_output: 75
    pad: 2
    kernel_size: 5
    stride: 1
    weight_filler {
      type: "xavier"
    }
    bias_filler {
      type: "constant"
    }
  }
}
layer {
  name: "relu4"
  type: "ReLU"
  bottom: "conv4"
  top: "relu4"
  relu_param {
    negative_slope: 0.01
  }
}
layer {
  name: "bn4"
  type: "BatchNorm"
  bottom: "relu4"
  top: "bn4"
  param {
    lr_mult: 0
    decay_mult: 0
  }
  param {
    lr_mult: 0
    decay_mult: 0
  }
  param {
    lr_mult: 0
    decay_mult: 0
  }
}
layer {
  name: "conv5"
  type: "Convolution"
  bottom: "bn4"
  top: "conv5"
  convolution_param {
    num_output: 1
    pad: 2
    kernel_size: 5
    stride: 1
    weight_filler {
      type: "xavier"
    }
    bias_filler {
      type: "constant"
    }
  }
}
layer {
  name: "relu5"
  type: "ReLU"
  bottom: "conv5"
  top: "relu5"
  relu_param {
    negative_slope: 0.01
  }
}
layer {
  name: "bn5"
  type: "BatchNorm"
  bottom: "relu5"
  top: "bn5"
  param {
    lr_mult: 0
    decay_mult: 0
  }
  param {
    lr_mult: 0
    decay_mult: 0
  }
  param {
    lr_mult: 0
    decay_mult: 0
  }
}
layer {
  name: "fc"
  type: "InnerProduct"
  bottom: "bn5"
  top: "fc"
  inner_product_param {
    num_output: 362
    weight_filler {
      type: "xavier"
    }
    bias_filler {
      type: "constant"
    }
  }
}
layer {
  name: "softmax_output"
  type: "SoftmaxWithLoss"
  bottom: "fc"
  bottom: "label"
  top: "softmax_output"
  include {
    phase: TRAIN
  }
}
I0402 13:11:47.641813 24574 layer_factory.hpp:77] Creating layer data
I0402 13:11:47.641831 24574 net.cpp:84] Creating Layer data
I0402 13:11:47.641835 24574 net.cpp:380] data -> data
I0402 13:11:47.641849 24574 net.cpp:380] data -> label
I0402 13:11:47.641858 24574 image_data_layer.cpp:38] Opening file dataset_train.txt
I0402 13:11:47.760190 24574 image_data_layer.cpp:53] Shuffling data
I0402 13:11:47.833387 24574 image_data_layer.cpp:63] A total of 289608 images.
I0402 13:11:47.836717 24574 image_data_layer.cpp:90] output data size: 64,3,19,19
I0402 13:11:47.838438 24574 net.cpp:122] Setting up data
I0402 13:11:47.838449 24574 net.cpp:129] Top shape: 64 3 19 19 (69312)
I0402 13:11:47.838452 24574 net.cpp:129] Top shape: 64 (64)
I0402 13:11:47.838454 24574 net.cpp:137] Memory required for data: 277504
I0402 13:11:47.838459 24574 layer_factory.hpp:77] Creating layer conv1
I0402 13:11:47.838481 24574 net.cpp:84] Creating Layer conv1
I0402 13:11:47.838486 24574 net.cpp:406] conv1 <- data
I0402 13:11:47.838497 24574 net.cpp:380] conv1 -> conv1
I0402 13:11:47.840446 24574 net.cpp:122] Setting up conv1
I0402 13:11:47.840454 24574 net.cpp:129] Top shape: 64 75 19 19 (1732800)
I0402 13:11:47.840457 24574 net.cpp:137] Memory required for data: 7208704
I0402 13:11:47.840473 24574 layer_factory.hpp:77] Creating layer relu1
I0402 13:11:47.840481 24574 net.cpp:84] Creating Layer relu1
I0402 13:11:47.840484 24574 net.cpp:406] relu1 <- conv1
I0402 13:11:47.840489 24574 net.cpp:380] relu1 -> relu1
I0402 13:11:47.840517 24574 net.cpp:122] Setting up relu1
I0402 13:11:47.840520 24574 net.cpp:129] Top shape: 64 75 19 19 (1732800)
I0402 13:11:47.840523 24574 net.cpp:137] Memory required for data: 14139904
I0402 13:11:47.840524 24574 layer_factory.hpp:77] Creating layer bn1
I0402 13:11:47.840529 24574 net.cpp:84] Creating Layer bn1
I0402 13:11:47.840531 24574 net.cpp:406] bn1 <- relu1
I0402 13:11:47.840536 24574 net.cpp:380] bn1 -> bn1
I0402 13:11:47.840718 24574 net.cpp:122] Setting up bn1
I0402 13:11:47.840723 24574 net.cpp:129] Top shape: 64 75 19 19 (1732800)
I0402 13:11:47.840724 24574 net.cpp:137] Memory required for data: 21071104
I0402 13:11:47.840735 24574 layer_factory.hpp:77] Creating layer conv2
I0402 13:11:47.840745 24574 net.cpp:84] Creating Layer conv2
I0402 13:11:47.840747 24574 net.cpp:406] conv2 <- bn1
I0402 13:11:47.840752 24574 net.cpp:380] conv2 -> conv2
I0402 13:11:47.841708 24574 net.cpp:122] Setting up conv2
I0402 13:11:47.841713 24574 net.cpp:129] Top shape: 64 75 19 19 (1732800)
I0402 13:11:47.841715 24574 net.cpp:137] Memory required for data: 28002304
I0402 13:11:47.841719 24574 layer_factory.hpp:77] Creating layer relu2
I0402 13:11:47.841723 24574 net.cpp:84] Creating Layer relu2
I0402 13:11:47.841727 24574 net.cpp:406] relu2 <- conv2
I0402 13:11:47.841729 24574 net.cpp:380] relu2 -> relu2
I0402 13:11:47.841748 24574 net.cpp:122] Setting up relu2
I0402 13:11:47.841753 24574 net.cpp:129] Top shape: 64 75 19 19 (1732800)
I0402 13:11:47.841753 24574 net.cpp:137] Memory required for data: 34933504
I0402 13:11:47.841755 24574 layer_factory.hpp:77] Creating layer bn2
I0402 13:11:47.841760 24574 net.cpp:84] Creating Layer bn2
I0402 13:11:47.841763 24574 net.cpp:406] bn2 <- relu2
I0402 13:11:47.841766 24574 net.cpp:380] bn2 -> bn2
I0402 13:11:47.841936 24574 net.cpp:122] Setting up bn2
I0402 13:11:47.841940 24574 net.cpp:129] Top shape: 64 75 19 19 (1732800)
I0402 13:11:47.841943 24574 net.cpp:137] Memory required for data: 41864704
I0402 13:11:47.841967 24574 layer_factory.hpp:77] Creating layer conv3
I0402 13:11:47.841975 24574 net.cpp:84] Creating Layer conv3
I0402 13:11:47.841977 24574 net.cpp:406] conv3 <- bn2
I0402 13:11:47.841982 24574 net.cpp:380] conv3 -> conv3
I0402 13:11:47.843683 24574 net.cpp:122] Setting up conv3
I0402 13:11:47.843691 24574 net.cpp:129] Top shape: 64 75 19 19 (1732800)
I0402 13:11:47.843693 24574 net.cpp:137] Memory required for data: 48795904
I0402 13:11:47.843713 24574 layer_factory.hpp:77] Creating layer relu3
I0402 13:11:47.843719 24574 net.cpp:84] Creating Layer relu3
I0402 13:11:47.843721 24574 net.cpp:406] relu3 <- conv3
I0402 13:11:47.843725 24574 net.cpp:380] relu3 -> relu3
I0402 13:11:47.843744 24574 net.cpp:122] Setting up relu3
I0402 13:11:47.843747 24574 net.cpp:129] Top shape: 64 75 19 19 (1732800)
I0402 13:11:47.843750 24574 net.cpp:137] Memory required for data: 55727104
I0402 13:11:47.843751 24574 layer_factory.hpp:77] Creating layer bn3
I0402 13:11:47.843755 24574 net.cpp:84] Creating Layer bn3
I0402 13:11:47.843757 24574 net.cpp:406] bn3 <- relu3
I0402 13:11:47.843761 24574 net.cpp:380] bn3 -> bn3
I0402 13:11:47.843926 24574 net.cpp:122] Setting up bn3
I0402 13:11:47.843930 24574 net.cpp:129] Top shape: 64 75 19 19 (1732800)
I0402 13:11:47.843932 24574 net.cpp:137] Memory required for data: 62658304
I0402 13:11:47.843937 24574 layer_factory.hpp:77] Creating layer conv4
I0402 13:11:47.843945 24574 net.cpp:84] Creating Layer conv4
I0402 13:11:47.843947 24574 net.cpp:406] conv4 <- bn3
I0402 13:11:47.843952 24574 net.cpp:380] conv4 -> conv4
I0402 13:11:47.844831 24574 net.cpp:122] Setting up conv4
I0402 13:11:47.844835 24574 net.cpp:129] Top shape: 64 75 19 19 (1732800)
I0402 13:11:47.844837 24574 net.cpp:137] Memory required for data: 69589504
I0402 13:11:47.844846 24574 layer_factory.hpp:77] Creating layer relu4
I0402 13:11:47.844851 24574 net.cpp:84] Creating Layer relu4
I0402 13:11:47.844852 24574 net.cpp:406] relu4 <- conv4
I0402 13:11:47.844856 24574 net.cpp:380] relu4 -> relu4
I0402 13:11:47.844873 24574 net.cpp:122] Setting up relu4
I0402 13:11:47.844877 24574 net.cpp:129] Top shape: 64 75 19 19 (1732800)
I0402 13:11:47.844878 24574 net.cpp:137] Memory required for data: 76520704
I0402 13:11:47.844880 24574 layer_factory.hpp:77] Creating layer bn4
I0402 13:11:47.844884 24574 net.cpp:84] Creating Layer bn4
I0402 13:11:47.844887 24574 net.cpp:406] bn4 <- relu4
I0402 13:11:47.844890 24574 net.cpp:380] bn4 -> bn4
I0402 13:11:47.845055 24574 net.cpp:122] Setting up bn4
I0402 13:11:47.845059 24574 net.cpp:129] Top shape: 64 75 19 19 (1732800)
I0402 13:11:47.845062 24574 net.cpp:137] Memory required for data: 83451904
I0402 13:11:47.845067 24574 layer_factory.hpp:77] Creating layer conv5
I0402 13:11:47.845072 24574 net.cpp:84] Creating Layer conv5
I0402 13:11:47.845074 24574 net.cpp:406] conv5 <- bn4
I0402 13:11:47.845079 24574 net.cpp:380] conv5 -> conv5
I0402 13:11:47.846072 24574 net.cpp:122] Setting up conv5
I0402 13:11:47.846079 24574 net.cpp:129] Top shape: 64 1 19 19 (23104)
I0402 13:11:47.846081 24574 net.cpp:137] Memory required for data: 83544320
I0402 13:11:47.846086 24574 layer_factory.hpp:77] Creating layer relu5
I0402 13:11:47.846091 24574 net.cpp:84] Creating Layer relu5
I0402 13:11:47.846093 24574 net.cpp:406] relu5 <- conv5
I0402 13:11:47.846098 24574 net.cpp:380] relu5 -> relu5
I0402 13:11:47.846139 24574 net.cpp:122] Setting up relu5
I0402 13:11:47.846143 24574 net.cpp:129] Top shape: 64 1 19 19 (23104)
I0402 13:11:47.846145 24574 net.cpp:137] Memory required for data: 83636736
I0402 13:11:47.846148 24574 layer_factory.hpp:77] Creating layer bn5
I0402 13:11:47.846151 24574 net.cpp:84] Creating Layer bn5
I0402 13:11:47.846153 24574 net.cpp:406] bn5 <- relu5
I0402 13:11:47.846158 24574 net.cpp:380] bn5 -> bn5
I0402 13:11:47.846320 24574 net.cpp:122] Setting up bn5
I0402 13:11:47.846324 24574 net.cpp:129] Top shape: 64 1 19 19 (23104)
I0402 13:11:47.846326 24574 net.cpp:137] Memory required for data: 83729152
I0402 13:11:47.846331 24574 layer_factory.hpp:77] Creating layer fc
I0402 13:11:47.846351 24574 net.cpp:84] Creating Layer fc
I0402 13:11:47.846354 24574 net.cpp:406] fc <- bn5
I0402 13:11:47.846359 24574 net.cpp:380] fc -> fc
I0402 13:11:47.847066 24574 net.cpp:122] Setting up fc
I0402 13:11:47.847069 24574 net.cpp:129] Top shape: 64 362 (23168)
I0402 13:11:47.847071 24574 net.cpp:137] Memory required for data: 83821824
I0402 13:11:47.847075 24574 layer_factory.hpp:77] Creating layer softmax_output
I0402 13:11:47.847080 24574 net.cpp:84] Creating Layer softmax_output
I0402 13:11:47.847082 24574 net.cpp:406] softmax_output <- fc
I0402 13:11:47.847085 24574 net.cpp:406] softmax_output <- label
I0402 13:11:47.847090 24574 net.cpp:380] softmax_output -> softmax_output
…
I0402 13:11:47.848273 24574 net.cpp:294] The NetState phase (1) differed from the phase (0) specified by a rule in layer data
I0402 13:11:47.848289 24574 net.cpp:294] The NetState phase (1) differed from the phase (0) specified by a rule in layer softmax_output
I0402 13:11:47.848395 24574 net.cpp:51] Initializing net from parameters: 
name: "Go_player"
state {
  phase: TEST
}
layer {
  name: "data"
  type: "ImageData"
  top: "data"
  top: "label"
  include {
    phase: TEST
  }
  image_data_param {
    source: "dataset_test.txt"
    batch_size: 4
    shuffle: true
  }
}
layer {
  name: "conv1"
  type: "Convolution"
  bottom: "data"
  top: "conv1"
  convolution_param {
    num_output: 75
    pad: 2
    kernel_size: 5
    stride: 1
    weight_filler {
      type: "xavier"
    }
    bias_filler {
      type: "constant"
    }
  }
}
layer {
  name: "relu1"
  type: "ReLU"
  bottom: "conv1"
  top: "relu1"
  relu_param {
    negative_slope: 0.01
  }
}
layer {
  name: "bn1"
  type: "BatchNorm"
  bottom: "relu1"
  top: "bn1"
  param {
    lr_mult: 0
    decay_mult: 0
  }
  param {
    lr_mult: 0
    decay_mult: 0
  }
  param {
    lr_mult: 0
    decay_mult: 0
  }
}
layer {
  name: "conv2"
  type: "Convolution"
  bottom: "bn1"
  top: "conv2"
  convolution_param {
    num_output: 75
    pad: 2
    kernel_size: 5
    stride: 1
    weight_filler {
      type: "xavier"
    }
    bias_filler {
      type: "constant"
    }
  }
}
layer {
  name: "relu2"
  type: "ReLU"
  bottom: "conv2"
  top: "relu2"
  relu_param {
    negative_slope: 0.01
  }
}
layer {
  name: "bn2"
  type: "BatchNorm"
  bottom: "relu2"
  top: "bn2"
  param {
    lr_mult: 0
    decay_mult: 0
  }
  param {
    lr_mult: 0
    decay_mult: 0
  }
  param {
    lr_mult: 0
    decay_mult: 0
  }
}
layer {
  name: "conv3"
  type: "Convolution"
  bottom: "bn2"
  top: "conv3"
  convolution_param {
    num_output: 75
    pad: 2
    kernel_size: 5
    stride: 1
    weight_filler {
      type: "xavier"
    }
    bias_filler {
      type: "constant"
    }
  }
}
layer {
  name: "relu3"
  type: "ReLU"
  bottom: "conv3"
  top: "relu3"
  relu_param {
    negative_slope: 0.01
  }
}
layer {
  name: "bn3"
  type: "BatchNorm"
  bottom: "relu3"
  top: "bn3"
  param {
    lr_mult: 0
    decay_mult: 0
  }
  param {
    lr_mult: 0
    decay_mult: 0
  }
  param {
    lr_mult: 0
    decay_mult: 0
  }
}
layer {
  name: "conv4"
  type: "Convolution"
  bottom: "bn3"
  top: "conv4"
  convolution_param {
    num_output: 75
    pad: 2
    kernel_size: 5
    stride: 1
    weight_filler {
      type: "xavier"
    }
    bias_filler {
      type: "constant"
    }
  }
}
layer {
  name: "relu4"
  type: "ReLU"
  bottom: "conv4"
  top: "relu4"
  relu_param {
    negative_slope: 0.01
  }
}
layer {
  name: "bn4"
  type: "BatchNorm"
  bottom: "relu4"
  top: "bn4"
  param {
    lr_mult: 0
    decay_mult: 0
  }
  param {
    lr_mult: 0
    decay_mult: 0
  }
  param {
    lr_mult: 0
    decay_mult: 0
  }
}
layer {
  name: "conv5"
  type: "Convolution"
  bottom: "bn4"
  top: "conv5"
  convolution_param {
    num_output: 1
    pad: 2
    kernel_size: 5
    stride: 1
    weight_filler {
      type: "xavier"
    }
    bias_filler {
      type: "constant"
    }
  }
}
layer {
  name: "relu5"
  type: "ReLU"
  bottom: "conv5"
  top: "relu5"
  relu_param {
    negative_slope: 0.01
  }
}
layer {
  name: "bn5"
  type: "BatchNorm"
  bottom: "relu5"
  top: "bn5"
  param {
    lr_mult: 0
    decay_mult: 0
  }
  param {
    lr_mult: 0
    decay_mult: 0
  }
  param {
    lr_mult: 0
    decay_mult: 0
  }
}
layer {
  name: "fc"
  type: "InnerProduct"
  bottom: "bn5"
  top: "fc"
  inner_product_param {
    num_output: 362
    weight_filler {
      type: "xavier"
    }
    bias_filler {
      type: "constant"
    }
  }
}
layer {
  name: "softmax_output_test"
  type: "SoftmaxWithLoss"
  bottom: "fc"
  bottom: "label"
  top: "softmax_output_test"
  include {
    phase: TEST
  }
}
I0402 13:11:47.848472 24574 layer_factory.hpp:77] Creating layer data
I0402 13:11:47.848484 24574 net.cpp:84] Creating Layer data
I0402 13:11:47.848489 24574 net.cpp:380] data -> data
I0402 13:11:47.848495 24574 net.cpp:380] data -> label
I0402 13:11:47.848500 24574 image_data_layer.cpp:38] Opening file dataset_test.txt
I0402 13:11:47.850344 24574 image_data_layer.cpp:53] Shuffling data
I0402 13:11:47.850904 24574 image_data_layer.cpp:63] A total of 3620 images.
I0402 13:11:47.851017 24574 image_data_layer.cpp:90] output data size: 4,3,19,19
I0402 13:11:47.851491 24574 net.cpp:122] Setting up data
I0402 13:11:47.851497 24574 net.cpp:129] Top shape: 4 3 19 19 (4332)
I0402 13:11:47.851500 24574 net.cpp:129] Top shape: 4 (4)
I0402 13:11:47.851502 24574 net.cpp:137] Memory required for data: 17344
I0402 13:11:47.851505 24574 layer_factory.hpp:77] Creating layer conv1
I0402 13:11:47.851514 24574 net.cpp:84] Creating Layer conv1
I0402 13:11:47.851516 24574 net.cpp:406] conv1 <- data
I0402 13:11:47.851521 24574 net.cpp:380] conv1 -> conv1
I0402 13:11:47.851819 24574 net.cpp:122] Setting up conv1
I0402 13:11:47.851824 24574 net.cpp:129] Top shape: 4 75 19 19 (108300)
I0402 13:11:47.851826 24574 net.cpp:137] Memory required for data: 450544
I0402 13:11:47.851833 24574 layer_factory.hpp:77] Creating layer relu1
I0402 13:11:47.851847 24574 net.cpp:84] Creating Layer relu1
I0402 13:11:47.851850 24574 net.cpp:406] relu1 <- conv1
I0402 13:11:47.851853 24574 net.cpp:380] relu1 -> relu1
I0402 13:11:47.851871 24574 net.cpp:122] Setting up relu1
I0402 13:11:47.851874 24574 net.cpp:129] Top shape: 4 75 19 19 (108300)
I0402 13:11:47.851876 24574 net.cpp:137] Memory required for data: 883744
I0402 13:11:47.851878 24574 layer_factory.hpp:77] Creating layer bn1
I0402 13:11:47.851882 24574 net.cpp:84] Creating Layer bn1
I0402 13:11:47.851884 24574 net.cpp:406] bn1 <- relu1
I0402 13:11:47.851888 24574 net.cpp:380] bn1 -> bn1
I0402 13:11:47.852047 24574 net.cpp:122] Setting up bn1
I0402 13:11:47.852051 24574 net.cpp:129] Top shape: 4 75 19 19 (108300)
I0402 13:11:47.852053 24574 net.cpp:137] Memory required for data: 1316944
I0402 13:11:47.852062 24574 layer_factory.hpp:77] Creating layer conv2
I0402 13:11:47.852069 24574 net.cpp:84] Creating Layer conv2
I0402 13:11:47.852072 24574 net.cpp:406] conv2 <- bn1
I0402 13:11:47.852077 24574 net.cpp:380] conv2 -> conv2
I0402 13:11:47.853646 24574 net.cpp:122] Setting up conv2
I0402 13:11:47.853652 24574 net.cpp:129] Top shape: 4 75 19 19 (108300)
I0402 13:11:47.853653 24574 net.cpp:137] Memory required for data: 1750144
I0402 13:11:47.853658 24574 layer_factory.hpp:77] Creating layer relu2
I0402 13:11:47.853662 24574 net.cpp:84] Creating Layer relu2
I0402 13:11:47.853664 24574 net.cpp:406] relu2 <- conv2
I0402 13:11:47.853668 24574 net.cpp:380] relu2 -> relu2
I0402 13:11:47.853709 24574 net.cpp:122] Setting up relu2
I0402 13:11:47.853713 24574 net.cpp:129] Top shape: 4 75 19 19 (108300)
I0402 13:11:47.853714 24574 net.cpp:137] Memory required for data: 2183344
I0402 13:11:47.853715 24574 layer_factory.hpp:77] Creating layer bn2
I0402 13:11:47.853719 24574 net.cpp:84] Creating Layer bn2
I0402 13:11:47.853721 24574 net.cpp:406] bn2 <- relu2
I0402 13:11:47.853725 24574 net.cpp:380] bn2 -> bn2
I0402 13:11:47.853888 24574 net.cpp:122] Setting up bn2
I0402 13:11:47.853891 24574 net.cpp:129] Top shape: 4 75 19 19 (108300)
I0402 13:11:47.853893 24574 net.cpp:137] Memory required for data: 2616544
I0402 13:11:47.853901 24574 layer_factory.hpp:77] Creating layer conv3
I0402 13:11:47.853909 24574 net.cpp:84] Creating Layer conv3
I0402 13:11:47.853910 24574 net.cpp:406] conv3 <- bn2
I0402 13:11:47.853914 24574 net.cpp:380] conv3 -> conv3
I0402 13:11:47.854732 24574 net.cpp:122] Setting up conv3
I0402 13:11:47.854748 24574 net.cpp:129] Top shape: 4 75 19 19 (108300)
I0402 13:11:47.854749 24574 net.cpp:137] Memory required for data: 3049744
I0402 13:11:47.854753 24574 layer_factory.hpp:77] Creating layer relu3
I0402 13:11:47.854758 24574 net.cpp:84] Creating Layer relu3
I0402 13:11:47.854760 24574 net.cpp:406] relu3 <- conv3
I0402 13:11:47.854763 24574 net.cpp:380] relu3 -> relu3
I0402 13:11:47.854779 24574 net.cpp:122] Setting up relu3
I0402 13:11:47.854781 24574 net.cpp:129] Top shape: 4 75 19 19 (108300)
I0402 13:11:47.854782 24574 net.cpp:137] Memory required for data: 3482944
I0402 13:11:47.854784 24574 layer_factory.hpp:77] Creating layer bn3
I0402 13:11:47.854787 24574 net.cpp:84] Creating Layer bn3
I0402 13:11:47.854789 24574 net.cpp:406] bn3 <- relu3
I0402 13:11:47.854794 24574 net.cpp:380] bn3 -> bn3
I0402 13:11:47.854941 24574 net.cpp:122] Setting up bn3
I0402 13:11:47.854944 24574 net.cpp:129] Top shape: 4 75 19 19 (108300)
I0402 13:11:47.854946 24574 net.cpp:137] Memory required for data: 3916144
I0402 13:11:47.854950 24574 layer_factory.hpp:77] Creating layer conv4
I0402 13:11:47.854956 24574 net.cpp:84] Creating Layer conv4
I0402 13:11:47.854957 24574 net.cpp:406] conv4 <- bn3
I0402 13:11:47.854962 24574 net.cpp:380] conv4 -> conv4
I0402 13:11:47.855723 24574 net.cpp:122] Setting up conv4
I0402 13:11:47.855727 24574 net.cpp:129] Top shape: 4 75 19 19 (108300)
I0402 13:11:47.855728 24574 net.cpp:137] Memory required for data: 4349344
I0402 13:11:47.855736 24574 layer_factory.hpp:77] Creating layer relu4
I0402 13:11:47.855739 24574 net.cpp:84] Creating Layer relu4
I0402 13:11:47.855749 24574 net.cpp:406] relu4 <- conv4
I0402 13:11:47.855753 24574 net.cpp:380] relu4 -> relu4
I0402 13:11:47.855769 24574 net.cpp:122] Setting up relu4
I0402 13:11:47.855772 24574 net.cpp:129] Top shape: 4 75 19 19 (108300)
I0402 13:11:47.855773 24574 net.cpp:137] Memory required for data: 4782544
I0402 13:11:47.855775 24574 layer_factory.hpp:77] Creating layer bn4
I0402 13:11:47.855779 24574 net.cpp:84] Creating Layer bn4
I0402 13:11:47.855780 24574 net.cpp:406] bn4 <- relu4
I0402 13:11:47.855784 24574 net.cpp:380] bn4 -> bn4
I0402 13:11:47.855931 24574 net.cpp:122] Setting up bn4
I0402 13:11:47.855933 24574 net.cpp:129] Top shape: 4 75 19 19 (108300)
I0402 13:11:47.855935 24574 net.cpp:137] Memory required for data: 5215744
I0402 13:11:47.855939 24574 layer_factory.hpp:77] Creating layer conv5
I0402 13:11:47.855945 24574 net.cpp:84] Creating Layer conv5
I0402 13:11:47.855947 24574 net.cpp:406] conv5 <- bn4
I0402 13:11:47.855952 24574 net.cpp:380] conv5 -> conv5
I0402 13:11:47.856132 24574 net.cpp:122] Setting up conv5
I0402 13:11:47.856135 24574 net.cpp:129] Top shape: 4 1 19 19 (1444)
I0402 13:11:47.856137 24574 net.cpp:137] Memory required for data: 5221520
I0402 13:11:47.856140 24574 layer_factory.hpp:77] Creating layer relu5
I0402 13:11:47.856143 24574 net.cpp:84] Creating Layer relu5
I0402 13:11:47.856145 24574 net.cpp:406] relu5 <- conv5
I0402 13:11:47.856148 24574 net.cpp:380] relu5 -> relu5
I0402 13:11:47.856163 24574 net.cpp:122] Setting up relu5
I0402 13:11:47.856166 24574 net.cpp:129] Top shape: 4 1 19 19 (1444)
I0402 13:11:47.856168 24574 net.cpp:137] Memory required for data: 5227296
I0402 13:11:47.856169 24574 layer_factory.hpp:77] Creating layer bn5
I0402 13:11:47.856173 24574 net.cpp:84] Creating Layer bn5
I0402 13:11:47.856174 24574 net.cpp:406] bn5 <- relu5
I0402 13:11:47.856178 24574 net.cpp:380] bn5 -> bn5
I0402 13:11:47.856324 24574 net.cpp:122] Setting up bn5
I0402 13:11:47.856328 24574 net.cpp:129] Top shape: 4 1 19 19 (1444)
I0402 13:11:47.856329 24574 net.cpp:137] Memory required for data: 5233072
I0402 13:11:47.856334 24574 layer_factory.hpp:77] Creating layer fc
I0402 13:11:47.856340 24574 net.cpp:84] Creating Layer fc
I0402 13:11:47.856343 24574 net.cpp:406] fc <- bn5
I0402 13:11:47.856345 24574 net.cpp:380] fc -> fc
I0402 13:11:47.857638 24574 net.cpp:122] Setting up fc
I0402 13:11:47.857643 24574 net.cpp:129] Top shape: 4 362 (1448)
I0402 13:11:47.857645 24574 net.cpp:137] Memory required for data: 5238864
I0402 13:11:47.857650 24574 layer_factory.hpp:77] Creating layer softmax_output_test
I0402 13:11:47.857656 24574 net.cpp:84] Creating Layer softmax_output_test
I0402 13:11:47.857657 24574 net.cpp:406] softmax_output_test <- fc
I0402 13:11:47.857661 24574 net.cpp:406] softmax_output_test <- label
I0402 13:11:47.857663 24574 net.cpp:380] softmax_output_test -> softmax_output_test
…
