…
I0309 22:24:36.427924 25890 net.cpp:294] The NetState phase (0) differed from the phase (1) specified by a rule in layer data
I0309 22:24:36.427932 25890 net.cpp:294] The NetState phase (0) differed from the phase (1) specified by a rule in layer softmax_output_test
I0309 22:24:36.427991 25890 net.cpp:51] Initializing net from parameters: 
name: "Go_player"
state {
  phase: TRAIN
}
layer {
  name: "data"
  type: "ImageData"
  top: "data"
  top: "label"
  include {
    phase: TRAIN
  }
  image_data_param {
    source: "dataset_train.txt"
    batch_size: 64
    shuffle: true
  }
}
layer {
  name: "conv1"
  type: "Convolution"
  bottom: "data"
  top: "conv1"
  convolution_param {
    num_output: 64
    pad: 2
    kernel_size: 5
    stride: 1
    weight_filler {
      type: "xavier"
    }
    bias_filler {
      type: "constant"
    }
  }
}
layer {
  name: "relu1"
  type: "ReLU"
  bottom: "conv1"
  top: "relu1"
  relu_param {
    negative_slope: 0.01
  }
}
layer {
  name: "conv2"
  type: "Convolution"
  bottom: "relu1"
  top: "conv2"
  convolution_param {
    num_output: 64
    pad: 2
    kernel_size: 5
    stride: 1
    weight_filler {
      type: "xavier"
    }
    bias_filler {
      type: "constant"
    }
  }
}
layer {
  name: "relu2"
  type: "ReLU"
  bottom: "conv2"
  top: "relu2"
  relu_param {
    negative_slope: 0.01
  }
}
layer {
  name: "conv3"
  type: "Convolution"
  bottom: "relu2"
  top: "conv3"
  convolution_param {
    num_output: 64
    pad: 2
    kernel_size: 5
    stride: 1
    weight_filler {
      type: "xavier"
    }
    bias_filler {
      type: "constant"
    }
  }
}
layer {
  name: "relu3"
  type: "ReLU"
  bottom: "conv3"
  top: "relu3"
  relu_param {
    negative_slope: 0.01
  }
}
layer {
  name: "conv4"
  type: "Convolution"
  bottom: "relu3"
  top: "conv4"
  convolution_param {
    num_output: 64
    pad: 2
    kernel_size: 5
    stride: 1
    weight_filler {
      type: "xavier"
    }
    bias_filler {
      type: "constant"
    }
  }
}
layer {
  name: "relu4"
  type: "ReLU"
  bottom: "conv4"
  top: "relu4"
  relu_param {
    negative_slope: 0.01
  }
}
layer {
  name: "conv5"
  type: "Convolution"
  bottom: "relu4"
  top: "conv5"
  convolution_param {
    num_output: 1
    pad: 2
    kernel_size: 5
    stride: 1
    weight_filler {
      type: "xavier"
    }
    bias_filler {
      type: "constant"
    }
  }
}
layer {
  name: "relu5"
  type: "ReLU"
  bottom: "conv5"
  top: "relu5"
  relu_param {
    negative_slope: 0.01
  }
}
layer {
  name: "fc8"
  type: "InnerProduct"
  bottom: "relu5"
  top: "fc8"
  inner_product_param {
    num_output: 362
    weight_filler {
      type: "xavier"
    }
    bias_filler {
      type: "constant"
    }
  }
}
layer {
  name: "softmax_output"
  type: "SoftmaxWithLoss"
  bottom: "fc8"
  bottom: "label"
  top: "softmax_output"
  include {
    phase: TRAIN
  }
}
I0309 22:24:36.428036 25890 layer_factory.hpp:77] Creating layer data
I0309 22:24:36.428056 25890 net.cpp:84] Creating Layer data
I0309 22:24:36.428058 25890 net.cpp:380] data -> data
I0309 22:24:36.428073 25890 net.cpp:380] data -> label
I0309 22:24:36.428082 25890 image_data_layer.cpp:38] Opening file dataset_train.txt
I0309 22:24:36.559754 25890 image_data_layer.cpp:53] Shuffling data
I0309 22:24:36.643872 25890 image_data_layer.cpp:63] A total of 356208 images.
I0309 22:24:36.648533 25890 image_data_layer.cpp:90] output data size: 64,3,19,19
I0309 22:24:36.650269 25890 net.cpp:122] Setting up data
I0309 22:24:36.650281 25890 net.cpp:129] Top shape: 64 3 19 19 (69312)
I0309 22:24:36.650305 25890 net.cpp:129] Top shape: 64 (64)
I0309 22:24:36.650308 25890 net.cpp:137] Memory required for data: 277504
I0309 22:24:36.650315 25890 layer_factory.hpp:77] Creating layer conv1
I0309 22:24:36.650334 25890 net.cpp:84] Creating Layer conv1
I0309 22:24:36.650339 25890 net.cpp:406] conv1 <- data
I0309 22:24:36.650349 25890 net.cpp:380] conv1 -> conv1
I0309 22:24:36.652276 25890 net.cpp:122] Setting up conv1
I0309 22:24:36.652285 25890 net.cpp:129] Top shape: 64 64 19 19 (1478656)
I0309 22:24:36.652288 25890 net.cpp:137] Memory required for data: 6192128
I0309 22:24:36.652305 25890 layer_factory.hpp:77] Creating layer relu1
I0309 22:24:36.652313 25890 net.cpp:84] Creating Layer relu1
I0309 22:24:36.652317 25890 net.cpp:406] relu1 <- conv1
I0309 22:24:36.652321 25890 net.cpp:380] relu1 -> relu1
I0309 22:24:36.652348 25890 net.cpp:122] Setting up relu1
I0309 22:24:36.652354 25890 net.cpp:129] Top shape: 64 64 19 19 (1478656)
I0309 22:24:36.652355 25890 net.cpp:137] Memory required for data: 12106752
I0309 22:24:36.652357 25890 layer_factory.hpp:77] Creating layer conv2
I0309 22:24:36.652365 25890 net.cpp:84] Creating Layer conv2
I0309 22:24:36.652367 25890 net.cpp:406] conv2 <- relu1
I0309 22:24:36.652371 25890 net.cpp:380] conv2 -> conv2
I0309 22:24:36.653226 25890 net.cpp:122] Setting up conv2
I0309 22:24:36.653232 25890 net.cpp:129] Top shape: 64 64 19 19 (1478656)
I0309 22:24:36.653234 25890 net.cpp:137] Memory required for data: 18021376
I0309 22:24:36.653241 25890 layer_factory.hpp:77] Creating layer relu2
I0309 22:24:36.653247 25890 net.cpp:84] Creating Layer relu2
I0309 22:24:36.653249 25890 net.cpp:406] relu2 <- conv2
I0309 22:24:36.653252 25890 net.cpp:380] relu2 -> relu2
I0309 22:24:36.653270 25890 net.cpp:122] Setting up relu2
I0309 22:24:36.653275 25890 net.cpp:129] Top shape: 64 64 19 19 (1478656)
I0309 22:24:36.653276 25890 net.cpp:137] Memory required for data: 23936000
I0309 22:24:36.653278 25890 layer_factory.hpp:77] Creating layer conv3
I0309 22:24:36.653285 25890 net.cpp:84] Creating Layer conv3
I0309 22:24:36.653286 25890 net.cpp:406] conv3 <- relu2
I0309 22:24:36.653290 25890 net.cpp:380] conv3 -> conv3
I0309 22:24:36.654000 25890 net.cpp:122] Setting up conv3
I0309 22:24:36.654006 25890 net.cpp:129] Top shape: 64 64 19 19 (1478656)
I0309 22:24:36.654007 25890 net.cpp:137] Memory required for data: 29850624
I0309 22:24:36.654014 25890 layer_factory.hpp:77] Creating layer relu3
I0309 22:24:36.654017 25890 net.cpp:84] Creating Layer relu3
I0309 22:24:36.654021 25890 net.cpp:406] relu3 <- conv3
I0309 22:24:36.654023 25890 net.cpp:380] relu3 -> relu3
I0309 22:24:36.654040 25890 net.cpp:122] Setting up relu3
I0309 22:24:36.654044 25890 net.cpp:129] Top shape: 64 64 19 19 (1478656)
I0309 22:24:36.654047 25890 net.cpp:137] Memory required for data: 35765248
I0309 22:24:36.654048 25890 layer_factory.hpp:77] Creating layer conv4
I0309 22:24:36.654054 25890 net.cpp:84] Creating Layer conv4
I0309 22:24:36.654057 25890 net.cpp:406] conv4 <- relu3
I0309 22:24:36.654059 25890 net.cpp:380] conv4 -> conv4
I0309 22:24:36.655565 25890 net.cpp:122] Setting up conv4
I0309 22:24:36.655572 25890 net.cpp:129] Top shape: 64 64 19 19 (1478656)
I0309 22:24:36.655575 25890 net.cpp:137] Memory required for data: 41679872
I0309 22:24:36.655580 25890 layer_factory.hpp:77] Creating layer relu4
I0309 22:24:36.655586 25890 net.cpp:84] Creating Layer relu4
I0309 22:24:36.655589 25890 net.cpp:406] relu4 <- conv4
I0309 22:24:36.655593 25890 net.cpp:380] relu4 -> relu4
I0309 22:24:36.655611 25890 net.cpp:122] Setting up relu4
I0309 22:24:36.655616 25890 net.cpp:129] Top shape: 64 64 19 19 (1478656)
I0309 22:24:36.655617 25890 net.cpp:137] Memory required for data: 47594496
I0309 22:24:36.655619 25890 layer_factory.hpp:77] Creating layer conv5
I0309 22:24:36.655625 25890 net.cpp:84] Creating Layer conv5
I0309 22:24:36.655627 25890 net.cpp:406] conv5 <- relu4
I0309 22:24:36.655632 25890 net.cpp:380] conv5 -> conv5
I0309 22:24:36.656570 25890 net.cpp:122] Setting up conv5
I0309 22:24:36.656577 25890 net.cpp:129] Top shape: 64 1 19 19 (23104)
I0309 22:24:36.656594 25890 net.cpp:137] Memory required for data: 47686912
I0309 22:24:36.656605 25890 layer_factory.hpp:77] Creating layer relu5
I0309 22:24:36.656610 25890 net.cpp:84] Creating Layer relu5
I0309 22:24:36.656611 25890 net.cpp:406] relu5 <- conv5
I0309 22:24:36.656615 25890 net.cpp:380] relu5 -> relu5
I0309 22:24:36.656635 25890 net.cpp:122] Setting up relu5
I0309 22:24:36.656639 25890 net.cpp:129] Top shape: 64 1 19 19 (23104)
I0309 22:24:36.656641 25890 net.cpp:137] Memory required for data: 47779328
I0309 22:24:36.656643 25890 layer_factory.hpp:77] Creating layer fc8
I0309 22:24:36.656648 25890 net.cpp:84] Creating Layer fc8
I0309 22:24:36.656651 25890 net.cpp:406] fc8 <- relu5
I0309 22:24:36.656654 25890 net.cpp:380] fc8 -> fc8
I0309 22:24:36.657378 25890 net.cpp:122] Setting up fc8
I0309 22:24:36.657383 25890 net.cpp:129] Top shape: 64 362 (23168)
I0309 22:24:36.657384 25890 net.cpp:137] Memory required for data: 47872000
I0309 22:24:36.657389 25890 layer_factory.hpp:77] Creating layer softmax_output
I0309 22:24:36.657394 25890 net.cpp:84] Creating Layer softmax_output
I0309 22:24:36.657397 25890 net.cpp:406] softmax_output <- fc8
I0309 22:24:36.657399 25890 net.cpp:406] softmax_output <- label
I0309 22:24:36.657404 25890 net.cpp:380] softmax_output -> softmax_output
…
I0309 22:24:36.658514 25890 net.cpp:294] The NetState phase (1) differed from the phase (0) specified by a rule in layer data
I0309 22:24:36.658525 25890 net.cpp:294] The NetState phase (1) differed from the phase (0) specified by a rule in layer softmax_output
I0309 22:24:36.658599 25890 net.cpp:51] Initializing net from parameters: 
name: "Go_player"
state {
  phase: TEST
}
layer {
  name: "data"
  type: "ImageData"
  top: "data"
  top: "label"
  include {
    phase: TEST
  }
  image_data_param {
    source: "dataset_test.txt"
    batch_size: 4
    shuffle: true
  }
}
layer {
  name: "conv1"
  type: "Convolution"
  bottom: "data"
  top: "conv1"
  convolution_param {
    num_output: 64
    pad: 2
    kernel_size: 5
    stride: 1
    weight_filler {
      type: "xavier"
    }
    bias_filler {
      type: "constant"
    }
  }
}
layer {
  name: "relu1"
  type: "ReLU"
  bottom: "conv1"
  top: "relu1"
  relu_param {
    negative_slope: 0.01
  }
}
layer {
  name: "conv2"
  type: "Convolution"
  bottom: "relu1"
  top: "conv2"
  convolution_param {
    num_output: 64
    pad: 2
    kernel_size: 5
    stride: 1
    weight_filler {
      type: "xavier"
    }
    bias_filler {
      type: "constant"
    }
  }
}
layer {
  name: "relu2"
  type: "ReLU"
  bottom: "conv2"
  top: "relu2"
  relu_param {
    negative_slope: 0.01
  }
}
layer {
  name: "conv3"
  type: "Convolution"
  bottom: "relu2"
  top: "conv3"
  convolution_param {
    num_output: 64
    pad: 2
    kernel_size: 5
    stride: 1
    weight_filler {
      type: "xavier"
    }
    bias_filler {
      type: "constant"
    }
  }
}
layer {
  name: "relu3"
  type: "ReLU"
  bottom: "conv3"
  top: "relu3"
  relu_param {
    negative_slope: 0.01
  }
}
layer {
  name: "conv4"
  type: "Convolution"
  bottom: "relu3"
  top: "conv4"
  convolution_param {
    num_output: 64
    pad: 2
    kernel_size: 5
    stride: 1
    weight_filler {
      type: "xavier"
    }
    bias_filler {
      type: "constant"
    }
  }
}
layer {
  name: "relu4"
  type: "ReLU"
  bottom: "conv4"
  top: "relu4"
  relu_param {
    negative_slope: 0.01
  }
}
layer {
  name: "conv5"
  type: "Convolution"
  bottom: "relu4"
  top: "conv5"
  convolution_param {
    num_output: 1
    pad: 2
    kernel_size: 5
    stride: 1
    weight_filler {
      type: "xavier"
    }
    bias_filler {
      type: "constant"
    }
  }
}
layer {
  name: "relu5"
  type: "ReLU"
  bottom: "conv5"
  top: "relu5"
  relu_param {
    negative_slope: 0.01
  }
}
layer {
  name: "fc8"
  type: "InnerProduct"
  bottom: "relu5"
  top: "fc8"
  inner_product_param {
    num_output: 362
    weight_filler {
      type: "xavier"
    }
    bias_filler {
      type: "constant"
    }
  }
}
layer {
  name: "softmax_output_test"
  type: "SoftmaxWithLoss"
  bottom: "fc8"
  bottom: "label"
  top: "softmax_output_test"
  include {
    phase: TEST
  }
}
I0309 22:24:36.658655 25890 layer_factory.hpp:77] Creating layer data
I0309 22:24:36.658666 25890 net.cpp:84] Creating Layer data
I0309 22:24:36.658670 25890 net.cpp:380] data -> data
I0309 22:24:36.658676 25890 net.cpp:380] data -> label
I0309 22:24:36.658684 25890 image_data_layer.cpp:38] Opening file dataset_test.txt
I0309 22:24:36.683307 25890 image_data_layer.cpp:53] Shuffling data
I0309 22:24:36.691684 25890 image_data_layer.cpp:63] A total of 36562 images.
I0309 22:24:36.691841 25890 image_data_layer.cpp:90] output data size: 4,3,19,19
I0309 22:24:36.692309 25890 net.cpp:122] Setting up data
I0309 22:24:36.692317 25890 net.cpp:129] Top shape: 4 3 19 19 (4332)
I0309 22:24:36.692320 25890 net.cpp:129] Top shape: 4 (4)
I0309 22:24:36.692322 25890 net.cpp:137] Memory required for data: 17344
I0309 22:24:36.692327 25890 layer_factory.hpp:77] Creating layer conv1
I0309 22:24:36.692342 25890 net.cpp:84] Creating Layer conv1
I0309 22:24:36.692344 25890 net.cpp:406] conv1 <- data
I0309 22:24:36.692350 25890 net.cpp:380] conv1 -> conv1
I0309 22:24:36.692652 25890 net.cpp:122] Setting up conv1
I0309 22:24:36.692657 25890 net.cpp:129] Top shape: 4 64 19 19 (92416)
I0309 22:24:36.692659 25890 net.cpp:137] Memory required for data: 387008
I0309 22:24:36.692669 25890 layer_factory.hpp:77] Creating layer relu1
I0309 22:24:36.692675 25890 net.cpp:84] Creating Layer relu1
I0309 22:24:36.692677 25890 net.cpp:406] relu1 <- conv1
I0309 22:24:36.692682 25890 net.cpp:380] relu1 -> relu1
I0309 22:24:36.692700 25890 net.cpp:122] Setting up relu1
I0309 22:24:36.692704 25890 net.cpp:129] Top shape: 4 64 19 19 (92416)
I0309 22:24:36.692705 25890 net.cpp:137] Memory required for data: 756672
I0309 22:24:36.692708 25890 layer_factory.hpp:77] Creating layer conv2
I0309 22:24:36.692713 25890 net.cpp:84] Creating Layer conv2
I0309 22:24:36.692715 25890 net.cpp:406] conv2 <- relu1
I0309 22:24:36.692718 25890 net.cpp:380] conv2 -> conv2
I0309 22:24:36.693373 25890 net.cpp:122] Setting up conv2
I0309 22:24:36.693378 25890 net.cpp:129] Top shape: 4 64 19 19 (92416)
I0309 22:24:36.693380 25890 net.cpp:137] Memory required for data: 1126336
I0309 22:24:36.693387 25890 layer_factory.hpp:77] Creating layer relu2
I0309 22:24:36.693392 25890 net.cpp:84] Creating Layer relu2
I0309 22:24:36.693393 25890 net.cpp:406] relu2 <- conv2
I0309 22:24:36.693397 25890 net.cpp:380] relu2 -> relu2
I0309 22:24:36.693428 25890 net.cpp:122] Setting up relu2
I0309 22:24:36.693431 25890 net.cpp:129] Top shape: 4 64 19 19 (92416)
I0309 22:24:36.693434 25890 net.cpp:137] Memory required for data: 1496000
I0309 22:24:36.693435 25890 layer_factory.hpp:77] Creating layer conv3
I0309 22:24:36.693440 25890 net.cpp:84] Creating Layer conv3
I0309 22:24:36.693442 25890 net.cpp:406] conv3 <- relu2
I0309 22:24:36.693446 25890 net.cpp:380] conv3 -> conv3
I0309 22:24:36.694170 25890 net.cpp:122] Setting up conv3
I0309 22:24:36.694175 25890 net.cpp:129] Top shape: 4 64 19 19 (92416)
I0309 22:24:36.694176 25890 net.cpp:137] Memory required for data: 1865664
I0309 22:24:36.694183 25890 layer_factory.hpp:77] Creating layer relu3
I0309 22:24:36.694187 25890 net.cpp:84] Creating Layer relu3
I0309 22:24:36.694190 25890 net.cpp:406] relu3 <- conv3
I0309 22:24:36.694192 25890 net.cpp:380] relu3 -> relu3
I0309 22:24:36.694207 25890 net.cpp:122] Setting up relu3
I0309 22:24:36.694211 25890 net.cpp:129] Top shape: 4 64 19 19 (92416)
I0309 22:24:36.694212 25890 net.cpp:137] Memory required for data: 2235328
I0309 22:24:36.694214 25890 layer_factory.hpp:77] Creating layer conv4
I0309 22:24:36.694221 25890 net.cpp:84] Creating Layer conv4
I0309 22:24:36.694221 25890 net.cpp:406] conv4 <- relu3
I0309 22:24:36.694226 25890 net.cpp:380] conv4 -> conv4
I0309 22:24:36.695612 25890 net.cpp:122] Setting up conv4
I0309 22:24:36.695619 25890 net.cpp:129] Top shape: 4 64 19 19 (92416)
I0309 22:24:36.695621 25890 net.cpp:137] Memory required for data: 2604992
I0309 22:24:36.695626 25890 layer_factory.hpp:77] Creating layer relu4
I0309 22:24:36.695631 25890 net.cpp:84] Creating Layer relu4
I0309 22:24:36.695634 25890 net.cpp:406] relu4 <- conv4
I0309 22:24:36.695637 25890 net.cpp:380] relu4 -> relu4
I0309 22:24:36.695654 25890 net.cpp:122] Setting up relu4
I0309 22:24:36.695658 25890 net.cpp:129] Top shape: 4 64 19 19 (92416)
I0309 22:24:36.695659 25890 net.cpp:137] Memory required for data: 2974656
I0309 22:24:36.695662 25890 layer_factory.hpp:77] Creating layer conv5
I0309 22:24:36.695667 25890 net.cpp:84] Creating Layer conv5
I0309 22:24:36.695669 25890 net.cpp:406] conv5 <- relu4
I0309 22:24:36.695672 25890 net.cpp:380] conv5 -> conv5
I0309 22:24:36.695861 25890 net.cpp:122] Setting up conv5
I0309 22:24:36.695865 25890 net.cpp:129] Top shape: 4 1 19 19 (1444)
I0309 22:24:36.695868 25890 net.cpp:137] Memory required for data: 2980432
I0309 22:24:36.695874 25890 layer_factory.hpp:77] Creating layer relu5
I0309 22:24:36.695878 25890 net.cpp:84] Creating Layer relu5
I0309 22:24:36.695879 25890 net.cpp:406] relu5 <- conv5
I0309 22:24:36.695883 25890 net.cpp:380] relu5 -> relu5
I0309 22:24:36.695899 25890 net.cpp:122] Setting up relu5
I0309 22:24:36.695901 25890 net.cpp:129] Top shape: 4 1 19 19 (1444)
I0309 22:24:36.695902 25890 net.cpp:137] Memory required for data: 2986208
I0309 22:24:36.695904 25890 layer_factory.hpp:77] Creating layer fc8
I0309 22:24:36.695909 25890 net.cpp:84] Creating Layer fc8
I0309 22:24:36.695911 25890 net.cpp:406] fc8 <- relu5
I0309 22:24:36.695914 25890 net.cpp:380] fc8 -> fc8
I0309 22:24:36.696565 25890 net.cpp:122] Setting up fc8
I0309 22:24:36.696569 25890 net.cpp:129] Top shape: 4 362 (1448)
I0309 22:24:36.696570 25890 net.cpp:137] Memory required for data: 2992000
I0309 22:24:36.696574 25890 layer_factory.hpp:77] Creating layer softmax_output_test
I0309 22:24:36.696579 25890 net.cpp:84] Creating Layer softmax_output_test
I0309 22:24:36.696581 25890 net.cpp:406] softmax_output_test <- fc8
I0309 22:24:36.696584 25890 net.cpp:406] softmax_output_test <- label
I0309 22:24:36.696588 25890 net.cpp:380] softmax_output_test -> softmax_output_test
…
