…
I0412 11:38:40.235154 20627 net.cpp:294] The NetState phase (0) differed from the phase (1) specified by a rule in layer data
I0412 11:38:40.235164 20627 net.cpp:294] The NetState phase (0) differed from the phase (1) specified by a rule in layer softmax_output_test
I0412 11:38:40.235265 20627 net.cpp:51] Initializing net from parameters: 
name: "Go_player"
state {
  phase: TRAIN
}
layer {
  name: "data"
  type: "ImageData"
  top: "data"
  top: "label"
  include {
    phase: TRAIN
  }
  image_data_param {
    source: "dataset_train_0_1_norm.txt"
    batch_size: 64
    shuffle: true
  }
}
layer {
  name: "conv1"
  type: "Convolution"
  bottom: "data"
  top: "conv1"
  convolution_param {
    num_output: 64
    pad: 2
    kernel_size: 5
    stride: 1
    weight_filler {
      type: "xavier"
    }
    bias_filler {
      type: "constant"
    }
  }
}
layer {
  name: "relu1"
  type: "ReLU"
  bottom: "conv1"
  top: "relu1"
  relu_param {
    negative_slope: 0.01
  }
}
layer {
  name: "bn1"
  type: "BatchNorm"
  bottom: "relu1"
  top: "bn1"
  param {
    lr_mult: 0
    decay_mult: 0
  }
  param {
    lr_mult: 0
    decay_mult: 0
  }
  param {
    lr_mult: 0
    decay_mult: 0
  }
}
layer {
  name: "conv2"
  type: "Convolution"
  bottom: "bn1"
  top: "conv2"
  convolution_param {
    num_output: 64
    pad: 2
    kernel_size: 5
    stride: 1
    weight_filler {
      type: "xavier"
    }
    bias_filler {
      type: "constant"
    }
  }
}
layer {
  name: "relu2"
  type: "ReLU"
  bottom: "conv2"
  top: "relu2"
  relu_param {
    negative_slope: 0.01
  }
}
layer {
  name: "bn2"
  type: "BatchNorm"
  bottom: "relu2"
  top: "bn2"
  param {
    lr_mult: 0
    decay_mult: 0
  }
  param {
    lr_mult: 0
    decay_mult: 0
  }
  param {
    lr_mult: 0
    decay_mult: 0
  }
}
layer {
  name: "conv3"
  type: "Convolution"
  bottom: "bn2"
  top: "conv3"
  convolution_param {
    num_output: 64
    pad: 2
    kernel_size: 5
    stride: 1
    weight_filler {
      type: "xavier"
    }
    bias_filler {
      type: "constant"
    }
  }
}
layer {
  name: "relu3"
  type: "ReLU"
  bottom: "conv3"
  top: "relu3"
  relu_param {
    negative_slope: 0.01
  }
}
layer {
  name: "bn3"
  type: "BatchNorm"
  bottom: "relu3"
  top: "bn3"
  param {
    lr_mult: 0
    decay_mult: 0
  }
  param {
    lr_mult: 0
    decay_mult: 0
  }
  param {
    lr_mult: 0
    decay_mult: 0
  }
}
layer {
  name: "conv4"
  type: "Convolution"
  bottom: "bn3"
  top: "conv4"
  convolution_param {
    num_output: 64
    pad: 2
    kernel_size: 5
    stride: 1
    weight_filler {
      type: "xavier"
    }
    bias_filler {
      type: "constant"
    }
  }
}
layer {
  name: "relu4"
  type: "ReLU"
  bottom: "conv4"
  top: "relu4"
  relu_param {
    negative_slope: 0.01
  }
}
layer {
  name: "bn4"
  type: "BatchNorm"
  bottom: "relu4"
  top: "bn4"
  param {
    lr_mult: 0
    decay_mult: 0
  }
  param {
    lr_mult: 0
    decay_mult: 0
  }
  param {
    lr_mult: 0
    decay_mult: 0
  }
}
layer {
  name: "conv5"
  type: "Convolution"
  bottom: "bn4"
  top: "conv5"
  convolution_param {
    num_output: 1
    pad: 2
    kernel_size: 5
    stride: 1
    weight_filler {
      type: "xavier"
    }
    bias_filler {
      type: "constant"
    }
  }
}
layer {
  name: "relu5"
  type: "ReLU"
  bottom: "conv5"
  top: "relu5"
  relu_param {
    negative_slope: 0.01
  }
}
layer {
  name: "bn5"
  type: "BatchNorm"
  bottom: "relu5"
  top: "bn5"
  param {
    lr_mult: 0
    decay_mult: 0
  }
  param {
    lr_mult: 0
    decay_mult: 0
  }
  param {
    lr_mult: 0
    decay_mult: 0
  }
}
layer {
  name: "fc"
  type: "InnerProduct"
  bottom: "bn5"
  top: "fc"
  inner_product_param {
    num_output: 362
    weight_filler {
      type: "xavier"
    }
    bias_filler {
      type: "constant"
    }
  }
}
layer {
  name: "softmax_output"
  type: "SoftmaxWithLoss"
  bottom: "fc"
  bottom: "label"
  top: "softmax_output"
  include {
    phase: TRAIN
  }
}
I0412 11:38:40.235337 20627 layer_factory.hpp:77] Creating layer data
I0412 11:38:40.235358 20627 net.cpp:84] Creating Layer data
I0412 11:38:40.235363 20627 net.cpp:380] data -> data
I0412 11:38:40.235385 20627 net.cpp:380] data -> label
I0412 11:38:40.235396 20627 image_data_layer.cpp:38] Opening file dataset_train_0_1_norm.txt
I0412 11:38:40.418269 20627 image_data_layer.cpp:53] Shuffling data
I0412 11:38:40.558199 20627 image_data_layer.cpp:63] A total of 434400 images.
I0412 11:38:40.559273 20627 image_data_layer.cpp:90] output data size: 64,3,19,19
I0412 11:38:40.560914 20627 net.cpp:122] Setting up data
I0412 11:38:40.560925 20627 net.cpp:129] Top shape: 64 3 19 19 (69312)
I0412 11:38:40.560928 20627 net.cpp:129] Top shape: 64 (64)
I0412 11:38:40.560930 20627 net.cpp:137] Memory required for data: 277504
I0412 11:38:40.560935 20627 layer_factory.hpp:77] Creating layer conv1
I0412 11:38:40.560955 20627 net.cpp:84] Creating Layer conv1
I0412 11:38:40.560959 20627 net.cpp:406] conv1 <- data
I0412 11:38:40.560969 20627 net.cpp:380] conv1 -> conv1
I0412 11:38:40.562769 20627 net.cpp:122] Setting up conv1
I0412 11:38:40.562778 20627 net.cpp:129] Top shape: 64 64 19 19 (1478656)
I0412 11:38:40.562780 20627 net.cpp:137] Memory required for data: 6192128
I0412 11:38:40.562796 20627 layer_factory.hpp:77] Creating layer relu1
I0412 11:38:40.562803 20627 net.cpp:84] Creating Layer relu1
I0412 11:38:40.562806 20627 net.cpp:406] relu1 <- conv1
I0412 11:38:40.562810 20627 net.cpp:380] relu1 -> relu1
I0412 11:38:40.562837 20627 net.cpp:122] Setting up relu1
I0412 11:38:40.562841 20627 net.cpp:129] Top shape: 64 64 19 19 (1478656)
I0412 11:38:40.562842 20627 net.cpp:137] Memory required for data: 12106752
I0412 11:38:40.562844 20627 layer_factory.hpp:77] Creating layer bn1
I0412 11:38:40.562850 20627 net.cpp:84] Creating Layer bn1
I0412 11:38:40.562852 20627 net.cpp:406] bn1 <- relu1
I0412 11:38:40.562856 20627 net.cpp:380] bn1 -> bn1
I0412 11:38:40.563027 20627 net.cpp:122] Setting up bn1
I0412 11:38:40.563032 20627 net.cpp:129] Top shape: 64 64 19 19 (1478656)
I0412 11:38:40.563035 20627 net.cpp:137] Memory required for data: 18021376
I0412 11:38:40.563043 20627 layer_factory.hpp:77] Creating layer conv2
I0412 11:38:40.563052 20627 net.cpp:84] Creating Layer conv2
I0412 11:38:40.563055 20627 net.cpp:406] conv2 <- bn1
I0412 11:38:40.563060 20627 net.cpp:380] conv2 -> conv2
I0412 11:38:40.563767 20627 net.cpp:122] Setting up conv2
I0412 11:38:40.563771 20627 net.cpp:129] Top shape: 64 64 19 19 (1478656)
I0412 11:38:40.563774 20627 net.cpp:137] Memory required for data: 23936000
I0412 11:38:40.563779 20627 layer_factory.hpp:77] Creating layer relu2
I0412 11:38:40.563783 20627 net.cpp:84] Creating Layer relu2
I0412 11:38:40.563786 20627 net.cpp:406] relu2 <- conv2
I0412 11:38:40.563789 20627 net.cpp:380] relu2 -> relu2
I0412 11:38:40.563807 20627 net.cpp:122] Setting up relu2
I0412 11:38:40.563809 20627 net.cpp:129] Top shape: 64 64 19 19 (1478656)
I0412 11:38:40.563812 20627 net.cpp:137] Memory required for data: 29850624
I0412 11:38:40.563813 20627 layer_factory.hpp:77] Creating layer bn2
I0412 11:38:40.563817 20627 net.cpp:84] Creating Layer bn2
I0412 11:38:40.563819 20627 net.cpp:406] bn2 <- relu2
I0412 11:38:40.563823 20627 net.cpp:380] bn2 -> bn2
I0412 11:38:40.563985 20627 net.cpp:122] Setting up bn2
I0412 11:38:40.563989 20627 net.cpp:129] Top shape: 64 64 19 19 (1478656)
I0412 11:38:40.563992 20627 net.cpp:137] Memory required for data: 35765248
I0412 11:38:40.564013 20627 layer_factory.hpp:77] Creating layer conv3
I0412 11:38:40.564020 20627 net.cpp:84] Creating Layer conv3
I0412 11:38:40.564023 20627 net.cpp:406] conv3 <- bn2
I0412 11:38:40.564028 20627 net.cpp:380] conv3 -> conv3
I0412 11:38:40.564694 20627 net.cpp:122] Setting up conv3
I0412 11:38:40.564698 20627 net.cpp:129] Top shape: 64 64 19 19 (1478656)
I0412 11:38:40.564700 20627 net.cpp:137] Memory required for data: 41679872
I0412 11:38:40.564705 20627 layer_factory.hpp:77] Creating layer relu3
I0412 11:38:40.564710 20627 net.cpp:84] Creating Layer relu3
I0412 11:38:40.564713 20627 net.cpp:406] relu3 <- conv3
I0412 11:38:40.564716 20627 net.cpp:380] relu3 -> relu3
I0412 11:38:40.564733 20627 net.cpp:122] Setting up relu3
I0412 11:38:40.564735 20627 net.cpp:129] Top shape: 64 64 19 19 (1478656)
I0412 11:38:40.564738 20627 net.cpp:137] Memory required for data: 47594496
I0412 11:38:40.564739 20627 layer_factory.hpp:77] Creating layer bn3
I0412 11:38:40.564743 20627 net.cpp:84] Creating Layer bn3
I0412 11:38:40.564745 20627 net.cpp:406] bn3 <- relu3
I0412 11:38:40.564749 20627 net.cpp:380] bn3 -> bn3
I0412 11:38:40.564905 20627 net.cpp:122] Setting up bn3
I0412 11:38:40.564909 20627 net.cpp:129] Top shape: 64 64 19 19 (1478656)
I0412 11:38:40.564911 20627 net.cpp:137] Memory required for data: 53509120
I0412 11:38:40.564916 20627 layer_factory.hpp:77] Creating layer conv4
I0412 11:38:40.564924 20627 net.cpp:84] Creating Layer conv4
I0412 11:38:40.564925 20627 net.cpp:406] conv4 <- bn3
I0412 11:38:40.564929 20627 net.cpp:380] conv4 -> conv4
I0412 11:38:40.566334 20627 net.cpp:122] Setting up conv4
I0412 11:38:40.566341 20627 net.cpp:129] Top shape: 64 64 19 19 (1478656)
I0412 11:38:40.566344 20627 net.cpp:137] Memory required for data: 59423744
I0412 11:38:40.566354 20627 layer_factory.hpp:77] Creating layer relu4
I0412 11:38:40.566359 20627 net.cpp:84] Creating Layer relu4
I0412 11:38:40.566361 20627 net.cpp:406] relu4 <- conv4
I0412 11:38:40.566365 20627 net.cpp:380] relu4 -> relu4
I0412 11:38:40.566382 20627 net.cpp:122] Setting up relu4
I0412 11:38:40.566386 20627 net.cpp:129] Top shape: 64 64 19 19 (1478656)
I0412 11:38:40.566388 20627 net.cpp:137] Memory required for data: 65338368
I0412 11:38:40.566390 20627 layer_factory.hpp:77] Creating layer bn4
I0412 11:38:40.566395 20627 net.cpp:84] Creating Layer bn4
I0412 11:38:40.566395 20627 net.cpp:406] bn4 <- relu4
I0412 11:38:40.566399 20627 net.cpp:380] bn4 -> bn4
I0412 11:38:40.566561 20627 net.cpp:122] Setting up bn4
I0412 11:38:40.566565 20627 net.cpp:129] Top shape: 64 64 19 19 (1478656)
I0412 11:38:40.566567 20627 net.cpp:137] Memory required for data: 71252992
I0412 11:38:40.566572 20627 layer_factory.hpp:77] Creating layer conv5
I0412 11:38:40.566581 20627 net.cpp:84] Creating Layer conv5
I0412 11:38:40.566582 20627 net.cpp:406] conv5 <- bn4
I0412 11:38:40.566587 20627 net.cpp:380] conv5 -> conv5
I0412 11:38:40.567538 20627 net.cpp:122] Setting up conv5
I0412 11:38:40.567544 20627 net.cpp:129] Top shape: 64 1 19 19 (23104)
I0412 11:38:40.567546 20627 net.cpp:137] Memory required for data: 71345408
I0412 11:38:40.567551 20627 layer_factory.hpp:77] Creating layer relu5
I0412 11:38:40.567555 20627 net.cpp:84] Creating Layer relu5
I0412 11:38:40.567558 20627 net.cpp:406] relu5 <- conv5
I0412 11:38:40.567562 20627 net.cpp:380] relu5 -> relu5
I0412 11:38:40.567579 20627 net.cpp:122] Setting up relu5
I0412 11:38:40.567584 20627 net.cpp:129] Top shape: 64 1 19 19 (23104)
I0412 11:38:40.567584 20627 net.cpp:137] Memory required for data: 71437824
I0412 11:38:40.567586 20627 layer_factory.hpp:77] Creating layer bn5
I0412 11:38:40.567593 20627 net.cpp:84] Creating Layer bn5
I0412 11:38:40.567595 20627 net.cpp:406] bn5 <- relu5
I0412 11:38:40.567601 20627 net.cpp:380] bn5 -> bn5
I0412 11:38:40.567764 20627 net.cpp:122] Setting up bn5
I0412 11:38:40.567768 20627 net.cpp:129] Top shape: 64 1 19 19 (23104)
I0412 11:38:40.567770 20627 net.cpp:137] Memory required for data: 71530240
I0412 11:38:40.567776 20627 layer_factory.hpp:77] Creating layer fc
I0412 11:38:40.567792 20627 net.cpp:84] Creating Layer fc
I0412 11:38:40.567795 20627 net.cpp:406] fc <- bn5
I0412 11:38:40.567800 20627 net.cpp:380] fc -> fc
I0412 11:38:40.568490 20627 net.cpp:122] Setting up fc
I0412 11:38:40.568492 20627 net.cpp:129] Top shape: 64 362 (23168)
I0412 11:38:40.568495 20627 net.cpp:137] Memory required for data: 71622912
I0412 11:38:40.568498 20627 layer_factory.hpp:77] Creating layer softmax_output
I0412 11:38:40.568503 20627 net.cpp:84] Creating Layer softmax_output
I0412 11:38:40.568506 20627 net.cpp:406] softmax_output <- fc
I0412 11:38:40.568507 20627 net.cpp:406] softmax_output <- label
I0412 11:38:40.568513 20627 net.cpp:380] softmax_output -> softmax_output
…
