…
I0222 11:30:17.415277 28342 net.cpp:294] The NetState phase (0) differed from the phase (1) specified by a rule in layer data
I0222 11:30:17.415284 28342 net.cpp:294] The NetState phase (0) differed from the phase (1) specified by a rule in layer probT
I0222 11:30:17.415341 28342 net.cpp:51] Initializing net from parameters: 
name: "Go_player"
state {
  phase: TRAIN
}
layer {
  name: "data"
  type: "ImageData"
  top: "data"
  top: "label"
  include {
    phase: TRAIN
  }
  image_data_param {
    source: "dataset_train.txt"
    batch_size: 64
    shuffle: true
  }
}
layer {
  name: "conv1"
  type: "Convolution"
  bottom: "data"
  top: "conv1"
  convolution_param {
    num_output: 64
    pad: 2
    kernel_size: 5
    stride: 1
    weight_filler {
      type: "xavier"
    }
    bias_filler {
      type: "constant"
    }
  }
}
layer {
  name: "prelu1"
  type: "PReLU"
  bottom: "conv1"
  top: "prelu1"
}
layer {
  name: "conv2"
  type: "Convolution"
  bottom: "prelu1"
  top: "conv2"
  convolution_param {
    num_output: 64
    pad: 2
    kernel_size: 5
    stride: 1
    weight_filler {
      type: "xavier"
    }
    bias_filler {
      type: "constant"
    }
  }
}
layer {
  name: "prelu2"
  type: "PReLU"
  bottom: "conv2"
  top: "prelu2"
}
layer {
  name: "conv3"
  type: "Convolution"
  bottom: "prelu2"
  top: "conv3"
  convolution_param {
    num_output: 64
    pad: 2
    kernel_size: 5
    stride: 1
    weight_filler {
      type: "xavier"
    }
    bias_filler {
      type: "constant"
    }
  }
}
layer {
  name: "prelu3"
  type: "PReLU"
  bottom: "conv3"
  top: "prelu3"
}
layer {
  name: "conv4"
  type: "Convolution"
  bottom: "prelu3"
  top: "conv4"
  convolution_param {
    num_output: 64
    pad: 2
    kernel_size: 5
    stride: 1
    weight_filler {
      type: "xavier"
    }
    bias_filler {
      type: "constant"
    }
  }
}
layer {
  name: "prelu4"
  type: "PReLU"
  bottom: "conv4"
  top: "prelu4"
}
layer {
  name: "conv5"
  type: "Convolution"
  bottom: "prelu4"
  top: "conv5"
  convolution_param {
    num_output: 1
    pad: 2
    kernel_size: 5
    stride: 1
    weight_filler {
      type: "xavier"
    }
    bias_filler {
      type: "constant"
    }
  }
}
layer {
  name: "prelu5"
  type: "PReLU"
  bottom: "conv5"
  top: "prelu5"
}
layer {
  name: "fc8"
  type: "InnerProduct"
  bottom: "prelu5"
  top: "fc8"
  inner_product_param {
    num_output: 362
    weight_filler {
      type: "xavier"
    }
    bias_filler {
      type: "constant"
    }
  }
}
layer {
  name: "prob"
  type: "SoftmaxWithLoss"
  bottom: "fc8"
  bottom: "label"
  top: "prob"
  include {
    phase: TRAIN
  }
}
I0222 11:30:17.415395 28342 layer_factory.hpp:77] Creating layer data
I0222 11:30:17.415416 28342 net.cpp:84] Creating Layer data
I0222 11:30:17.415419 28342 net.cpp:380] data -> data
I0222 11:30:17.415433 28342 net.cpp:380] data -> label
I0222 11:30:17.415442 28342 image_data_layer.cpp:38] Opening file dataset_train.txt
I0222 11:30:17.546602 28342 image_data_layer.cpp:53] Shuffling data
I0222 11:30:17.630439 28342 image_data_layer.cpp:63] A total of 356208 images.
I0222 11:30:17.634853 28342 image_data_layer.cpp:90] output data size: 64,3,19,19
I0222 11:30:17.636344 28342 net.cpp:122] Setting up data
I0222 11:30:17.636355 28342 net.cpp:129] Top shape: 64 3 19 19 (69312)
I0222 11:30:17.636359 28342 net.cpp:129] Top shape: 64 (64)
I0222 11:30:17.636361 28342 net.cpp:137] Memory required for data: 277504
I0222 11:30:17.636368 28342 layer_factory.hpp:77] Creating layer conv1
I0222 11:30:17.636389 28342 net.cpp:84] Creating Layer conv1
I0222 11:30:17.636416 28342 net.cpp:406] conv1 <- data
I0222 11:30:17.636427 28342 net.cpp:380] conv1 -> conv1
I0222 11:30:17.638190 28342 net.cpp:122] Setting up conv1
I0222 11:30:17.638200 28342 net.cpp:129] Top shape: 64 64 19 19 (1478656)
I0222 11:30:17.638202 28342 net.cpp:137] Memory required for data: 6192128
I0222 11:30:17.638218 28342 layer_factory.hpp:77] Creating layer prelu1
I0222 11:30:17.638226 28342 net.cpp:84] Creating Layer prelu1
I0222 11:30:17.638228 28342 net.cpp:406] prelu1 <- conv1
I0222 11:30:17.638233 28342 net.cpp:380] prelu1 -> prelu1
I0222 11:30:17.639019 28342 net.cpp:122] Setting up prelu1
I0222 11:30:17.639026 28342 net.cpp:129] Top shape: 64 64 19 19 (1478656)
I0222 11:30:17.639029 28342 net.cpp:137] Memory required for data: 12106752
I0222 11:30:17.639036 28342 layer_factory.hpp:77] Creating layer conv2
I0222 11:30:17.639048 28342 net.cpp:84] Creating Layer conv2
I0222 11:30:17.639050 28342 net.cpp:406] conv2 <- prelu1
I0222 11:30:17.639056 28342 net.cpp:380] conv2 -> conv2
I0222 11:30:17.639827 28342 net.cpp:122] Setting up conv2
I0222 11:30:17.639832 28342 net.cpp:129] Top shape: 64 64 19 19 (1478656)
I0222 11:30:17.639834 28342 net.cpp:137] Memory required for data: 18021376
I0222 11:30:17.639842 28342 layer_factory.hpp:77] Creating layer prelu2
I0222 11:30:17.639847 28342 net.cpp:84] Creating Layer prelu2
I0222 11:30:17.639848 28342 net.cpp:406] prelu2 <- conv2
I0222 11:30:17.639853 28342 net.cpp:380] prelu2 -> prelu2
I0222 11:30:17.639941 28342 net.cpp:122] Setting up prelu2
I0222 11:30:17.639946 28342 net.cpp:129] Top shape: 64 64 19 19 (1478656)
I0222 11:30:17.639948 28342 net.cpp:137] Memory required for data: 23936000
I0222 11:30:17.639951 28342 layer_factory.hpp:77] Creating layer conv3
I0222 11:30:17.639958 28342 net.cpp:84] Creating Layer conv3
I0222 11:30:17.639961 28342 net.cpp:406] conv3 <- prelu2
I0222 11:30:17.639966 28342 net.cpp:380] conv3 -> conv3
I0222 11:30:17.640699 28342 net.cpp:122] Setting up conv3
I0222 11:30:17.640703 28342 net.cpp:129] Top shape: 64 64 19 19 (1478656)
I0222 11:30:17.640705 28342 net.cpp:137] Memory required for data: 29850624
I0222 11:30:17.640709 28342 layer_factory.hpp:77] Creating layer prelu3
I0222 11:30:17.640713 28342 net.cpp:84] Creating Layer prelu3
I0222 11:30:17.640715 28342 net.cpp:406] prelu3 <- conv3
I0222 11:30:17.640718 28342 net.cpp:380] prelu3 -> prelu3
I0222 11:30:17.640803 28342 net.cpp:122] Setting up prelu3
I0222 11:30:17.640807 28342 net.cpp:129] Top shape: 64 64 19 19 (1478656)
I0222 11:30:17.640810 28342 net.cpp:137] Memory required for data: 35765248
I0222 11:30:17.640815 28342 layer_factory.hpp:77] Creating layer conv4
I0222 11:30:17.640822 28342 net.cpp:84] Creating Layer conv4
I0222 11:30:17.640825 28342 net.cpp:406] conv4 <- prelu3
I0222 11:30:17.640828 28342 net.cpp:380] conv4 -> conv4
I0222 11:30:17.642208 28342 net.cpp:122] Setting up conv4
I0222 11:30:17.642215 28342 net.cpp:129] Top shape: 64 64 19 19 (1478656)
I0222 11:30:17.642217 28342 net.cpp:137] Memory required for data: 41679872
I0222 11:30:17.642223 28342 layer_factory.hpp:77] Creating layer prelu4
I0222 11:30:17.642230 28342 net.cpp:84] Creating Layer prelu4
I0222 11:30:17.642231 28342 net.cpp:406] prelu4 <- conv4
I0222 11:30:17.642235 28342 net.cpp:380] prelu4 -> prelu4
I0222 11:30:17.642334 28342 net.cpp:122] Setting up prelu4
I0222 11:30:17.642338 28342 net.cpp:129] Top shape: 64 64 19 19 (1478656)
I0222 11:30:17.642340 28342 net.cpp:137] Memory required for data: 47594496
I0222 11:30:17.642343 28342 layer_factory.hpp:77] Creating layer conv5
I0222 11:30:17.642349 28342 net.cpp:84] Creating Layer conv5
I0222 11:30:17.642351 28342 net.cpp:406] conv5 <- prelu4
I0222 11:30:17.642355 28342 net.cpp:380] conv5 -> conv5
I0222 11:30:17.643210 28342 net.cpp:122] Setting up conv5
I0222 11:30:17.643216 28342 net.cpp:129] Top shape: 64 1 19 19 (23104)
I0222 11:30:17.643218 28342 net.cpp:137] Memory required for data: 47686912
I0222 11:30:17.643224 28342 layer_factory.hpp:77] Creating layer prelu5
I0222 11:30:17.643229 28342 net.cpp:84] Creating Layer prelu5
I0222 11:30:17.643244 28342 net.cpp:406] prelu5 <- conv5
I0222 11:30:17.643249 28342 net.cpp:380] prelu5 -> prelu5
I0222 11:30:17.643322 28342 net.cpp:122] Setting up prelu5
I0222 11:30:17.643327 28342 net.cpp:129] Top shape: 64 1 19 19 (23104)
I0222 11:30:17.643328 28342 net.cpp:137] Memory required for data: 47779328
I0222 11:30:17.643332 28342 layer_factory.hpp:77] Creating layer fc8
I0222 11:30:17.643337 28342 net.cpp:84] Creating Layer fc8
I0222 11:30:17.643340 28342 net.cpp:406] fc8 <- prelu5
I0222 11:30:17.643344 28342 net.cpp:380] fc8 -> fc8
I0222 11:30:17.644076 28342 net.cpp:122] Setting up fc8
I0222 11:30:17.644080 28342 net.cpp:129] Top shape: 64 362 (23168)
I0222 11:30:17.644083 28342 net.cpp:137] Memory required for data: 47872000
I0222 11:30:17.644093 28342 layer_factory.hpp:77] Creating layer prob
I0222 11:30:17.644098 28342 net.cpp:84] Creating Layer prob
I0222 11:30:17.644099 28342 net.cpp:406] prob <- fc8
I0222 11:30:17.644103 28342 net.cpp:406] prob <- label
I0222 11:30:17.644107 28342 net.cpp:380] prob -> prob
I0222 11:30:17.644114 28342 layer_factory.hpp:77] Creating layer prob
…
I0222 11:30:17.644456 28342 net.cpp:294] The NetState phase (1) differed from the phase (0) specified by a rule in layer data
I0222 11:30:17.644466 28342 net.cpp:294] The NetState phase (1) differed from the phase (0) specified by a rule in layer prob
I0222 11:30:17.644539 28342 net.cpp:51] Initializing net from parameters: 
name: "Go_player"
state {
  phase: TEST
}
layer {
  name: "data"
  type: "ImageData"
  top: "data"
  top: "label"
  include {
    phase: TEST
  }
  image_data_param {
    source: "dataset_train.txt"
    batch_size: 2
    shuffle: true
  }
}
layer {
  name: "conv1"
  type: "Convolution"
  bottom: "data"
  top: "conv1"
  convolution_param {
    num_output: 64
    pad: 2
    kernel_size: 5
    stride: 1
    weight_filler {
      type: "xavier"
    }
    bias_filler {
      type: "constant"
    }
  }
}
layer {
  name: "prelu1"
  type: "PReLU"
  bottom: "conv1"
  top: "prelu1"
}
layer {
  name: "conv2"
  type: "Convolution"
  bottom: "prelu1"
  top: "conv2"
  convolution_param {
    num_output: 64
    pad: 2
    kernel_size: 5
    stride: 1
    weight_filler {
      type: "xavier"
    }
    bias_filler {
      type: "constant"
    }
  }
}
layer {
  name: "prelu2"
  type: "PReLU"
  bottom: "conv2"
  top: "prelu2"
}
layer {
  name: "conv3"
  type: "Convolution"
  bottom: "prelu2"
  top: "conv3"
  convolution_param {
    num_output: 64
    pad: 2
    kernel_size: 5
    stride: 1
    weight_filler {
      type: "xavier"
    }
    bias_filler {
      type: "constant"
    }
  }
}
layer {
  name: "prelu3"
  type: "PReLU"
  bottom: "conv3"
  top: "prelu3"
}
layer {
  name: "conv4"
  type: "Convolution"
  bottom: "prelu3"
  top: "conv4"
  convolution_param {
    num_output: 64
    pad: 2
    kernel_size: 5
    stride: 1
    weight_filler {
      type: "xavier"
    }
    bias_filler {
      type: "constant"
    }
  }
}
layer {
  name: "prelu4"
  type: "PReLU"
  bottom: "conv4"
  top: "prelu4"
}
layer {
  name: "conv5"
  type: "Convolution"
  bottom: "prelu4"
  top: "conv5"
  convolution_param {
    num_output: 1
    pad: 2
    kernel_size: 5
    stride: 1
    weight_filler {
      type: "xavier"
    }
    bias_filler {
      type: "constant"
    }
  }
}
layer {
  name: "prelu5"
  type: "PReLU"
  bottom: "conv5"
  top: "prelu5"
}
layer {
  name: "fc8"
  type: "InnerProduct"
  bottom: "prelu5"
  top: "fc8"
  inner_product_param {
    num_output: 362
    weight_filler {
      type: "xavier"
    }
    bias_filler {
      type: "constant"
    }
  }
}
layer {
  name: "probT"
  type: "SoftmaxWithLoss"
  bottom: "fc8"
  bottom: "label"
  top: "probT"
  include {
    phase: TEST
  }
}
I0222 11:30:17.644593 28342 layer_factory.hpp:77] Creating layer data
I0222 11:30:17.644604 28342 net.cpp:84] Creating Layer data
I0222 11:30:17.644608 28342 net.cpp:380] data -> data
I0222 11:30:17.644613 28342 net.cpp:380] data -> label
I0222 11:30:17.644620 28342 image_data_layer.cpp:38] Opening file dataset_train.txt
I0222 11:30:17.862749 28342 image_data_layer.cpp:53] Shuffling data
I0222 11:30:17.957113 28342 image_data_layer.cpp:63] A total of 356208 images.
I0222 11:30:17.961194 28342 image_data_layer.cpp:90] output data size: 2,3,19,19
I0222 11:30:17.961913 28342 net.cpp:122] Setting up data
I0222 11:30:17.961923 28342 net.cpp:129] Top shape: 2 3 19 19 (2166)
I0222 11:30:17.961926 28342 net.cpp:129] Top shape: 2 (2)
I0222 11:30:17.961928 28342 net.cpp:137] Memory required for data: 8672
I0222 11:30:17.961933 28342 layer_factory.hpp:77] Creating layer conv1
I0222 11:30:17.961949 28342 net.cpp:84] Creating Layer conv1
I0222 11:30:17.961952 28342 net.cpp:406] conv1 <- data
I0222 11:30:17.961961 28342 net.cpp:380] conv1 -> conv1
I0222 11:30:17.962330 28342 net.cpp:122] Setting up conv1
I0222 11:30:17.962337 28342 net.cpp:129] Top shape: 2 64 19 19 (46208)
I0222 11:30:17.962338 28342 net.cpp:137] Memory required for data: 193504
I0222 11:30:17.962349 28342 layer_factory.hpp:77] Creating layer prelu1
I0222 11:30:17.962357 28342 net.cpp:84] Creating Layer prelu1
I0222 11:30:17.962358 28342 net.cpp:406] prelu1 <- conv1
I0222 11:30:17.962363 28342 net.cpp:380] prelu1 -> prelu1
I0222 11:30:17.962458 28342 net.cpp:122] Setting up prelu1
I0222 11:30:17.962463 28342 net.cpp:129] Top shape: 2 64 19 19 (46208)
I0222 11:30:17.962466 28342 net.cpp:137] Memory required for data: 378336
I0222 11:30:17.962471 28342 layer_factory.hpp:77] Creating layer conv2
I0222 11:30:17.962478 28342 net.cpp:84] Creating Layer conv2
I0222 11:30:17.962481 28342 net.cpp:406] conv2 <- prelu1
I0222 11:30:17.962486 28342 net.cpp:380] conv2 -> conv2
I0222 11:30:17.963268 28342 net.cpp:122] Setting up conv2
I0222 11:30:17.963274 28342 net.cpp:129] Top shape: 2 64 19 19 (46208)
I0222 11:30:17.963275 28342 net.cpp:137] Memory required for data: 563168
I0222 11:30:17.963284 28342 layer_factory.hpp:77] Creating layer prelu2
I0222 11:30:17.963289 28342 net.cpp:84] Creating Layer prelu2
I0222 11:30:17.963290 28342 net.cpp:406] prelu2 <- conv2
I0222 11:30:17.963295 28342 net.cpp:380] prelu2 -> prelu2
I0222 11:30:17.963433 28342 net.cpp:122] Setting up prelu2
I0222 11:30:17.963438 28342 net.cpp:129] Top shape: 2 64 19 19 (46208)
I0222 11:30:17.963440 28342 net.cpp:137] Memory required for data: 748000
I0222 11:30:17.963444 28342 layer_factory.hpp:77] Creating layer conv3
I0222 11:30:17.963452 28342 net.cpp:84] Creating Layer conv3
I0222 11:30:17.963454 28342 net.cpp:406] conv3 <- prelu2
I0222 11:30:17.963459 28342 net.cpp:380] conv3 -> conv3
I0222 11:30:17.964251 28342 net.cpp:122] Setting up conv3
I0222 11:30:17.964256 28342 net.cpp:129] Top shape: 2 64 19 19 (46208)
I0222 11:30:17.964273 28342 net.cpp:137] Memory required for data: 932832
I0222 11:30:17.964278 28342 layer_factory.hpp:77] Creating layer prelu3
I0222 11:30:17.964282 28342 net.cpp:84] Creating Layer prelu3
I0222 11:30:17.964285 28342 net.cpp:406] prelu3 <- conv3
I0222 11:30:17.964289 28342 net.cpp:380] prelu3 -> prelu3
I0222 11:30:17.964385 28342 net.cpp:122] Setting up prelu3
I0222 11:30:17.964388 28342 net.cpp:129] Top shape: 2 64 19 19 (46208)
I0222 11:30:17.964390 28342 net.cpp:137] Memory required for data: 1117664
I0222 11:30:17.964397 28342 layer_factory.hpp:77] Creating layer conv4
I0222 11:30:17.964406 28342 net.cpp:84] Creating Layer conv4
I0222 11:30:17.964408 28342 net.cpp:406] conv4 <- prelu3
I0222 11:30:17.964413 28342 net.cpp:380] conv4 -> conv4
I0222 11:30:17.965941 28342 net.cpp:122] Setting up conv4
I0222 11:30:17.965950 28342 net.cpp:129] Top shape: 2 64 19 19 (46208)
I0222 11:30:17.965951 28342 net.cpp:137] Memory required for data: 1302496
I0222 11:30:17.965957 28342 layer_factory.hpp:77] Creating layer prelu4
I0222 11:30:17.965965 28342 net.cpp:84] Creating Layer prelu4
I0222 11:30:17.965967 28342 net.cpp:406] prelu4 <- conv4
I0222 11:30:17.965972 28342 net.cpp:380] prelu4 -> prelu4
I0222 11:30:17.966069 28342 net.cpp:122] Setting up prelu4
I0222 11:30:17.966074 28342 net.cpp:129] Top shape: 2 64 19 19 (46208)
I0222 11:30:17.966076 28342 net.cpp:137] Memory required for data: 1487328
I0222 11:30:17.966080 28342 layer_factory.hpp:77] Creating layer conv5
I0222 11:30:17.966087 28342 net.cpp:84] Creating Layer conv5
I0222 11:30:17.966090 28342 net.cpp:406] conv5 <- prelu4
I0222 11:30:17.966095 28342 net.cpp:380] conv5 -> conv5
I0222 11:30:17.966326 28342 net.cpp:122] Setting up conv5
I0222 11:30:17.966331 28342 net.cpp:129] Top shape: 2 1 19 19 (722)
I0222 11:30:17.966332 28342 net.cpp:137] Memory required for data: 1490216
I0222 11:30:17.966337 28342 layer_factory.hpp:77] Creating layer prelu5
I0222 11:30:17.966341 28342 net.cpp:84] Creating Layer prelu5
I0222 11:30:17.966344 28342 net.cpp:406] prelu5 <- conv5
I0222 11:30:17.966348 28342 net.cpp:380] prelu5 -> prelu5
I0222 11:30:17.966428 28342 net.cpp:122] Setting up prelu5
I0222 11:30:17.966431 28342 net.cpp:129] Top shape: 2 1 19 19 (722)
I0222 11:30:17.966434 28342 net.cpp:137] Memory required for data: 1493104
I0222 11:30:17.966436 28342 layer_factory.hpp:77] Creating layer fc8
I0222 11:30:17.966442 28342 net.cpp:84] Creating Layer fc8
I0222 11:30:17.966445 28342 net.cpp:406] fc8 <- prelu5
I0222 11:30:17.966449 28342 net.cpp:380] fc8 -> fc8
I0222 11:30:17.967247 28342 net.cpp:122] Setting up fc8
I0222 11:30:17.967250 28342 net.cpp:129] Top shape: 2 362 (724)
I0222 11:30:17.967252 28342 net.cpp:137] Memory required for data: 1496000
I0222 11:30:17.967262 28342 layer_factory.hpp:77] Creating layer probT
I0222 11:30:17.967267 28342 net.cpp:84] Creating Layer probT
I0222 11:30:17.967270 28342 net.cpp:406] probT <- fc8
I0222 11:30:17.967273 28342 net.cpp:406] probT <- label
I0222 11:30:17.967278 28342 net.cpp:380] probT -> probT
I0222 11:30:17.967284 28342 layer_factory.hpp:77] Creating layer probT
…
