…
I0225 03:14:46.564326 23843 net.cpp:294] The NetState phase (0) differed from the phase (1) specified by a rule in layer data
I0225 03:14:46.564332 23843 net.cpp:294] The NetState phase (0) differed from the phase (1) specified by a rule in layer probT
I0225 03:14:46.564385 23843 net.cpp:51] Initializing net from parameters: 
name: "Go_player"
state {
  phase: TRAIN
}
layer {
  name: "data"
  type: "ImageData"
  top: "data"
  top: "label"
  include {
    phase: TRAIN
  }
  image_data_param {
    source: "dataset_train.txt"
    batch_size: 64
    shuffle: true
  }
}
layer {
  name: "conv1"
  type: "Convolution"
  bottom: "data"
  top: "conv1"
  convolution_param {
    num_output: 64
    pad: 2
    kernel_size: 5
    stride: 1
    weight_filler {
      type: "xavier"
    }
    bias_filler {
      type: "constant"
    }
  }
}
layer {
  name: "prelu1"
  type: "PReLU"
  bottom: "conv1"
  top: "prelu1"
}
layer {
  name: "conv2"
  type: "Convolution"
  bottom: "prelu1"
  top: "conv2"
  convolution_param {
    num_output: 64
    pad: 2
    kernel_size: 5
    stride: 1
    weight_filler {
      type: "xavier"
    }
    bias_filler {
      type: "constant"
    }
  }
}
layer {
  name: "prelu2"
  type: "PReLU"
  bottom: "conv2"
  top: "prelu2"
}
layer {
  name: "conv3"
  type: "Convolution"
  bottom: "prelu2"
  top: "conv3"
  convolution_param {
    num_output: 64
    pad: 2
    kernel_size: 5
    stride: 1
    weight_filler {
      type: "xavier"
    }
    bias_filler {
      type: "constant"
    }
  }
}
layer {
  name: "prelu3"
  type: "PReLU"
  bottom: "conv3"
  top: "prelu3"
}
layer {
  name: "conv4"
  type: "Convolution"
  bottom: "prelu3"
  top: "conv4"
  convolution_param {
    num_output: 64
    pad: 2
    kernel_size: 5
    stride: 1
    weight_filler {
      type: "xavier"
    }
    bias_filler {
      type: "constant"
    }
  }
}
layer {
  name: "prelu4"
  type: "PReLU"
  bottom: "conv4"
  top: "prelu4"
}
layer {
  name: "conv5"
  type: "Convolution"
  bottom: "prelu4"
  top: "conv5"
  convolution_param {
    num_output: 1
    pad: 2
    kernel_size: 5
    stride: 1
    weight_filler {
      type: "xavier"
    }
    bias_filler {
      type: "constant"
    }
  }
}
layer {
  name: "prelu5"
  type: "PReLU"
  bottom: "conv5"
  top: "prelu5"
}
layer {
  name: "fc8"
  type: "InnerProduct"
  bottom: "prelu5"
  top: "fc8"
  inner_product_param {
    num_output: 362
    weight_filler {
      type: "xavier"
    }
    bias_filler {
      type: "constant"
    }
  }
}
layer {
  name: "prob"
  type: "SoftmaxWithLoss"
  bottom: "fc8"
  bottom: "label"
  top: "prob"
  include {
    phase: TRAIN
  }
}
I0225 03:14:46.564429 23843 layer_factory.hpp:77] Creating layer data
I0225 03:14:46.564447 23843 net.cpp:84] Creating Layer data
I0225 03:14:46.564450 23843 net.cpp:380] data -> data
I0225 03:14:46.564465 23843 net.cpp:380] data -> label
I0225 03:14:46.564473 23843 image_data_layer.cpp:38] Opening file dataset_train.txt
I0225 03:14:46.698099 23843 image_data_layer.cpp:53] Shuffling data
I0225 03:14:46.787422 23843 image_data_layer.cpp:63] A total of 356208 images.
I0225 03:14:46.791699 23843 image_data_layer.cpp:90] output data size: 64,3,19,19
I0225 03:14:46.793182 23843 net.cpp:122] Setting up data
I0225 03:14:46.793195 23843 net.cpp:129] Top shape: 64 3 19 19 (69312)
I0225 03:14:46.793197 23843 net.cpp:129] Top shape: 64 (64)
I0225 03:14:46.793200 23843 net.cpp:137] Memory required for data: 277504
I0225 03:14:46.793205 23843 layer_factory.hpp:77] Creating layer conv1
I0225 03:14:46.793227 23843 net.cpp:84] Creating Layer conv1
I0225 03:14:46.793249 23843 net.cpp:406] conv1 <- data
I0225 03:14:46.793260 23843 net.cpp:380] conv1 -> conv1
I0225 03:14:46.794968 23843 net.cpp:122] Setting up conv1
I0225 03:14:46.794977 23843 net.cpp:129] Top shape: 64 64 19 19 (1478656)
I0225 03:14:46.794980 23843 net.cpp:137] Memory required for data: 6192128
I0225 03:14:46.794997 23843 layer_factory.hpp:77] Creating layer prelu1
I0225 03:14:46.795004 23843 net.cpp:84] Creating Layer prelu1
I0225 03:14:46.795007 23843 net.cpp:406] prelu1 <- conv1
I0225 03:14:46.795011 23843 net.cpp:380] prelu1 -> prelu1
I0225 03:14:46.795838 23843 net.cpp:122] Setting up prelu1
I0225 03:14:46.795846 23843 net.cpp:129] Top shape: 64 64 19 19 (1478656)
I0225 03:14:46.795850 23843 net.cpp:137] Memory required for data: 12106752
I0225 03:14:46.795858 23843 layer_factory.hpp:77] Creating layer conv2
I0225 03:14:46.795871 23843 net.cpp:84] Creating Layer conv2
I0225 03:14:46.795873 23843 net.cpp:406] conv2 <- prelu1
I0225 03:14:46.795879 23843 net.cpp:380] conv2 -> conv2
I0225 03:14:46.796658 23843 net.cpp:122] Setting up conv2
I0225 03:14:46.796663 23843 net.cpp:129] Top shape: 64 64 19 19 (1478656)
I0225 03:14:46.796665 23843 net.cpp:137] Memory required for data: 18021376
I0225 03:14:46.796674 23843 layer_factory.hpp:77] Creating layer prelu2
I0225 03:14:46.796679 23843 net.cpp:84] Creating Layer prelu2
I0225 03:14:46.796681 23843 net.cpp:406] prelu2 <- conv2
I0225 03:14:46.796685 23843 net.cpp:380] prelu2 -> prelu2
I0225 03:14:46.796775 23843 net.cpp:122] Setting up prelu2
I0225 03:14:46.796780 23843 net.cpp:129] Top shape: 64 64 19 19 (1478656)
I0225 03:14:46.796782 23843 net.cpp:137] Memory required for data: 23936000
I0225 03:14:46.796785 23843 layer_factory.hpp:77] Creating layer conv3
I0225 03:14:46.796793 23843 net.cpp:84] Creating Layer conv3
I0225 03:14:46.796795 23843 net.cpp:406] conv3 <- prelu2
I0225 03:14:46.796799 23843 net.cpp:380] conv3 -> conv3
I0225 03:14:46.797564 23843 net.cpp:122] Setting up conv3
I0225 03:14:46.797569 23843 net.cpp:129] Top shape: 64 64 19 19 (1478656)
I0225 03:14:46.797570 23843 net.cpp:137] Memory required for data: 29850624
I0225 03:14:46.797574 23843 layer_factory.hpp:77] Creating layer prelu3
I0225 03:14:46.797579 23843 net.cpp:84] Creating Layer prelu3
I0225 03:14:46.797580 23843 net.cpp:406] prelu3 <- conv3
I0225 03:14:46.797585 23843 net.cpp:380] prelu3 -> prelu3
I0225 03:14:46.797670 23843 net.cpp:122] Setting up prelu3
I0225 03:14:46.797674 23843 net.cpp:129] Top shape: 64 64 19 19 (1478656)
I0225 03:14:46.797677 23843 net.cpp:137] Memory required for data: 35765248
I0225 03:14:46.797683 23843 layer_factory.hpp:77] Creating layer conv4
I0225 03:14:46.797690 23843 net.cpp:84] Creating Layer conv4
I0225 03:14:46.797693 23843 net.cpp:406] conv4 <- prelu3
I0225 03:14:46.797696 23843 net.cpp:380] conv4 -> conv4
I0225 03:14:46.799131 23843 net.cpp:122] Setting up conv4
I0225 03:14:46.799139 23843 net.cpp:129] Top shape: 64 64 19 19 (1478656)
I0225 03:14:46.799141 23843 net.cpp:137] Memory required for data: 41679872
I0225 03:14:46.799147 23843 layer_factory.hpp:77] Creating layer prelu4
I0225 03:14:46.799154 23843 net.cpp:84] Creating Layer prelu4
I0225 03:14:46.799156 23843 net.cpp:406] prelu4 <- conv4
I0225 03:14:46.799162 23843 net.cpp:380] prelu4 -> prelu4
I0225 03:14:46.799253 23843 net.cpp:122] Setting up prelu4
I0225 03:14:46.799258 23843 net.cpp:129] Top shape: 64 64 19 19 (1478656)
I0225 03:14:46.799260 23843 net.cpp:137] Memory required for data: 47594496
I0225 03:14:46.799263 23843 layer_factory.hpp:77] Creating layer conv5
I0225 03:14:46.799270 23843 net.cpp:84] Creating Layer conv5
I0225 03:14:46.799273 23843 net.cpp:406] conv5 <- prelu4
I0225 03:14:46.799278 23843 net.cpp:380] conv5 -> conv5
I0225 03:14:46.800199 23843 net.cpp:122] Setting up conv5
I0225 03:14:46.800220 23843 net.cpp:129] Top shape: 64 1 19 19 (23104)
I0225 03:14:46.800221 23843 net.cpp:137] Memory required for data: 47686912
I0225 03:14:46.800227 23843 layer_factory.hpp:77] Creating layer prelu5
I0225 03:14:46.800231 23843 net.cpp:84] Creating Layer prelu5
I0225 03:14:46.800245 23843 net.cpp:406] prelu5 <- conv5
I0225 03:14:46.800249 23843 net.cpp:380] prelu5 -> prelu5
I0225 03:14:46.800325 23843 net.cpp:122] Setting up prelu5
I0225 03:14:46.800330 23843 net.cpp:129] Top shape: 64 1 19 19 (23104)
I0225 03:14:46.800331 23843 net.cpp:137] Memory required for data: 47779328
I0225 03:14:46.800335 23843 layer_factory.hpp:77] Creating layer fc8
I0225 03:14:46.800341 23843 net.cpp:84] Creating Layer fc8
I0225 03:14:46.800343 23843 net.cpp:406] fc8 <- prelu5
I0225 03:14:46.800348 23843 net.cpp:380] fc8 -> fc8
I0225 03:14:46.801096 23843 net.cpp:122] Setting up fc8
I0225 03:14:46.801100 23843 net.cpp:129] Top shape: 64 362 (23168)
I0225 03:14:46.801101 23843 net.cpp:137] Memory required for data: 47872000
I0225 03:14:46.801111 23843 layer_factory.hpp:77] Creating layer prob
I0225 03:14:46.801116 23843 net.cpp:84] Creating Layer prob
I0225 03:14:46.801118 23843 net.cpp:406] prob <- fc8
I0225 03:14:46.801121 23843 net.cpp:406] prob <- label
I0225 03:14:46.801126 23843 net.cpp:380] prob -> prob
I0225 03:14:46.801134 23843 layer_factory.hpp:77] Creating layer prob
…
I0225 03:14:46.801483 23843 net.cpp:294] The NetState phase (1) differed from the phase (0) specified by a rule in layer data
I0225 03:14:46.801494 23843 net.cpp:294] The NetState phase (1) differed from the phase (0) specified by a rule in layer prob
I0225 03:14:46.801573 23843 net.cpp:51] Initializing net from parameters: 
name: "Go_player"
state {
  phase: TEST
}
layer {
  name: "data"
  type: "ImageData"
  top: "data"
  top: "label"
  include {
    phase: TEST
  }
  image_data_param {
    source: "dataset_train.txt"
    batch_size: 2
    shuffle: true
  }
}
layer {
  name: "conv1"
  type: "Convolution"
  bottom: "data"
  top: "conv1"
  convolution_param {
    num_output: 64
    pad: 2
    kernel_size: 5
    stride: 1
    weight_filler {
      type: "xavier"
    }
    bias_filler {
      type: "constant"
    }
  }
}
layer {
  name: "prelu1"
  type: "PReLU"
  bottom: "conv1"
  top: "prelu1"
}
layer {
  name: "conv2"
  type: "Convolution"
  bottom: "prelu1"
  top: "conv2"
  convolution_param {
    num_output: 64
    pad: 2
    kernel_size: 5
    stride: 1
    weight_filler {
      type: "xavier"
    }
    bias_filler {
      type: "constant"
    }
  }
}
layer {
  name: "prelu2"
  type: "PReLU"
  bottom: "conv2"
  top: "prelu2"
}
layer {
  name: "conv3"
  type: "Convolution"
  bottom: "prelu2"
  top: "conv3"
  convolution_param {
    num_output: 64
    pad: 2
    kernel_size: 5
    stride: 1
    weight_filler {
      type: "xavier"
    }
    bias_filler {
      type: "constant"
    }
  }
}
layer {
  name: "prelu3"
  type: "PReLU"
  bottom: "conv3"
  top: "prelu3"
}
layer {
  name: "conv4"
  type: "Convolution"
  bottom: "prelu3"
  top: "conv4"
  convolution_param {
    num_output: 64
    pad: 2
    kernel_size: 5
    stride: 1
    weight_filler {
      type: "xavier"
    }
    bias_filler {
      type: "constant"
    }
  }
}
layer {
  name: "prelu4"
  type: "PReLU"
  bottom: "conv4"
  top: "prelu4"
}
layer {
  name: "conv5"
  type: "Convolution"
  bottom: "prelu4"
  top: "conv5"
  convolution_param {
    num_output: 1
    pad: 2
    kernel_size: 5
    stride: 1
    weight_filler {
      type: "xavier"
    }
    bias_filler {
      type: "constant"
    }
  }
}
layer {
  name: "prelu5"
  type: "PReLU"
  bottom: "conv5"
  top: "prelu5"
}
layer {
  name: "fc8"
  type: "InnerProduct"
  bottom: "prelu5"
  top: "fc8"
  inner_product_param {
    num_output: 362
    weight_filler {
      type: "xavier"
    }
    bias_filler {
      type: "constant"
    }
  }
}
layer {
  name: "probT"
  type: "SoftmaxWithLoss"
  bottom: "fc8"
  bottom: "label"
  top: "probT"
  include {
    phase: TEST
  }
}
I0225 03:14:46.801628 23843 layer_factory.hpp:77] Creating layer data
I0225 03:14:46.801641 23843 net.cpp:84] Creating Layer data
I0225 03:14:46.801645 23843 net.cpp:380] data -> data
I0225 03:14:46.801651 23843 net.cpp:380] data -> label
I0225 03:14:46.801658 23843 image_data_layer.cpp:38] Opening file dataset_train.txt
I0225 03:14:47.014062 23843 image_data_layer.cpp:53] Shuffling data
I0225 03:14:47.104315 23843 image_data_layer.cpp:63] A total of 356208 images.
I0225 03:14:47.108824 23843 image_data_layer.cpp:90] output data size: 2,3,19,19
I0225 03:14:47.109503 23843 net.cpp:122] Setting up data
I0225 03:14:47.109513 23843 net.cpp:129] Top shape: 2 3 19 19 (2166)
I0225 03:14:47.109516 23843 net.cpp:129] Top shape: 2 (2)
I0225 03:14:47.109519 23843 net.cpp:137] Memory required for data: 8672
I0225 03:14:47.109522 23843 layer_factory.hpp:77] Creating layer conv1
I0225 03:14:47.109539 23843 net.cpp:84] Creating Layer conv1
I0225 03:14:47.109542 23843 net.cpp:406] conv1 <- data
I0225 03:14:47.109552 23843 net.cpp:380] conv1 -> conv1
I0225 03:14:47.109952 23843 net.cpp:122] Setting up conv1
I0225 03:14:47.109962 23843 net.cpp:129] Top shape: 2 64 19 19 (46208)
I0225 03:14:47.109964 23843 net.cpp:137] Memory required for data: 193504
I0225 03:14:47.109975 23843 layer_factory.hpp:77] Creating layer prelu1
I0225 03:14:47.109982 23843 net.cpp:84] Creating Layer prelu1
I0225 03:14:47.109985 23843 net.cpp:406] prelu1 <- conv1
I0225 03:14:47.109990 23843 net.cpp:380] prelu1 -> prelu1
I0225 03:14:47.110083 23843 net.cpp:122] Setting up prelu1
I0225 03:14:47.110088 23843 net.cpp:129] Top shape: 2 64 19 19 (46208)
I0225 03:14:47.110090 23843 net.cpp:137] Memory required for data: 378336
I0225 03:14:47.110096 23843 layer_factory.hpp:77] Creating layer conv2
I0225 03:14:47.110105 23843 net.cpp:84] Creating Layer conv2
I0225 03:14:47.110107 23843 net.cpp:406] conv2 <- prelu1
I0225 03:14:47.110112 23843 net.cpp:380] conv2 -> conv2
I0225 03:14:47.110903 23843 net.cpp:122] Setting up conv2
I0225 03:14:47.110908 23843 net.cpp:129] Top shape: 2 64 19 19 (46208)
I0225 03:14:47.110909 23843 net.cpp:137] Memory required for data: 563168
I0225 03:14:47.110918 23843 layer_factory.hpp:77] Creating layer prelu2
I0225 03:14:47.110924 23843 net.cpp:84] Creating Layer prelu2
I0225 03:14:47.110925 23843 net.cpp:406] prelu2 <- conv2
I0225 03:14:47.110930 23843 net.cpp:380] prelu2 -> prelu2
I0225 03:14:47.111034 23843 net.cpp:122] Setting up prelu2
I0225 03:14:47.111039 23843 net.cpp:129] Top shape: 2 64 19 19 (46208)
I0225 03:14:47.111042 23843 net.cpp:137] Memory required for data: 748000
I0225 03:14:47.111044 23843 layer_factory.hpp:77] Creating layer conv3
I0225 03:14:47.111052 23843 net.cpp:84] Creating Layer conv3
I0225 03:14:47.111054 23843 net.cpp:406] conv3 <- prelu2
I0225 03:14:47.111059 23843 net.cpp:380] conv3 -> conv3
I0225 03:14:47.111876 23843 net.cpp:122] Setting up conv3
I0225 03:14:47.111881 23843 net.cpp:129] Top shape: 2 64 19 19 (46208)
I0225 03:14:47.111897 23843 net.cpp:137] Memory required for data: 932832
I0225 03:14:47.111903 23843 layer_factory.hpp:77] Creating layer prelu3
I0225 03:14:47.111908 23843 net.cpp:84] Creating Layer prelu3
I0225 03:14:47.111910 23843 net.cpp:406] prelu3 <- conv3
I0225 03:14:47.111915 23843 net.cpp:380] prelu3 -> prelu3
I0225 03:14:47.112011 23843 net.cpp:122] Setting up prelu3
I0225 03:14:47.112016 23843 net.cpp:129] Top shape: 2 64 19 19 (46208)
I0225 03:14:47.112018 23843 net.cpp:137] Memory required for data: 1117664
I0225 03:14:47.112025 23843 layer_factory.hpp:77] Creating layer conv4
I0225 03:14:47.112033 23843 net.cpp:84] Creating Layer conv4
I0225 03:14:47.112035 23843 net.cpp:406] conv4 <- prelu3
I0225 03:14:47.112040 23843 net.cpp:380] conv4 -> conv4
I0225 03:14:47.113584 23843 net.cpp:122] Setting up conv4
I0225 03:14:47.113590 23843 net.cpp:129] Top shape: 2 64 19 19 (46208)
I0225 03:14:47.113593 23843 net.cpp:137] Memory required for data: 1302496
I0225 03:14:47.113600 23843 layer_factory.hpp:77] Creating layer prelu4
I0225 03:14:47.113605 23843 net.cpp:84] Creating Layer prelu4
I0225 03:14:47.113608 23843 net.cpp:406] prelu4 <- conv4
I0225 03:14:47.113612 23843 net.cpp:380] prelu4 -> prelu4
I0225 03:14:47.113708 23843 net.cpp:122] Setting up prelu4
I0225 03:14:47.113713 23843 net.cpp:129] Top shape: 2 64 19 19 (46208)
I0225 03:14:47.113713 23843 net.cpp:137] Memory required for data: 1487328
I0225 03:14:47.113718 23843 layer_factory.hpp:77] Creating layer conv5
I0225 03:14:47.113724 23843 net.cpp:84] Creating Layer conv5
I0225 03:14:47.113728 23843 net.cpp:406] conv5 <- prelu4
I0225 03:14:47.113732 23843 net.cpp:380] conv5 -> conv5
I0225 03:14:47.113953 23843 net.cpp:122] Setting up conv5
I0225 03:14:47.113957 23843 net.cpp:129] Top shape: 2 1 19 19 (722)
I0225 03:14:47.113960 23843 net.cpp:137] Memory required for data: 1490216
I0225 03:14:47.113965 23843 layer_factory.hpp:77] Creating layer prelu5
I0225 03:14:47.113968 23843 net.cpp:84] Creating Layer prelu5
I0225 03:14:47.113970 23843 net.cpp:406] prelu5 <- conv5
I0225 03:14:47.113975 23843 net.cpp:380] prelu5 -> prelu5
I0225 03:14:47.114051 23843 net.cpp:122] Setting up prelu5
I0225 03:14:47.114054 23843 net.cpp:129] Top shape: 2 1 19 19 (722)
I0225 03:14:47.114056 23843 net.cpp:137] Memory required for data: 1493104
I0225 03:14:47.114059 23843 layer_factory.hpp:77] Creating layer fc8
I0225 03:14:47.114065 23843 net.cpp:84] Creating Layer fc8
I0225 03:14:47.114068 23843 net.cpp:406] fc8 <- prelu5
I0225 03:14:47.114073 23843 net.cpp:380] fc8 -> fc8
I0225 03:14:47.114843 23843 net.cpp:122] Setting up fc8
I0225 03:14:47.114847 23843 net.cpp:129] Top shape: 2 362 (724)
I0225 03:14:47.114850 23843 net.cpp:137] Memory required for data: 1496000
I0225 03:14:47.114858 23843 layer_factory.hpp:77] Creating layer probT
I0225 03:14:47.114864 23843 net.cpp:84] Creating Layer probT
I0225 03:14:47.114866 23843 net.cpp:406] probT <- fc8
I0225 03:14:47.114869 23843 net.cpp:406] probT <- label
I0225 03:14:47.114873 23843 net.cpp:380] probT -> probT
I0225 03:14:47.114881 23843 layer_factory.hpp:77] Creating layer probT
…
