…
I0316 23:04:23.979986 27015 net.cpp:294] The NetState phase (0) differed from the phase (1) specified by a rule in layer data
I0316 23:04:23.979995 27015 net.cpp:294] The NetState phase (0) differed from the phase (1) specified by a rule in layer softmax_output_test
I0316 23:04:23.980054 27015 net.cpp:51] Initializing net from parameters: 
name: "Go_player"
state {
  phase: TRAIN
}
layer {
  name: "data"
  type: "ImageData"
  top: "data"
  top: "label"
  include {
    phase: TRAIN
  }
  image_data_param {
    source: "dataset_train.txt"
    batch_size: 64
    shuffle: true
  }
}
layer {
  name: "conv1"
  type: "Convolution"
  bottom: "data"
  top: "conv1"
  convolution_param {
    num_output: 32
    pad: 2
    kernel_size: 5
    stride: 1
    weight_filler {
      type: "xavier"
    }
    bias_filler {
      type: "constant"
    }
  }
}
layer {
  name: "relu1"
  type: "ReLU"
  bottom: "conv1"
  top: "relu1"
  relu_param {
    negative_slope: 0.01
  }
}
layer {
  name: "conv2"
  type: "Convolution"
  bottom: "relu1"
  top: "conv2"
  convolution_param {
    num_output: 32
    pad: 2
    kernel_size: 5
    stride: 1
    weight_filler {
      type: "xavier"
    }
    bias_filler {
      type: "constant"
    }
  }
}
layer {
  name: "relu2"
  type: "ReLU"
  bottom: "conv2"
  top: "relu2"
  relu_param {
    negative_slope: 0.01
  }
}
layer {
  name: "conv3"
  type: "Convolution"
  bottom: "relu2"
  top: "conv3"
  convolution_param {
    num_output: 32
    pad: 2
    kernel_size: 5
    stride: 1
    weight_filler {
      type: "xavier"
    }
    bias_filler {
      type: "constant"
    }
  }
}
layer {
  name: "relu3"
  type: "ReLU"
  bottom: "conv3"
  top: "relu3"
  relu_param {
    negative_slope: 0.01
  }
}
layer {
  name: "conv4"
  type: "Convolution"
  bottom: "relu3"
  top: "conv4"
  convolution_param {
    num_output: 32
    pad: 2
    kernel_size: 5
    stride: 1
    weight_filler {
      type: "xavier"
    }
    bias_filler {
      type: "constant"
    }
  }
}
layer {
  name: "relu4"
  type: "ReLU"
  bottom: "conv4"
  top: "relu4"
  relu_param {
    negative_slope: 0.01
  }
}
layer {
  name: "conv5"
  type: "Convolution"
  bottom: "relu4"
  top: "conv5"
  convolution_param {
    num_output: 1
    pad: 2
    kernel_size: 5
    stride: 1
    weight_filler {
      type: "xavier"
    }
    bias_filler {
      type: "constant"
    }
  }
}
layer {
  name: "relu5"
  type: "ReLU"
  bottom: "conv5"
  top: "relu5"
  relu_param {
    negative_slope: 0.01
  }
}
layer {
  name: "fc8"
  type: "InnerProduct"
  bottom: "relu5"
  top: "fc8"
  inner_product_param {
    num_output: 362
    weight_filler {
      type: "xavier"
    }
    bias_filler {
      type: "constant"
    }
  }
}
layer {
  name: "softmax_output"
  type: "SoftmaxWithLoss"
  bottom: "fc8"
  bottom: "label"
  top: "softmax_output"
  include {
    phase: TRAIN
  }
}
I0316 23:04:23.980101 27015 layer_factory.hpp:77] Creating layer data
I0316 23:04:23.980123 27015 net.cpp:84] Creating Layer data
I0316 23:04:23.980129 27015 net.cpp:380] data -> data
I0316 23:04:23.980141 27015 net.cpp:380] data -> label
I0316 23:04:23.980150 27015 image_data_layer.cpp:38] Opening file dataset_train.txt
I0316 23:04:24.243890 27015 image_data_layer.cpp:53] Shuffling data
I0316 23:04:24.443882 27015 image_data_layer.cpp:63] A total of 650514 images.
I0316 23:04:24.445420 27015 image_data_layer.cpp:90] output data size: 64,3,19,19
I0316 23:04:24.447146 27015 net.cpp:122] Setting up data
I0316 23:04:24.447157 27015 net.cpp:129] Top shape: 64 3 19 19 (69312)
I0316 23:04:24.447185 27015 net.cpp:129] Top shape: 64 (64)
I0316 23:04:24.447186 27015 net.cpp:137] Memory required for data: 277504
I0316 23:04:24.447192 27015 layer_factory.hpp:77] Creating layer conv1
I0316 23:04:24.447213 27015 net.cpp:84] Creating Layer conv1
I0316 23:04:24.447218 27015 net.cpp:406] conv1 <- data
I0316 23:04:24.447229 27015 net.cpp:380] conv1 -> conv1
I0316 23:04:24.449126 27015 net.cpp:122] Setting up conv1
I0316 23:04:24.449136 27015 net.cpp:129] Top shape: 64 32 19 19 (739328)
I0316 23:04:24.449138 27015 net.cpp:137] Memory required for data: 3234816
I0316 23:04:24.449156 27015 layer_factory.hpp:77] Creating layer relu1
I0316 23:04:24.449162 27015 net.cpp:84] Creating Layer relu1
I0316 23:04:24.449165 27015 net.cpp:406] relu1 <- conv1
I0316 23:04:24.449169 27015 net.cpp:380] relu1 -> relu1
I0316 23:04:24.449199 27015 net.cpp:122] Setting up relu1
I0316 23:04:24.449203 27015 net.cpp:129] Top shape: 64 32 19 19 (739328)
I0316 23:04:24.449205 27015 net.cpp:137] Memory required for data: 6192128
I0316 23:04:24.449208 27015 layer_factory.hpp:77] Creating layer conv2
I0316 23:04:24.449216 27015 net.cpp:84] Creating Layer conv2
I0316 23:04:24.449218 27015 net.cpp:406] conv2 <- relu1
I0316 23:04:24.449223 27015 net.cpp:380] conv2 -> conv2
I0316 23:04:24.450434 27015 net.cpp:122] Setting up conv2
I0316 23:04:24.450441 27015 net.cpp:129] Top shape: 64 32 19 19 (739328)
I0316 23:04:24.450444 27015 net.cpp:137] Memory required for data: 9149440
I0316 23:04:24.450453 27015 layer_factory.hpp:77] Creating layer relu2
I0316 23:04:24.450459 27015 net.cpp:84] Creating Layer relu2
I0316 23:04:24.450461 27015 net.cpp:406] relu2 <- conv2
I0316 23:04:24.450465 27015 net.cpp:380] relu2 -> relu2
I0316 23:04:24.450486 27015 net.cpp:122] Setting up relu2
I0316 23:04:24.450490 27015 net.cpp:129] Top shape: 64 32 19 19 (739328)
I0316 23:04:24.450492 27015 net.cpp:137] Memory required for data: 12106752
I0316 23:04:24.450495 27015 layer_factory.hpp:77] Creating layer conv3
I0316 23:04:24.450501 27015 net.cpp:84] Creating Layer conv3
I0316 23:04:24.450503 27015 net.cpp:406] conv3 <- relu2
I0316 23:04:24.450508 27015 net.cpp:380] conv3 -> conv3
I0316 23:04:24.450847 27015 net.cpp:122] Setting up conv3
I0316 23:04:24.450851 27015 net.cpp:129] Top shape: 64 32 19 19 (739328)
I0316 23:04:24.450855 27015 net.cpp:137] Memory required for data: 15064064
I0316 23:04:24.450861 27015 layer_factory.hpp:77] Creating layer relu3
I0316 23:04:24.450865 27015 net.cpp:84] Creating Layer relu3
I0316 23:04:24.450868 27015 net.cpp:406] relu3 <- conv3
I0316 23:04:24.450871 27015 net.cpp:380] relu3 -> relu3
I0316 23:04:24.450891 27015 net.cpp:122] Setting up relu3
I0316 23:04:24.450894 27015 net.cpp:129] Top shape: 64 32 19 19 (739328)
I0316 23:04:24.450896 27015 net.cpp:137] Memory required for data: 18021376
I0316 23:04:24.450898 27015 layer_factory.hpp:77] Creating layer conv4
I0316 23:04:24.450906 27015 net.cpp:84] Creating Layer conv4
I0316 23:04:24.450907 27015 net.cpp:406] conv4 <- relu3
I0316 23:04:24.450911 27015 net.cpp:380] conv4 -> conv4
I0316 23:04:24.451249 27015 net.cpp:122] Setting up conv4
I0316 23:04:24.451254 27015 net.cpp:129] Top shape: 64 32 19 19 (739328)
I0316 23:04:24.451256 27015 net.cpp:137] Memory required for data: 20978688
I0316 23:04:24.451261 27015 layer_factory.hpp:77] Creating layer relu4
I0316 23:04:24.451267 27015 net.cpp:84] Creating Layer relu4
I0316 23:04:24.451268 27015 net.cpp:406] relu4 <- conv4
I0316 23:04:24.451272 27015 net.cpp:380] relu4 -> relu4
I0316 23:04:24.451292 27015 net.cpp:122] Setting up relu4
I0316 23:04:24.451295 27015 net.cpp:129] Top shape: 64 32 19 19 (739328)
I0316 23:04:24.451297 27015 net.cpp:137] Memory required for data: 23936000
I0316 23:04:24.451299 27015 layer_factory.hpp:77] Creating layer conv5
I0316 23:04:24.451306 27015 net.cpp:84] Creating Layer conv5
I0316 23:04:24.451308 27015 net.cpp:406] conv5 <- relu4
I0316 23:04:24.451313 27015 net.cpp:380] conv5 -> conv5
I0316 23:04:24.451537 27015 net.cpp:122] Setting up conv5
I0316 23:04:24.451544 27015 net.cpp:129] Top shape: 64 1 19 19 (23104)
I0316 23:04:24.451558 27015 net.cpp:137] Memory required for data: 24028416
I0316 23:04:24.451567 27015 layer_factory.hpp:77] Creating layer relu5
I0316 23:04:24.451571 27015 net.cpp:84] Creating Layer relu5
I0316 23:04:24.451575 27015 net.cpp:406] relu5 <- conv5
I0316 23:04:24.451578 27015 net.cpp:380] relu5 -> relu5
I0316 23:04:24.451597 27015 net.cpp:122] Setting up relu5
I0316 23:04:24.451603 27015 net.cpp:129] Top shape: 64 1 19 19 (23104)
I0316 23:04:24.451606 27015 net.cpp:137] Memory required for data: 24120832
I0316 23:04:24.451607 27015 layer_factory.hpp:77] Creating layer fc8
I0316 23:04:24.451612 27015 net.cpp:84] Creating Layer fc8
I0316 23:04:24.451614 27015 net.cpp:406] fc8 <- relu5
I0316 23:04:24.451618 27015 net.cpp:380] fc8 -> fc8
I0316 23:04:24.452414 27015 net.cpp:122] Setting up fc8
I0316 23:04:24.452419 27015 net.cpp:129] Top shape: 64 362 (23168)
I0316 23:04:24.452420 27015 net.cpp:137] Memory required for data: 24213504
I0316 23:04:24.452425 27015 layer_factory.hpp:77] Creating layer softmax_output
I0316 23:04:24.452430 27015 net.cpp:84] Creating Layer softmax_output
I0316 23:04:24.452433 27015 net.cpp:406] softmax_output <- fc8
I0316 23:04:24.452436 27015 net.cpp:406] softmax_output <- label
I0316 23:04:24.452441 27015 net.cpp:380] softmax_output -> softmax_output
…
I0316 23:04:24.452872 27015 net.cpp:294] The NetState phase (1) differed from the phase (0) specified by a rule in layer data
I0316 23:04:24.452883 27015 net.cpp:294] The NetState phase (1) differed from the phase (0) specified by a rule in layer softmax_output
I0316 23:04:24.452965 27015 net.cpp:51] Initializing net from parameters: 
name: "Go_player"
state {
  phase: TEST
}
layer {
  name: "data"
  type: "ImageData"
  top: "data"
  top: "label"
  include {
    phase: TEST
  }
  image_data_param {
    source: "dataset_test.txt"
    batch_size: 4
    shuffle: true
  }
}
layer {
  name: "conv1"
  type: "Convolution"
  bottom: "data"
  top: "conv1"
  convolution_param {
    num_output: 32
    pad: 2
    kernel_size: 5
    stride: 1
    weight_filler {
      type: "xavier"
    }
    bias_filler {
      type: "constant"
    }
  }
}
layer {
  name: "relu1"
  type: "ReLU"
  bottom: "conv1"
  top: "relu1"
  relu_param {
    negative_slope: 0.01
  }
}
layer {
  name: "conv2"
  type: "Convolution"
  bottom: "relu1"
  top: "conv2"
  convolution_param {
    num_output: 32
    pad: 2
    kernel_size: 5
    stride: 1
    weight_filler {
      type: "xavier"
    }
    bias_filler {
      type: "constant"
    }
  }
}
layer {
  name: "relu2"
  type: "ReLU"
  bottom: "conv2"
  top: "relu2"
  relu_param {
    negative_slope: 0.01
  }
}
layer {
  name: "conv3"
  type: "Convolution"
  bottom: "relu2"
  top: "conv3"
  convolution_param {
    num_output: 32
    pad: 2
    kernel_size: 5
    stride: 1
    weight_filler {
      type: "xavier"
    }
    bias_filler {
      type: "constant"
    }
  }
}
layer {
  name: "relu3"
  type: "ReLU"
  bottom: "conv3"
  top: "relu3"
  relu_param {
    negative_slope: 0.01
  }
}
layer {
  name: "conv4"
  type: "Convolution"
  bottom: "relu3"
  top: "conv4"
  convolution_param {
    num_output: 32
    pad: 2
    kernel_size: 5
    stride: 1
    weight_filler {
      type: "xavier"
    }
    bias_filler {
      type: "constant"
    }
  }
}
layer {
  name: "relu4"
  type: "ReLU"
  bottom: "conv4"
  top: "relu4"
  relu_param {
    negative_slope: 0.01
  }
}
layer {
  name: "conv5"
  type: "Convolution"
  bottom: "relu4"
  top: "conv5"
  convolution_param {
    num_output: 1
    pad: 2
    kernel_size: 5
    stride: 1
    weight_filler {
      type: "xavier"
    }
    bias_filler {
      type: "constant"
    }
  }
}
layer {
  name: "relu5"
  type: "ReLU"
  bottom: "conv5"
  top: "relu5"
  relu_param {
    negative_slope: 0.01
  }
}
layer {
  name: "fc8"
  type: "InnerProduct"
  bottom: "relu5"
  top: "fc8"
  inner_product_param {
    num_output: 362
    weight_filler {
      type: "xavier"
    }
    bias_filler {
      type: "constant"
    }
  }
}
layer {
  name: "softmax_output_test"
  type: "SoftmaxWithLoss"
  bottom: "fc8"
  bottom: "label"
  top: "softmax_output_test"
  include {
    phase: TEST
  }
}
I0316 23:04:24.453023 27015 layer_factory.hpp:77] Creating layer data
I0316 23:04:24.453035 27015 net.cpp:84] Creating Layer data
I0316 23:04:24.453039 27015 net.cpp:380] data -> data
I0316 23:04:24.453047 27015 net.cpp:380] data -> label
I0316 23:04:24.453053 27015 image_data_layer.cpp:38] Opening file dataset_test.txt
I0316 23:04:24.482800 27015 image_data_layer.cpp:53] Shuffling data
I0316 23:04:24.492405 27015 image_data_layer.cpp:63] A total of 36562 images.
I0316 23:04:24.494168 27015 image_data_layer.cpp:90] output data size: 4,3,19,19
I0316 23:04:24.495632 27015 net.cpp:122] Setting up data
I0316 23:04:24.495643 27015 net.cpp:129] Top shape: 4 3 19 19 (4332)
I0316 23:04:24.495647 27015 net.cpp:129] Top shape: 4 (4)
I0316 23:04:24.495648 27015 net.cpp:137] Memory required for data: 17344
I0316 23:04:24.495653 27015 layer_factory.hpp:77] Creating layer conv1
I0316 23:04:24.495671 27015 net.cpp:84] Creating Layer conv1
I0316 23:04:24.495673 27015 net.cpp:406] conv1 <- data
I0316 23:04:24.495679 27015 net.cpp:380] conv1 -> conv1
I0316 23:04:24.495983 27015 net.cpp:122] Setting up conv1
I0316 23:04:24.495988 27015 net.cpp:129] Top shape: 4 32 19 19 (46208)
I0316 23:04:24.495990 27015 net.cpp:137] Memory required for data: 202176
I0316 23:04:24.496001 27015 layer_factory.hpp:77] Creating layer relu1
I0316 23:04:24.496007 27015 net.cpp:84] Creating Layer relu1
I0316 23:04:24.496009 27015 net.cpp:406] relu1 <- conv1
I0316 23:04:24.496013 27015 net.cpp:380] relu1 -> relu1
I0316 23:04:24.496050 27015 net.cpp:122] Setting up relu1
I0316 23:04:24.496054 27015 net.cpp:129] Top shape: 4 32 19 19 (46208)
I0316 23:04:24.496057 27015 net.cpp:137] Memory required for data: 387008
I0316 23:04:24.496058 27015 layer_factory.hpp:77] Creating layer conv2
I0316 23:04:24.496065 27015 net.cpp:84] Creating Layer conv2
I0316 23:04:24.496068 27015 net.cpp:406] conv2 <- relu1
I0316 23:04:24.496073 27015 net.cpp:380] conv2 -> conv2
I0316 23:04:24.496399 27015 net.cpp:122] Setting up conv2
I0316 23:04:24.496404 27015 net.cpp:129] Top shape: 4 32 19 19 (46208)
I0316 23:04:24.496407 27015 net.cpp:137] Memory required for data: 571840
I0316 23:04:24.496413 27015 layer_factory.hpp:77] Creating layer relu2
I0316 23:04:24.496418 27015 net.cpp:84] Creating Layer relu2
I0316 23:04:24.496421 27015 net.cpp:406] relu2 <- conv2
I0316 23:04:24.496424 27015 net.cpp:380] relu2 -> relu2
I0316 23:04:24.496456 27015 net.cpp:122] Setting up relu2
I0316 23:04:24.496460 27015 net.cpp:129] Top shape: 4 32 19 19 (46208)
I0316 23:04:24.496462 27015 net.cpp:137] Memory required for data: 756672
I0316 23:04:24.496464 27015 layer_factory.hpp:77] Creating layer conv3
I0316 23:04:24.496471 27015 net.cpp:84] Creating Layer conv3
I0316 23:04:24.496474 27015 net.cpp:406] conv3 <- relu2
I0316 23:04:24.496477 27015 net.cpp:380] conv3 -> conv3
I0316 23:04:24.496843 27015 net.cpp:122] Setting up conv3
I0316 23:04:24.496848 27015 net.cpp:129] Top shape: 4 32 19 19 (46208)
I0316 23:04:24.496850 27015 net.cpp:137] Memory required for data: 941504
I0316 23:04:24.496858 27015 layer_factory.hpp:77] Creating layer relu3
I0316 23:04:24.496863 27015 net.cpp:84] Creating Layer relu3
I0316 23:04:24.496865 27015 net.cpp:406] relu3 <- conv3
I0316 23:04:24.496870 27015 net.cpp:380] relu3 -> relu3
I0316 23:04:24.496886 27015 net.cpp:122] Setting up relu3
I0316 23:04:24.496891 27015 net.cpp:129] Top shape: 4 32 19 19 (46208)
I0316 23:04:24.496892 27015 net.cpp:137] Memory required for data: 1126336
I0316 23:04:24.496894 27015 layer_factory.hpp:77] Creating layer conv4
I0316 23:04:24.496901 27015 net.cpp:84] Creating Layer conv4
I0316 23:04:24.496902 27015 net.cpp:406] conv4 <- relu3
I0316 23:04:24.496906 27015 net.cpp:380] conv4 -> conv4
I0316 23:04:24.497285 27015 net.cpp:122] Setting up conv4
I0316 23:04:24.497290 27015 net.cpp:129] Top shape: 4 32 19 19 (46208)
I0316 23:04:24.497292 27015 net.cpp:137] Memory required for data: 1311168
I0316 23:04:24.497298 27015 layer_factory.hpp:77] Creating layer relu4
I0316 23:04:24.497303 27015 net.cpp:84] Creating Layer relu4
I0316 23:04:24.497304 27015 net.cpp:406] relu4 <- conv4
I0316 23:04:24.497308 27015 net.cpp:380] relu4 -> relu4
I0316 23:04:24.497324 27015 net.cpp:122] Setting up relu4
I0316 23:04:24.497335 27015 net.cpp:129] Top shape: 4 32 19 19 (46208)
I0316 23:04:24.497337 27015 net.cpp:137] Memory required for data: 1496000
I0316 23:04:24.497339 27015 layer_factory.hpp:77] Creating layer conv5
I0316 23:04:24.497345 27015 net.cpp:84] Creating Layer conv5
I0316 23:04:24.497347 27015 net.cpp:406] conv5 <- relu4
I0316 23:04:24.497351 27015 net.cpp:380] conv5 -> conv5
I0316 23:04:24.497553 27015 net.cpp:122] Setting up conv5
I0316 23:04:24.497557 27015 net.cpp:129] Top shape: 4 1 19 19 (1444)
I0316 23:04:24.497560 27015 net.cpp:137] Memory required for data: 1501776
I0316 23:04:24.497567 27015 layer_factory.hpp:77] Creating layer relu5
I0316 23:04:24.497571 27015 net.cpp:84] Creating Layer relu5
I0316 23:04:24.497573 27015 net.cpp:406] relu5 <- conv5
I0316 23:04:24.497576 27015 net.cpp:380] relu5 -> relu5
I0316 23:04:24.497601 27015 net.cpp:122] Setting up relu5
I0316 23:04:24.497604 27015 net.cpp:129] Top shape: 4 1 19 19 (1444)
I0316 23:04:24.497606 27015 net.cpp:137] Memory required for data: 1507552
I0316 23:04:24.497607 27015 layer_factory.hpp:77] Creating layer fc8
I0316 23:04:24.497613 27015 net.cpp:84] Creating Layer fc8
I0316 23:04:24.497615 27015 net.cpp:406] fc8 <- relu5
I0316 23:04:24.497618 27015 net.cpp:380] fc8 -> fc8
I0316 23:04:24.499121 27015 net.cpp:122] Setting up fc8
I0316 23:04:24.499127 27015 net.cpp:129] Top shape: 4 362 (1448)
I0316 23:04:24.499130 27015 net.cpp:137] Memory required for data: 1513344
I0316 23:04:24.499135 27015 layer_factory.hpp:77] Creating layer softmax_output_test
I0316 23:04:24.499142 27015 net.cpp:84] Creating Layer softmax_output_test
I0316 23:04:24.499145 27015 net.cpp:406] softmax_output_test <- fc8
I0316 23:04:24.499147 27015 net.cpp:406] softmax_output_test <- label
I0316 23:04:24.499152 27015 net.cpp:380] softmax_output_test -> softmax_output_test
…
