…
I0320 20:54:57.728293  8502 net.cpp:294] The NetState phase (0) differed from the phase (1) specified by a rule in layer data
I0320 20:54:57.728302  8502 net.cpp:294] The NetState phase (0) differed from the phase (1) specified by a rule in layer softmax_output_test
I0320 20:54:57.728361  8502 net.cpp:51] Initializing net from parameters: 
name: "Go_player"
state {
  phase: TRAIN
}
layer {
  name: "data"
  type: "ImageData"
  top: "data"
  top: "label"
  include {
    phase: TRAIN
  }
  image_data_param {
    source: "dataset_train.txt"
    batch_size: 64
    shuffle: true
  }
}
layer {
  name: "conv1"
  type: "Convolution"
  bottom: "data"
  top: "conv1"
  convolution_param {
    num_output: 64
    pad: 2
    kernel_size: 5
    stride: 1
    weight_filler {
      type: "xavier"
    }
    bias_filler {
      type: "constant"
    }
  }
}
layer {
  name: "relu1"
  type: "ReLU"
  bottom: "conv1"
  top: "relu1"
  relu_param {
    negative_slope: 0.01
  }
}
layer {
  name: "conv2"
  type: "Convolution"
  bottom: "relu1"
  top: "conv2"
  convolution_param {
    num_output: 64
    pad: 2
    kernel_size: 5
    stride: 1
    weight_filler {
      type: "xavier"
    }
    bias_filler {
      type: "constant"
    }
  }
}
layer {
  name: "relu2"
  type: "ReLU"
  bottom: "conv2"
  top: "relu2"
  relu_param {
    negative_slope: 0.01
  }
}
layer {
  name: "conv3"
  type: "Convolution"
  bottom: "relu2"
  top: "conv3"
  convolution_param {
    num_output: 64
    pad: 2
    kernel_size: 5
    stride: 1
    weight_filler {
      type: "xavier"
    }
    bias_filler {
      type: "constant"
    }
  }
}
layer {
  name: "relu3"
  type: "ReLU"
  bottom: "conv3"
  top: "relu3"
  relu_param {
    negative_slope: 0.01
  }
}
layer {
  name: "conv4"
  type: "Convolution"
  bottom: "relu3"
  top: "conv4"
  convolution_param {
    num_output: 64
    pad: 2
    kernel_size: 5
    stride: 1
    weight_filler {
      type: "xavier"
    }
    bias_filler {
      type: "constant"
    }
  }
}
layer {
  name: "relu4"
  type: "ReLU"
  bottom: "conv4"
  top: "relu4"
  relu_param {
    negative_slope: 0.01
  }
}
layer {
  name: "conv5"
  type: "Convolution"
  bottom: "relu4"
  top: "conv5"
  convolution_param {
    num_output: 1
    pad: 2
    kernel_size: 5
    stride: 1
    weight_filler {
      type: "xavier"
    }
    bias_filler {
      type: "constant"
    }
  }
}
layer {
  name: "relu5"
  type: "ReLU"
  bottom: "conv5"
  top: "relu5"
  relu_param {
    negative_slope: 0.01
  }
}
layer {
  name: "fc8"
  type: "InnerProduct"
  bottom: "relu5"
  top: "fc8"
  inner_product_param {
    num_output: 362
    weight_filler {
      type: "xavier"
    }
    bias_filler {
      type: "constant"
    }
  }
}
layer {
  name: "softmax_output"
  type: "SoftmaxWithLoss"
  bottom: "fc8"
  bottom: "label"
  top: "softmax_output"
  include {
    phase: TRAIN
  }
}
I0320 20:54:57.728406  8502 layer_factory.hpp:77] Creating layer data
I0320 20:54:57.728428  8502 net.cpp:84] Creating Layer data
I0320 20:54:57.728431  8502 net.cpp:380] data -> data
I0320 20:54:57.728446  8502 net.cpp:380] data -> label
I0320 20:54:57.728454  8502 image_data_layer.cpp:38] Opening file dataset_train.txt
I0320 20:54:57.787102  8502 image_data_layer.cpp:53] Shuffling data
I0320 20:54:57.815299  8502 image_data_layer.cpp:63] A total of 144804 images.
I0320 20:54:57.816598  8502 image_data_layer.cpp:90] output data size: 64,3,19,19
I0320 20:54:57.817970  8502 net.cpp:122] Setting up data
I0320 20:54:57.817977  8502 net.cpp:129] Top shape: 64 3 19 19 (69312)
I0320 20:54:57.818002  8502 net.cpp:129] Top shape: 64 (64)
I0320 20:54:57.818004  8502 net.cpp:137] Memory required for data: 277504
I0320 20:54:57.818009  8502 layer_factory.hpp:77] Creating layer conv1
I0320 20:54:57.818027  8502 net.cpp:84] Creating Layer conv1
I0320 20:54:57.818032  8502 net.cpp:406] conv1 <- data
I0320 20:54:57.818039  8502 net.cpp:380] conv1 -> conv1
I0320 20:54:57.819485  8502 net.cpp:122] Setting up conv1
I0320 20:54:57.819492  8502 net.cpp:129] Top shape: 64 64 19 19 (1478656)
I0320 20:54:57.819494  8502 net.cpp:137] Memory required for data: 6192128
I0320 20:54:57.819507  8502 layer_factory.hpp:77] Creating layer relu1
I0320 20:54:57.819514  8502 net.cpp:84] Creating Layer relu1
I0320 20:54:57.819515  8502 net.cpp:406] relu1 <- conv1
I0320 20:54:57.819519  8502 net.cpp:380] relu1 -> relu1
I0320 20:54:57.819546  8502 net.cpp:122] Setting up relu1
I0320 20:54:57.819550  8502 net.cpp:129] Top shape: 64 64 19 19 (1478656)
I0320 20:54:57.819551  8502 net.cpp:137] Memory required for data: 12106752
I0320 20:54:57.819552  8502 layer_factory.hpp:77] Creating layer conv2
I0320 20:54:57.819559  8502 net.cpp:84] Creating Layer conv2
I0320 20:54:57.819561  8502 net.cpp:406] conv2 <- relu1
I0320 20:54:57.819566  8502 net.cpp:380] conv2 -> conv2
I0320 20:54:57.820116  8502 net.cpp:122] Setting up conv2
I0320 20:54:57.820121  8502 net.cpp:129] Top shape: 64 64 19 19 (1478656)
I0320 20:54:57.820122  8502 net.cpp:137] Memory required for data: 18021376
I0320 20:54:57.820127  8502 layer_factory.hpp:77] Creating layer relu2
I0320 20:54:57.820132  8502 net.cpp:84] Creating Layer relu2
I0320 20:54:57.820132  8502 net.cpp:406] relu2 <- conv2
I0320 20:54:57.820135  8502 net.cpp:380] relu2 -> relu2
I0320 20:54:57.820148  8502 net.cpp:122] Setting up relu2
I0320 20:54:57.820152  8502 net.cpp:129] Top shape: 64 64 19 19 (1478656)
I0320 20:54:57.820152  8502 net.cpp:137] Memory required for data: 23936000
I0320 20:54:57.820153  8502 layer_factory.hpp:77] Creating layer conv3
I0320 20:54:57.820158  8502 net.cpp:84] Creating Layer conv3
I0320 20:54:57.820160  8502 net.cpp:406] conv3 <- relu2
I0320 20:54:57.820163  8502 net.cpp:380] conv3 -> conv3
I0320 20:54:57.820698  8502 net.cpp:122] Setting up conv3
I0320 20:54:57.820701  8502 net.cpp:129] Top shape: 64 64 19 19 (1478656)
I0320 20:54:57.820703  8502 net.cpp:137] Memory required for data: 29850624
I0320 20:54:57.820708  8502 layer_factory.hpp:77] Creating layer relu3
I0320 20:54:57.820713  8502 net.cpp:84] Creating Layer relu3
I0320 20:54:57.820713  8502 net.cpp:406] relu3 <- conv3
I0320 20:54:57.820716  8502 net.cpp:380] relu3 -> relu3
I0320 20:54:57.820729  8502 net.cpp:122] Setting up relu3
I0320 20:54:57.820732  8502 net.cpp:129] Top shape: 64 64 19 19 (1478656)
I0320 20:54:57.820734  8502 net.cpp:137] Memory required for data: 35765248
I0320 20:54:57.820734  8502 layer_factory.hpp:77] Creating layer conv4
I0320 20:54:57.820739  8502 net.cpp:84] Creating Layer conv4
I0320 20:54:57.820740  8502 net.cpp:406] conv4 <- relu3
I0320 20:54:57.820744  8502 net.cpp:380] conv4 -> conv4
I0320 20:54:57.821923  8502 net.cpp:122] Setting up conv4
I0320 20:54:57.821929  8502 net.cpp:129] Top shape: 64 64 19 19 (1478656)
I0320 20:54:57.821930  8502 net.cpp:137] Memory required for data: 41679872
I0320 20:54:57.821935  8502 layer_factory.hpp:77] Creating layer relu4
I0320 20:54:57.821940  8502 net.cpp:84] Creating Layer relu4
I0320 20:54:57.821941  8502 net.cpp:406] relu4 <- conv4
I0320 20:54:57.821945  8502 net.cpp:380] relu4 -> relu4
I0320 20:54:57.821960  8502 net.cpp:122] Setting up relu4
I0320 20:54:57.821964  8502 net.cpp:129] Top shape: 64 64 19 19 (1478656)
I0320 20:54:57.821964  8502 net.cpp:137] Memory required for data: 47594496
I0320 20:54:57.821965  8502 layer_factory.hpp:77] Creating layer conv5
I0320 20:54:57.821971  8502 net.cpp:84] Creating Layer conv5
I0320 20:54:57.821974  8502 net.cpp:406] conv5 <- relu4
I0320 20:54:57.821976  8502 net.cpp:380] conv5 -> conv5
I0320 20:54:57.822793  8502 net.cpp:122] Setting up conv5
I0320 20:54:57.822798  8502 net.cpp:129] Top shape: 64 1 19 19 (23104)
I0320 20:54:57.822813  8502 net.cpp:137] Memory required for data: 47686912
I0320 20:54:57.822820  8502 layer_factory.hpp:77] Creating layer relu5
I0320 20:54:57.822824  8502 net.cpp:84] Creating Layer relu5
I0320 20:54:57.822825  8502 net.cpp:406] relu5 <- conv5
I0320 20:54:57.822829  8502 net.cpp:380] relu5 -> relu5
I0320 20:54:57.822844  8502 net.cpp:122] Setting up relu5
I0320 20:54:57.822846  8502 net.cpp:129] Top shape: 64 1 19 19 (23104)
I0320 20:54:57.822849  8502 net.cpp:137] Memory required for data: 47779328
I0320 20:54:57.822849  8502 layer_factory.hpp:77] Creating layer fc8
I0320 20:54:57.822854  8502 net.cpp:84] Creating Layer fc8
I0320 20:54:57.822855  8502 net.cpp:406] fc8 <- relu5
I0320 20:54:57.822860  8502 net.cpp:380] fc8 -> fc8
I0320 20:54:57.823436  8502 net.cpp:122] Setting up fc8
I0320 20:54:57.823439  8502 net.cpp:129] Top shape: 64 362 (23168)
I0320 20:54:57.823441  8502 net.cpp:137] Memory required for data: 47872000
I0320 20:54:57.823444  8502 layer_factory.hpp:77] Creating layer softmax_output
I0320 20:54:57.823448  8502 net.cpp:84] Creating Layer softmax_output
I0320 20:54:57.823451  8502 net.cpp:406] softmax_output <- fc8
I0320 20:54:57.823452  8502 net.cpp:406] softmax_output <- label
I0320 20:54:57.823457  8502 net.cpp:380] softmax_output -> softmax_output
…
I0320 20:54:57.824379  8502 net.cpp:294] The NetState phase (1) differed from the phase (0) specified by a rule in layer data
I0320 20:54:57.824389  8502 net.cpp:294] The NetState phase (1) differed from the phase (0) specified by a rule in layer softmax_output
I0320 20:54:57.824455  8502 net.cpp:51] Initializing net from parameters: 
name: "Go_player"
state {
  phase: TEST
}
layer {
  name: "data"
  type: "ImageData"
  top: "data"
  top: "label"
  include {
    phase: TEST
  }
  image_data_param {
    source: "dataset_test.txt"
    batch_size: 4
    shuffle: true
  }
}
layer {
  name: "conv1"
  type: "Convolution"
  bottom: "data"
  top: "conv1"
  convolution_param {
    num_output: 64
    pad: 2
    kernel_size: 5
    stride: 1
    weight_filler {
      type: "xavier"
    }
    bias_filler {
      type: "constant"
    }
  }
}
layer {
  name: "relu1"
  type: "ReLU"
  bottom: "conv1"
  top: "relu1"
  relu_param {
    negative_slope: 0.01
  }
}
layer {
  name: "conv2"
  type: "Convolution"
  bottom: "relu1"
  top: "conv2"
  convolution_param {
    num_output: 64
    pad: 2
    kernel_size: 5
    stride: 1
    weight_filler {
      type: "xavier"
    }
    bias_filler {
      type: "constant"
    }
  }
}
layer {
  name: "relu2"
  type: "ReLU"
  bottom: "conv2"
  top: "relu2"
  relu_param {
    negative_slope: 0.01
  }
}
layer {
  name: "conv3"
  type: "Convolution"
  bottom: "relu2"
  top: "conv3"
  convolution_param {
    num_output: 64
    pad: 2
    kernel_size: 5
    stride: 1
    weight_filler {
      type: "xavier"
    }
    bias_filler {
      type: "constant"
    }
  }
}
layer {
  name: "relu3"
  type: "ReLU"
  bottom: "conv3"
  top: "relu3"
  relu_param {
    negative_slope: 0.01
  }
}
layer {
  name: "conv4"
  type: "Convolution"
  bottom: "relu3"
  top: "conv4"
  convolution_param {
    num_output: 64
    pad: 2
    kernel_size: 5
    stride: 1
    weight_filler {
      type: "xavier"
    }
    bias_filler {
      type: "constant"
    }
  }
}
layer {
  name: "relu4"
  type: "ReLU"
  bottom: "conv4"
  top: "relu4"
  relu_param {
    negative_slope: 0.01
  }
}
layer {
  name: "conv5"
  type: "Convolution"
  bottom: "relu4"
  top: "conv5"
  convolution_param {
    num_output: 1
    pad: 2
    kernel_size: 5
    stride: 1
    weight_filler {
      type: "xavier"
    }
    bias_filler {
      type: "constant"
    }
  }
}
layer {
  name: "relu5"
  type: "ReLU"
  bottom: "conv5"
  top: "relu5"
  relu_param {
    negative_slope: 0.01
  }
}
layer {
  name: "fc8"
  type: "InnerProduct"
  bottom: "relu5"
  top: "fc8"
  inner_product_param {
    num_output: 362
    weight_filler {
      type: "xavier"
    }
    bias_filler {
      type: "constant"
    }
  }
}
layer {
  name: "softmax_output_test"
  type: "SoftmaxWithLoss"
  bottom: "fc8"
  bottom: "label"
  top: "softmax_output_test"
  include {
    phase: TEST
  }
}
I0320 20:54:57.824499  8502 layer_factory.hpp:77] Creating layer data
I0320 20:54:57.824509  8502 net.cpp:84] Creating Layer data
I0320 20:54:57.824512  8502 net.cpp:380] data -> data
I0320 20:54:57.824517  8502 net.cpp:380] data -> label
I0320 20:54:57.824523  8502 image_data_layer.cpp:38] Opening file dataset_test.txt
I0320 20:54:57.824852  8502 image_data_layer.cpp:53] Shuffling data
I0320 20:54:57.824947  8502 image_data_layer.cpp:63] A total of 724 images.
I0320 20:54:57.825044  8502 image_data_layer.cpp:90] output data size: 4,3,19,19
I0320 20:54:57.825558  8502 net.cpp:122] Setting up data
I0320 20:54:57.825563  8502 net.cpp:129] Top shape: 4 3 19 19 (4332)
I0320 20:54:57.825567  8502 net.cpp:129] Top shape: 4 (4)
I0320 20:54:57.825567  8502 net.cpp:137] Memory required for data: 17344
I0320 20:54:57.825569  8502 layer_factory.hpp:77] Creating layer conv1
I0320 20:54:57.825577  8502 net.cpp:84] Creating Layer conv1
I0320 20:54:57.825579  8502 net.cpp:406] conv1 <- data
I0320 20:54:57.825583  8502 net.cpp:380] conv1 -> conv1
I0320 20:54:57.825850  8502 net.cpp:122] Setting up conv1
I0320 20:54:57.825853  8502 net.cpp:129] Top shape: 4 64 19 19 (92416)
I0320 20:54:57.825855  8502 net.cpp:137] Memory required for data: 387008
I0320 20:54:57.825861  8502 layer_factory.hpp:77] Creating layer relu1
I0320 20:54:57.825865  8502 net.cpp:84] Creating Layer relu1
I0320 20:54:57.825867  8502 net.cpp:406] relu1 <- conv1
I0320 20:54:57.825870  8502 net.cpp:380] relu1 -> relu1
I0320 20:54:57.825886  8502 net.cpp:122] Setting up relu1
I0320 20:54:57.825888  8502 net.cpp:129] Top shape: 4 64 19 19 (92416)
I0320 20:54:57.825891  8502 net.cpp:137] Memory required for data: 756672
I0320 20:54:57.825891  8502 layer_factory.hpp:77] Creating layer conv2
I0320 20:54:57.825897  8502 net.cpp:84] Creating Layer conv2
I0320 20:54:57.825899  8502 net.cpp:406] conv2 <- relu1
I0320 20:54:57.825902  8502 net.cpp:380] conv2 -> conv2
I0320 20:54:57.826534  8502 net.cpp:122] Setting up conv2
I0320 20:54:57.826537  8502 net.cpp:129] Top shape: 4 64 19 19 (92416)
I0320 20:54:57.826539  8502 net.cpp:137] Memory required for data: 1126336
I0320 20:54:57.826545  8502 layer_factory.hpp:77] Creating layer relu2
I0320 20:54:57.826548  8502 net.cpp:84] Creating Layer relu2
I0320 20:54:57.826550  8502 net.cpp:406] relu2 <- conv2
I0320 20:54:57.826553  8502 net.cpp:380] relu2 -> relu2
I0320 20:54:57.826575  8502 net.cpp:122] Setting up relu2
I0320 20:54:57.826577  8502 net.cpp:129] Top shape: 4 64 19 19 (92416)
I0320 20:54:57.826580  8502 net.cpp:137] Memory required for data: 1496000
I0320 20:54:57.826581  8502 layer_factory.hpp:77] Creating layer conv3
I0320 20:54:57.826586  8502 net.cpp:84] Creating Layer conv3
I0320 20:54:57.826587  8502 net.cpp:406] conv3 <- relu2
I0320 20:54:57.826591  8502 net.cpp:380] conv3 -> conv3
I0320 20:54:57.827164  8502 net.cpp:122] Setting up conv3
I0320 20:54:57.827168  8502 net.cpp:129] Top shape: 4 64 19 19 (92416)
I0320 20:54:57.827169  8502 net.cpp:137] Memory required for data: 1865664
I0320 20:54:57.827175  8502 layer_factory.hpp:77] Creating layer relu3
I0320 20:54:57.827178  8502 net.cpp:84] Creating Layer relu3
I0320 20:54:57.827180  8502 net.cpp:406] relu3 <- conv3
I0320 20:54:57.827183  8502 net.cpp:380] relu3 -> relu3
I0320 20:54:57.827196  8502 net.cpp:122] Setting up relu3
I0320 20:54:57.827199  8502 net.cpp:129] Top shape: 4 64 19 19 (92416)
I0320 20:54:57.827201  8502 net.cpp:137] Memory required for data: 2235328
I0320 20:54:57.827203  8502 layer_factory.hpp:77] Creating layer conv4
I0320 20:54:57.827208  8502 net.cpp:84] Creating Layer conv4
I0320 20:54:57.827209  8502 net.cpp:406] conv4 <- relu3
I0320 20:54:57.827213  8502 net.cpp:380] conv4 -> conv4
I0320 20:54:57.828459  8502 net.cpp:122] Setting up conv4
I0320 20:54:57.828464  8502 net.cpp:129] Top shape: 4 64 19 19 (92416)
I0320 20:54:57.828465  8502 net.cpp:137] Memory required for data: 2604992
I0320 20:54:57.828470  8502 layer_factory.hpp:77] Creating layer relu4
I0320 20:54:57.828475  8502 net.cpp:84] Creating Layer relu4
I0320 20:54:57.828477  8502 net.cpp:406] relu4 <- conv4
I0320 20:54:57.828480  8502 net.cpp:380] relu4 -> relu4
I0320 20:54:57.828495  8502 net.cpp:122] Setting up relu4
I0320 20:54:57.828498  8502 net.cpp:129] Top shape: 4 64 19 19 (92416)
I0320 20:54:57.828500  8502 net.cpp:137] Memory required for data: 2974656
I0320 20:54:57.828501  8502 layer_factory.hpp:77] Creating layer conv5
I0320 20:54:57.828507  8502 net.cpp:84] Creating Layer conv5
I0320 20:54:57.828508  8502 net.cpp:406] conv5 <- relu4
I0320 20:54:57.828511  8502 net.cpp:380] conv5 -> conv5
I0320 20:54:57.828680  8502 net.cpp:122] Setting up conv5
I0320 20:54:57.828682  8502 net.cpp:129] Top shape: 4 1 19 19 (1444)
I0320 20:54:57.828685  8502 net.cpp:137] Memory required for data: 2980432
I0320 20:54:57.828691  8502 layer_factory.hpp:77] Creating layer relu5
I0320 20:54:57.828693  8502 net.cpp:84] Creating Layer relu5
I0320 20:54:57.828696  8502 net.cpp:406] relu5 <- conv5
I0320 20:54:57.828697  8502 net.cpp:380] relu5 -> relu5
I0320 20:54:57.828711  8502 net.cpp:122] Setting up relu5
I0320 20:54:57.828714  8502 net.cpp:129] Top shape: 4 1 19 19 (1444)
I0320 20:54:57.828716  8502 net.cpp:137] Memory required for data: 2986208
I0320 20:54:57.828716  8502 layer_factory.hpp:77] Creating layer fc8
I0320 20:54:57.828721  8502 net.cpp:84] Creating Layer fc8
I0320 20:54:57.828722  8502 net.cpp:406] fc8 <- relu5
I0320 20:54:57.828725  8502 net.cpp:380] fc8 -> fc8
I0320 20:54:57.829288  8502 net.cpp:122] Setting up fc8
I0320 20:54:57.829291  8502 net.cpp:129] Top shape: 4 362 (1448)
I0320 20:54:57.829293  8502 net.cpp:137] Memory required for data: 2992000
I0320 20:54:57.829296  8502 layer_factory.hpp:77] Creating layer softmax_output_test
I0320 20:54:57.829300  8502 net.cpp:84] Creating Layer softmax_output_test
I0320 20:54:57.829303  8502 net.cpp:406] softmax_output_test <- fc8
I0320 20:54:57.829304  8502 net.cpp:406] softmax_output_test <- label
I0320 20:54:57.829308  8502 net.cpp:380] softmax_output_test -> softmax_output_test
…
