…
I0409 01:01:42.580935  6216 net.cpp:294] The NetState phase (0) differed from the phase (1) specified by a rule in layer data
I0409 01:01:42.580945  6216 net.cpp:294] The NetState phase (0) differed from the phase (1) specified by a rule in layer softmax_output_test
I0409 01:01:42.581027  6216 net.cpp:51] Initializing net from parameters: 
name: "Go_player"
state {
  phase: TRAIN
}
layer {
  name: "data"
  type: "ImageData"
  top: "data"
  top: "label"
  include {
    phase: TRAIN
  }
  image_data_param {
    source: "dataset_train-no_pass.txt"
    batch_size: 64
    shuffle: true
  }
}
layer {
  name: "conv1"
  type: "Convolution"
  bottom: "data"
  top: "conv1"
  convolution_param {
    num_output: 64
    pad: 2
    kernel_size: 5
    stride: 1
    weight_filler {
      type: "xavier"
    }
    bias_filler {
      type: "constant"
    }
  }
}
layer {
  name: "relu1"
  type: "ReLU"
  bottom: "conv1"
  top: "relu1"
  relu_param {
    negative_slope: 0.01
  }
}
layer {
  name: "bn1"
  type: "BatchNorm"
  bottom: "relu1"
  top: "bn1"
  param {
    lr_mult: 0
    decay_mult: 0
  }
  param {
    lr_mult: 0
    decay_mult: 0
  }
  param {
    lr_mult: 0
    decay_mult: 0
  }
}
layer {
  name: "conv2"
  type: "Convolution"
  bottom: "bn1"
  top: "conv2"
  convolution_param {
    num_output: 64
    pad: 2
    kernel_size: 5
    stride: 1
    weight_filler {
      type: "xavier"
    }
    bias_filler {
      type: "constant"
    }
  }
}
layer {
  name: "relu2"
  type: "ReLU"
  bottom: "conv2"
  top: "relu2"
  relu_param {
    negative_slope: 0.01
  }
}
layer {
  name: "bn2"
  type: "BatchNorm"
  bottom: "relu2"
  top: "bn2"
  param {
    lr_mult: 0
    decay_mult: 0
  }
  param {
    lr_mult: 0
    decay_mult: 0
  }
  param {
    lr_mult: 0
    decay_mult: 0
  }
}
layer {
  name: "conv3"
  type: "Convolution"
  bottom: "bn2"
  top: "conv3"
  convolution_param {
    num_output: 64
    pad: 2
    kernel_size: 5
    stride: 1
    weight_filler {
      type: "xavier"
    }
    bias_filler {
      type: "constant"
    }
  }
}
layer {
  name: "relu3"
  type: "ReLU"
  bottom: "conv3"
  top: "relu3"
  relu_param {
    negative_slope: 0.01
  }
}
layer {
  name: "bn3"
  type: "BatchNorm"
  bottom: "relu3"
  top: "bn3"
  param {
    lr_mult: 0
    decay_mult: 0
  }
  param {
    lr_mult: 0
    decay_mult: 0
  }
  param {
    lr_mult: 0
    decay_mult: 0
  }
}
layer {
  name: "conv4"
  type: "Convolution"
  bottom: "bn3"
  top: "conv4"
  convolution_param {
    num_output: 64
    pad: 2
    kernel_size: 5
    stride: 1
    weight_filler {
      type: "xavier"
    }
    bias_filler {
      type: "constant"
    }
  }
}
layer {
  name: "relu4"
  type: "ReLU"
  bottom: "conv4"
  top: "relu4"
  relu_param {
    negative_slope: 0.01
  }
}
layer {
  name: "bn4"
  type: "BatchNorm"
  bottom: "relu4"
  top: "bn4"
  param {
    lr_mult: 0
    decay_mult: 0
  }
  param {
    lr_mult: 0
    decay_mult: 0
  }
  param {
    lr_mult: 0
    decay_mult: 0
  }
}
layer {
  name: "conv5"
  type: "Convolution"
  bottom: "bn4"
  top: "conv5"
  convolution_param {
    num_output: 1
    pad: 2
    kernel_size: 5
    stride: 1
    weight_filler {
      type: "xavier"
    }
    bias_filler {
      type: "constant"
    }
  }
}
layer {
  name: "relu5"
  type: "ReLU"
  bottom: "conv5"
  top: "relu5"
  relu_param {
    negative_slope: 0.01
  }
}
layer {
  name: "bn5"
  type: "BatchNorm"
  bottom: "relu5"
  top: "bn5"
  param {
    lr_mult: 0
    decay_mult: 0
  }
  param {
    lr_mult: 0
    decay_mult: 0
  }
  param {
    lr_mult: 0
    decay_mult: 0
  }
}
layer {
  name: "fc"
  type: "InnerProduct"
  bottom: "bn5"
  top: "fc"
  inner_product_param {
    num_output: 361
    weight_filler {
      type: "xavier"
    }
    bias_filler {
      type: "constant"
    }
  }
}
layer {
  name: "softmax_output"
  type: "SoftmaxWithLoss"
  bottom: "fc"
  bottom: "label"
  top: "softmax_output"
  include {
    phase: TRAIN
  }
}
I0409 01:01:42.581091  6216 layer_factory.hpp:77] Creating layer data
I0409 01:01:42.581110  6216 net.cpp:84] Creating Layer data
I0409 01:01:42.581115  6216 net.cpp:380] data -> data
I0409 01:01:42.581128  6216 net.cpp:380] data -> label
I0409 01:01:42.581136  6216 image_data_layer.cpp:38] Opening file dataset_train-no_pass.txt
I0409 01:01:42.698796  6216 image_data_layer.cpp:53] Shuffling data
I0409 01:01:42.770933  6216 image_data_layer.cpp:63] A total of 288808 images.
I0409 01:01:42.774204  6216 image_data_layer.cpp:90] output data size: 64,3,19,19
I0409 01:01:42.775933  6216 net.cpp:122] Setting up data
I0409 01:01:42.775944  6216 net.cpp:129] Top shape: 64 3 19 19 (69312)
I0409 01:01:42.775949  6216 net.cpp:129] Top shape: 64 (64)
I0409 01:01:42.775950  6216 net.cpp:137] Memory required for data: 277504
I0409 01:01:42.775956  6216 layer_factory.hpp:77] Creating layer conv1
I0409 01:01:42.775977  6216 net.cpp:84] Creating Layer conv1
I0409 01:01:42.775982  6216 net.cpp:406] conv1 <- data
I0409 01:01:42.775993  6216 net.cpp:380] conv1 -> conv1
I0409 01:01:42.777994  6216 net.cpp:122] Setting up conv1
I0409 01:01:42.778003  6216 net.cpp:129] Top shape: 64 64 19 19 (1478656)
I0409 01:01:42.778007  6216 net.cpp:137] Memory required for data: 6192128
I0409 01:01:42.778023  6216 layer_factory.hpp:77] Creating layer relu1
I0409 01:01:42.778031  6216 net.cpp:84] Creating Layer relu1
I0409 01:01:42.778034  6216 net.cpp:406] relu1 <- conv1
I0409 01:01:42.778039  6216 net.cpp:380] relu1 -> relu1
I0409 01:01:42.778069  6216 net.cpp:122] Setting up relu1
I0409 01:01:42.778074  6216 net.cpp:129] Top shape: 64 64 19 19 (1478656)
I0409 01:01:42.778076  6216 net.cpp:137] Memory required for data: 12106752
I0409 01:01:42.778079  6216 layer_factory.hpp:77] Creating layer bn1
I0409 01:01:42.778086  6216 net.cpp:84] Creating Layer bn1
I0409 01:01:42.778089  6216 net.cpp:406] bn1 <- relu1
I0409 01:01:42.778092  6216 net.cpp:380] bn1 -> bn1
I0409 01:01:42.778358  6216 net.cpp:122] Setting up bn1
I0409 01:01:42.778363  6216 net.cpp:129] Top shape: 64 64 19 19 (1478656)
I0409 01:01:42.778365  6216 net.cpp:137] Memory required for data: 18021376
I0409 01:01:42.778378  6216 layer_factory.hpp:77] Creating layer conv2
I0409 01:01:42.778388  6216 net.cpp:84] Creating Layer conv2
I0409 01:01:42.778389  6216 net.cpp:406] conv2 <- bn1
I0409 01:01:42.778395  6216 net.cpp:380] conv2 -> conv2
I0409 01:01:42.779136  6216 net.cpp:122] Setting up conv2
I0409 01:01:42.779141  6216 net.cpp:129] Top shape: 64 64 19 19 (1478656)
I0409 01:01:42.779144  6216 net.cpp:137] Memory required for data: 23936000
I0409 01:01:42.779148  6216 layer_factory.hpp:77] Creating layer relu2
I0409 01:01:42.779152  6216 net.cpp:84] Creating Layer relu2
I0409 01:01:42.779156  6216 net.cpp:406] relu2 <- conv2
I0409 01:01:42.779160  6216 net.cpp:380] relu2 -> relu2
I0409 01:01:42.779177  6216 net.cpp:122] Setting up relu2
I0409 01:01:42.779181  6216 net.cpp:129] Top shape: 64 64 19 19 (1478656)
I0409 01:01:42.779183  6216 net.cpp:137] Memory required for data: 29850624
I0409 01:01:42.779186  6216 layer_factory.hpp:77] Creating layer bn2
I0409 01:01:42.779191  6216 net.cpp:84] Creating Layer bn2
I0409 01:01:42.779192  6216 net.cpp:406] bn2 <- relu2
I0409 01:01:42.779197  6216 net.cpp:380] bn2 -> bn2
I0409 01:01:42.779366  6216 net.cpp:122] Setting up bn2
I0409 01:01:42.779371  6216 net.cpp:129] Top shape: 64 64 19 19 (1478656)
I0409 01:01:42.779372  6216 net.cpp:137] Memory required for data: 35765248
I0409 01:01:42.779412  6216 layer_factory.hpp:77] Creating layer conv3
I0409 01:01:42.779422  6216 net.cpp:84] Creating Layer conv3
I0409 01:01:42.779423  6216 net.cpp:406] conv3 <- bn2
I0409 01:01:42.779428  6216 net.cpp:380] conv3 -> conv3
I0409 01:01:42.780155  6216 net.cpp:122] Setting up conv3
I0409 01:01:42.780161  6216 net.cpp:129] Top shape: 64 64 19 19 (1478656)
I0409 01:01:42.780164  6216 net.cpp:137] Memory required for data: 41679872
I0409 01:01:42.780167  6216 layer_factory.hpp:77] Creating layer relu3
I0409 01:01:42.780174  6216 net.cpp:84] Creating Layer relu3
I0409 01:01:42.780175  6216 net.cpp:406] relu3 <- conv3
I0409 01:01:42.780179  6216 net.cpp:380] relu3 -> relu3
I0409 01:01:42.780196  6216 net.cpp:122] Setting up relu3
I0409 01:01:42.780200  6216 net.cpp:129] Top shape: 64 64 19 19 (1478656)
I0409 01:01:42.780202  6216 net.cpp:137] Memory required for data: 47594496
I0409 01:01:42.780205  6216 layer_factory.hpp:77] Creating layer bn3
I0409 01:01:42.780210  6216 net.cpp:84] Creating Layer bn3
I0409 01:01:42.780211  6216 net.cpp:406] bn3 <- relu3
I0409 01:01:42.780216  6216 net.cpp:380] bn3 -> bn3
I0409 01:01:42.780408  6216 net.cpp:122] Setting up bn3
I0409 01:01:42.780412  6216 net.cpp:129] Top shape: 64 64 19 19 (1478656)
I0409 01:01:42.780414  6216 net.cpp:137] Memory required for data: 53509120
I0409 01:01:42.780421  6216 layer_factory.hpp:77] Creating layer conv4
I0409 01:01:42.780427  6216 net.cpp:84] Creating Layer conv4
I0409 01:01:42.780429  6216 net.cpp:406] conv4 <- bn3
I0409 01:01:42.780433  6216 net.cpp:380] conv4 -> conv4
I0409 01:01:42.781957  6216 net.cpp:122] Setting up conv4
I0409 01:01:42.781965  6216 net.cpp:129] Top shape: 64 64 19 19 (1478656)
I0409 01:01:42.781967  6216 net.cpp:137] Memory required for data: 59423744
I0409 01:01:42.781978  6216 layer_factory.hpp:77] Creating layer relu4
I0409 01:01:42.781983  6216 net.cpp:84] Creating Layer relu4
I0409 01:01:42.781985  6216 net.cpp:406] relu4 <- conv4
I0409 01:01:42.781989  6216 net.cpp:380] relu4 -> relu4
I0409 01:01:42.782007  6216 net.cpp:122] Setting up relu4
I0409 01:01:42.782011  6216 net.cpp:129] Top shape: 64 64 19 19 (1478656)
I0409 01:01:42.782013  6216 net.cpp:137] Memory required for data: 65338368
I0409 01:01:42.782016  6216 layer_factory.hpp:77] Creating layer bn4
I0409 01:01:42.782021  6216 net.cpp:84] Creating Layer bn4
I0409 01:01:42.782021  6216 net.cpp:406] bn4 <- relu4
I0409 01:01:42.782027  6216 net.cpp:380] bn4 -> bn4
I0409 01:01:42.782189  6216 net.cpp:122] Setting up bn4
I0409 01:01:42.782193  6216 net.cpp:129] Top shape: 64 64 19 19 (1478656)
I0409 01:01:42.782196  6216 net.cpp:137] Memory required for data: 71252992
I0409 01:01:42.782200  6216 layer_factory.hpp:77] Creating layer conv5
I0409 01:01:42.782207  6216 net.cpp:84] Creating Layer conv5
I0409 01:01:42.782209  6216 net.cpp:406] conv5 <- bn4
I0409 01:01:42.782214  6216 net.cpp:380] conv5 -> conv5
I0409 01:01:42.783185  6216 net.cpp:122] Setting up conv5
I0409 01:01:42.783191  6216 net.cpp:129] Top shape: 64 1 19 19 (23104)
I0409 01:01:42.783193  6216 net.cpp:137] Memory required for data: 71345408
I0409 01:01:42.783198  6216 layer_factory.hpp:77] Creating layer relu5
I0409 01:01:42.783203  6216 net.cpp:84] Creating Layer relu5
I0409 01:01:42.783205  6216 net.cpp:406] relu5 <- conv5
I0409 01:01:42.783210  6216 net.cpp:380] relu5 -> relu5
I0409 01:01:42.783282  6216 net.cpp:122] Setting up relu5
I0409 01:01:42.783285  6216 net.cpp:129] Top shape: 64 1 19 19 (23104)
I0409 01:01:42.783288  6216 net.cpp:137] Memory required for data: 71437824
I0409 01:01:42.783289  6216 layer_factory.hpp:77] Creating layer bn5
I0409 01:01:42.783293  6216 net.cpp:84] Creating Layer bn5
I0409 01:01:42.783295  6216 net.cpp:406] bn5 <- relu5
I0409 01:01:42.783299  6216 net.cpp:380] bn5 -> bn5
I0409 01:01:42.783473  6216 net.cpp:122] Setting up bn5
I0409 01:01:42.783478  6216 net.cpp:129] Top shape: 64 1 19 19 (23104)
I0409 01:01:42.783480  6216 net.cpp:137] Memory required for data: 71530240
I0409 01:01:42.783485  6216 layer_factory.hpp:77] Creating layer fc
I0409 01:01:42.783504  6216 net.cpp:84] Creating Layer fc
I0409 01:01:42.783506  6216 net.cpp:406] fc <- bn5
I0409 01:01:42.783511  6216 net.cpp:380] fc -> fc
I0409 01:01:42.784212  6216 net.cpp:122] Setting up fc
I0409 01:01:42.784216  6216 net.cpp:129] Top shape: 64 361 (23104)
I0409 01:01:42.784219  6216 net.cpp:137] Memory required for data: 71622656
I0409 01:01:42.784222  6216 layer_factory.hpp:77] Creating layer softmax_output
I0409 01:01:42.784227  6216 net.cpp:84] Creating Layer softmax_output
I0409 01:01:42.784230  6216 net.cpp:406] softmax_output <- fc
I0409 01:01:42.784234  6216 net.cpp:406] softmax_output <- label
I0409 01:01:42.784238  6216 net.cpp:380] softmax_output -> softmax_output
…
I0409 01:01:42.785388  6216 net.cpp:294] The NetState phase (1) differed from the phase (0) specified by a rule in layer data
I0409 01:01:42.785403  6216 net.cpp:294] The NetState phase (1) differed from the phase (0) specified by a rule in layer softmax_output
I0409 01:01:42.785511  6216 net.cpp:51] Initializing net from parameters: 
name: "Go_player"
state {
  phase: TEST
}
layer {
  name: "data"
  type: "ImageData"
  top: "data"
  top: "label"
  include {
    phase: TEST
  }
  image_data_param {
    source: "dataset_test-no_pass.txt"
    batch_size: 4
    shuffle: true
  }
}
layer {
  name: "conv1"
  type: "Convolution"
  bottom: "data"
  top: "conv1"
  convolution_param {
    num_output: 64
    pad: 2
    kernel_size: 5
    stride: 1
    weight_filler {
      type: "xavier"
    }
    bias_filler {
      type: "constant"
    }
  }
}
layer {
  name: "relu1"
  type: "ReLU"
  bottom: "conv1"
  top: "relu1"
  relu_param {
    negative_slope: 0.01
  }
}
layer {
  name: "bn1"
  type: "BatchNorm"
  bottom: "relu1"
  top: "bn1"
  param {
    lr_mult: 0
    decay_mult: 0
  }
  param {
    lr_mult: 0
    decay_mult: 0
  }
  param {
    lr_mult: 0
    decay_mult: 0
  }
}
layer {
  name: "conv2"
  type: "Convolution"
  bottom: "bn1"
  top: "conv2"
  convolution_param {
    num_output: 64
    pad: 2
    kernel_size: 5
    stride: 1
    weight_filler {
      type: "xavier"
    }
    bias_filler {
      type: "constant"
    }
  }
}
layer {
  name: "relu2"
  type: "ReLU"
  bottom: "conv2"
  top: "relu2"
  relu_param {
    negative_slope: 0.01
  }
}
layer {
  name: "bn2"
  type: "BatchNorm"
  bottom: "relu2"
  top: "bn2"
  param {
    lr_mult: 0
    decay_mult: 0
  }
  param {
    lr_mult: 0
    decay_mult: 0
  }
  param {
    lr_mult: 0
    decay_mult: 0
  }
}
layer {
  name: "conv3"
  type: "Convolution"
  bottom: "bn2"
  top: "conv3"
  convolution_param {
    num_output: 64
    pad: 2
    kernel_size: 5
    stride: 1
    weight_filler {
      type: "xavier"
    }
    bias_filler {
      type: "constant"
    }
  }
}
layer {
  name: "relu3"
  type: "ReLU"
  bottom: "conv3"
  top: "relu3"
  relu_param {
    negative_slope: 0.01
  }
}
layer {
  name: "bn3"
  type: "BatchNorm"
  bottom: "relu3"
  top: "bn3"
  param {
    lr_mult: 0
    decay_mult: 0
  }
  param {
    lr_mult: 0
    decay_mult: 0
  }
  param {
    lr_mult: 0
    decay_mult: 0
  }
}
layer {
  name: "conv4"
  type: "Convolution"
  bottom: "bn3"
  top: "conv4"
  convolution_param {
    num_output: 64
    pad: 2
    kernel_size: 5
    stride: 1
    weight_filler {
      type: "xavier"
    }
    bias_filler {
      type: "constant"
    }
  }
}
layer {
  name: "relu4"
  type: "ReLU"
  bottom: "conv4"
  top: "relu4"
  relu_param {
    negative_slope: 0.01
  }
}
layer {
  name: "bn4"
  type: "BatchNorm"
  bottom: "relu4"
  top: "bn4"
  param {
    lr_mult: 0
    decay_mult: 0
  }
  param {
    lr_mult: 0
    decay_mult: 0
  }
  param {
    lr_mult: 0
    decay_mult: 0
  }
}
layer {
  name: "conv5"
  type: "Convolution"
  bottom: "bn4"
  top: "conv5"
  convolution_param {
    num_output: 1
    pad: 2
    kernel_size: 5
    stride: 1
    weight_filler {
      type: "xavier"
    }
    bias_filler {
      type: "constant"
    }
  }
}
layer {
  name: "relu5"
  type: "ReLU"
  bottom: "conv5"
  top: "relu5"
  relu_param {
    negative_slope: 0.01
  }
}
layer {
  name: "bn5"
  type: "BatchNorm"
  bottom: "relu5"
  top: "bn5"
  param {
    lr_mult: 0
    decay_mult: 0
  }
  param {
    lr_mult: 0
    decay_mult: 0
  }
  param {
    lr_mult: 0
    decay_mult: 0
  }
}
layer {
  name: "fc"
  type: "InnerProduct"
  bottom: "bn5"
  top: "fc"
  inner_product_param {
    num_output: 361
    weight_filler {
      type: "xavier"
    }
    bias_filler {
      type: "constant"
    }
  }
}
layer {
  name: "softmax_output_test"
  type: "SoftmaxWithLoss"
  bottom: "fc"
  bottom: "label"
  top: "softmax_output_test"
  include {
    phase: TEST
  }
}
I0409 01:01:42.785586  6216 layer_factory.hpp:77] Creating layer data
I0409 01:01:42.785598  6216 net.cpp:84] Creating Layer data
I0409 01:01:42.785603  6216 net.cpp:380] data -> data
I0409 01:01:42.785609  6216 net.cpp:380] data -> label
I0409 01:01:42.785614  6216 image_data_layer.cpp:38] Opening file dataset_test-no_pass.txt
I0409 01:01:42.787464  6216 image_data_layer.cpp:53] Shuffling data
I0409 01:01:42.788033  6216 image_data_layer.cpp:63] A total of 3610 images.
I0409 01:01:42.788149  6216 image_data_layer.cpp:90] output data size: 4,3,19,19
I0409 01:01:42.788599  6216 net.cpp:122] Setting up data
I0409 01:01:42.788606  6216 net.cpp:129] Top shape: 4 3 19 19 (4332)
I0409 01:01:42.788609  6216 net.cpp:129] Top shape: 4 (4)
I0409 01:01:42.788610  6216 net.cpp:137] Memory required for data: 17344
I0409 01:01:42.788614  6216 layer_factory.hpp:77] Creating layer conv1
I0409 01:01:42.788624  6216 net.cpp:84] Creating Layer conv1
I0409 01:01:42.788625  6216 net.cpp:406] conv1 <- data
I0409 01:01:42.788630  6216 net.cpp:380] conv1 -> conv1
I0409 01:01:42.788911  6216 net.cpp:122] Setting up conv1
I0409 01:01:42.788916  6216 net.cpp:129] Top shape: 4 64 19 19 (92416)
I0409 01:01:42.788918  6216 net.cpp:137] Memory required for data: 387008
I0409 01:01:42.788934  6216 layer_factory.hpp:77] Creating layer relu1
I0409 01:01:42.788939  6216 net.cpp:84] Creating Layer relu1
I0409 01:01:42.788941  6216 net.cpp:406] relu1 <- conv1
I0409 01:01:42.788945  6216 net.cpp:380] relu1 -> relu1
I0409 01:01:42.788964  6216 net.cpp:122] Setting up relu1
I0409 01:01:42.788967  6216 net.cpp:129] Top shape: 4 64 19 19 (92416)
I0409 01:01:42.788969  6216 net.cpp:137] Memory required for data: 756672
I0409 01:01:42.788970  6216 layer_factory.hpp:77] Creating layer bn1
I0409 01:01:42.788975  6216 net.cpp:84] Creating Layer bn1
I0409 01:01:42.788977  6216 net.cpp:406] bn1 <- relu1
I0409 01:01:42.788981  6216 net.cpp:380] bn1 -> bn1
I0409 01:01:42.789139  6216 net.cpp:122] Setting up bn1
I0409 01:01:42.789144  6216 net.cpp:129] Top shape: 4 64 19 19 (92416)
I0409 01:01:42.789145  6216 net.cpp:137] Memory required for data: 1126336
I0409 01:01:42.789155  6216 layer_factory.hpp:77] Creating layer conv2
I0409 01:01:42.789161  6216 net.cpp:84] Creating Layer conv2
I0409 01:01:42.789163  6216 net.cpp:406] conv2 <- bn1
I0409 01:01:42.789168  6216 net.cpp:380] conv2 -> conv2
I0409 01:01:42.789829  6216 net.cpp:122] Setting up conv2
I0409 01:01:42.789834  6216 net.cpp:129] Top shape: 4 64 19 19 (92416)
I0409 01:01:42.789835  6216 net.cpp:137] Memory required for data: 1496000
I0409 01:01:42.789839  6216 layer_factory.hpp:77] Creating layer relu2
I0409 01:01:42.789844  6216 net.cpp:84] Creating Layer relu2
I0409 01:01:42.789845  6216 net.cpp:406] relu2 <- conv2
I0409 01:01:42.789849  6216 net.cpp:380] relu2 -> relu2
I0409 01:01:42.789865  6216 net.cpp:122] Setting up relu2
I0409 01:01:42.789868  6216 net.cpp:129] Top shape: 4 64 19 19 (92416)
I0409 01:01:42.789870  6216 net.cpp:137] Memory required for data: 1865664
I0409 01:01:42.789871  6216 layer_factory.hpp:77] Creating layer bn2
I0409 01:01:42.789876  6216 net.cpp:84] Creating Layer bn2
I0409 01:01:42.789877  6216 net.cpp:406] bn2 <- relu2
I0409 01:01:42.789881  6216 net.cpp:380] bn2 -> bn2
I0409 01:01:42.790041  6216 net.cpp:122] Setting up bn2
I0409 01:01:42.790045  6216 net.cpp:129] Top shape: 4 64 19 19 (92416)
I0409 01:01:42.790047  6216 net.cpp:137] Memory required for data: 2235328
I0409 01:01:42.790055  6216 layer_factory.hpp:77] Creating layer conv3
I0409 01:01:42.790061  6216 net.cpp:84] Creating Layer conv3
I0409 01:01:42.790063  6216 net.cpp:406] conv3 <- bn2
I0409 01:01:42.790067  6216 net.cpp:380] conv3 -> conv3
I0409 01:01:42.790737  6216 net.cpp:122] Setting up conv3
I0409 01:01:42.790742  6216 net.cpp:129] Top shape: 4 64 19 19 (92416)
I0409 01:01:42.790745  6216 net.cpp:137] Memory required for data: 2604992
I0409 01:01:42.790748  6216 layer_factory.hpp:77] Creating layer relu3
I0409 01:01:42.790753  6216 net.cpp:84] Creating Layer relu3
I0409 01:01:42.790755  6216 net.cpp:406] relu3 <- conv3
I0409 01:01:42.790760  6216 net.cpp:380] relu3 -> relu3
I0409 01:01:42.790774  6216 net.cpp:122] Setting up relu3
I0409 01:01:42.790777  6216 net.cpp:129] Top shape: 4 64 19 19 (92416)
I0409 01:01:42.790779  6216 net.cpp:137] Memory required for data: 2974656
I0409 01:01:42.790781  6216 layer_factory.hpp:77] Creating layer bn3
I0409 01:01:42.790784  6216 net.cpp:84] Creating Layer bn3
I0409 01:01:42.790786  6216 net.cpp:406] bn3 <- relu3
I0409 01:01:42.790791  6216 net.cpp:380] bn3 -> bn3
I0409 01:01:42.790943  6216 net.cpp:122] Setting up bn3
I0409 01:01:42.790947  6216 net.cpp:129] Top shape: 4 64 19 19 (92416)
I0409 01:01:42.790948  6216 net.cpp:137] Memory required for data: 3344320
I0409 01:01:42.790953  6216 layer_factory.hpp:77] Creating layer conv4
I0409 01:01:42.790959  6216 net.cpp:84] Creating Layer conv4
I0409 01:01:42.790961  6216 net.cpp:406] conv4 <- bn3
I0409 01:01:42.790966  6216 net.cpp:380] conv4 -> conv4
I0409 01:01:42.792326  6216 net.cpp:122] Setting up conv4
I0409 01:01:42.792333  6216 net.cpp:129] Top shape: 4 64 19 19 (92416)
I0409 01:01:42.792335  6216 net.cpp:137] Memory required for data: 3713984
I0409 01:01:42.792343  6216 layer_factory.hpp:77] Creating layer relu4
I0409 01:01:42.792348  6216 net.cpp:84] Creating Layer relu4
I0409 01:01:42.792358  6216 net.cpp:406] relu4 <- conv4
I0409 01:01:42.792362  6216 net.cpp:380] relu4 -> relu4
I0409 01:01:42.792379  6216 net.cpp:122] Setting up relu4
I0409 01:01:42.792383  6216 net.cpp:129] Top shape: 4 64 19 19 (92416)
I0409 01:01:42.792384  6216 net.cpp:137] Memory required for data: 4083648
I0409 01:01:42.792387  6216 layer_factory.hpp:77] Creating layer bn4
I0409 01:01:42.792390  6216 net.cpp:84] Creating Layer bn4
I0409 01:01:42.792392  6216 net.cpp:406] bn4 <- relu4
I0409 01:01:42.792397  6216 net.cpp:380] bn4 -> bn4
I0409 01:01:42.792560  6216 net.cpp:122] Setting up bn4
I0409 01:01:42.792563  6216 net.cpp:129] Top shape: 4 64 19 19 (92416)
I0409 01:01:42.792565  6216 net.cpp:137] Memory required for data: 4453312
I0409 01:01:42.792569  6216 layer_factory.hpp:77] Creating layer conv5
I0409 01:01:42.792577  6216 net.cpp:84] Creating Layer conv5
I0409 01:01:42.792578  6216 net.cpp:406] conv5 <- bn4
I0409 01:01:42.792582  6216 net.cpp:380] conv5 -> conv5
I0409 01:01:42.792767  6216 net.cpp:122] Setting up conv5
I0409 01:01:42.792769  6216 net.cpp:129] Top shape: 4 1 19 19 (1444)
I0409 01:01:42.792771  6216 net.cpp:137] Memory required for data: 4459088
I0409 01:01:42.792775  6216 layer_factory.hpp:77] Creating layer relu5
I0409 01:01:42.792778  6216 net.cpp:84] Creating Layer relu5
I0409 01:01:42.792780  6216 net.cpp:406] relu5 <- conv5
I0409 01:01:42.792783  6216 net.cpp:380] relu5 -> relu5
I0409 01:01:42.792798  6216 net.cpp:122] Setting up relu5
I0409 01:01:42.792801  6216 net.cpp:129] Top shape: 4 1 19 19 (1444)
I0409 01:01:42.792804  6216 net.cpp:137] Memory required for data: 4464864
I0409 01:01:42.792804  6216 layer_factory.hpp:77] Creating layer bn5
I0409 01:01:42.792809  6216 net.cpp:84] Creating Layer bn5
I0409 01:01:42.792810  6216 net.cpp:406] bn5 <- relu5
I0409 01:01:42.792814  6216 net.cpp:380] bn5 -> bn5
I0409 01:01:42.792959  6216 net.cpp:122] Setting up bn5
I0409 01:01:42.792963  6216 net.cpp:129] Top shape: 4 1 19 19 (1444)
I0409 01:01:42.792964  6216 net.cpp:137] Memory required for data: 4470640
I0409 01:01:42.792968  6216 layer_factory.hpp:77] Creating layer fc
I0409 01:01:42.792975  6216 net.cpp:84] Creating Layer fc
I0409 01:01:42.792978  6216 net.cpp:406] fc <- bn5
I0409 01:01:42.792980  6216 net.cpp:380] fc -> fc
I0409 01:01:42.793592  6216 net.cpp:122] Setting up fc
I0409 01:01:42.793596  6216 net.cpp:129] Top shape: 4 361 (1444)
I0409 01:01:42.793597  6216 net.cpp:137] Memory required for data: 4476416
I0409 01:01:42.793601  6216 layer_factory.hpp:77] Creating layer softmax_output_test
I0409 01:01:42.793606  6216 net.cpp:84] Creating Layer softmax_output_test
I0409 01:01:42.793608  6216 net.cpp:406] softmax_output_test <- fc
I0409 01:01:42.793611  6216 net.cpp:406] softmax_output_test <- label
I0409 01:01:42.793614  6216 net.cpp:380] softmax_output_test -> softmax_output_test
…
