…
I0406 11:44:56.148196 15817 net.cpp:294] The NetState phase (0) differed from the phase (1) specified by a rule in layer data
I0406 11:44:56.148205 15817 net.cpp:294] The NetState phase (0) differed from the phase (1) specified by a rule in layer softmax_output_test
I0406 11:44:56.148288 15817 net.cpp:51] Initializing net from parameters: 
name: "Go_player"
state {
  phase: TRAIN
}
layer {
  name: "data"
  type: "ImageData"
  top: "data"
  top: "label"
  include {
    phase: TRAIN
  }
  image_data_param {
    source: "dataset_train.txt"
    batch_size: 64
    shuffle: true
  }
}
layer {
  name: "conv1"
  type: "Convolution"
  bottom: "data"
  top: "conv1"
  convolution_param {
    num_output: 50
    pad: 2
    kernel_size: 5
    stride: 1
    weight_filler {
      type: "xavier"
    }
    bias_filler {
      type: "constant"
    }
  }
}
layer {
  name: "relu1"
  type: "ReLU"
  bottom: "conv1"
  top: "relu1"
  relu_param {
    negative_slope: 0.01
  }
}
layer {
  name: "bn1"
  type: "BatchNorm"
  bottom: "relu1"
  top: "bn1"
  param {
    lr_mult: 0
    decay_mult: 0
  }
  param {
    lr_mult: 0
    decay_mult: 0
  }
  param {
    lr_mult: 0
    decay_mult: 0
  }
}
layer {
  name: "conv2"
  type: "Convolution"
  bottom: "bn1"
  top: "conv2"
  convolution_param {
    num_output: 50
    pad: 2
    kernel_size: 5
    stride: 1
    weight_filler {
      type: "xavier"
    }
    bias_filler {
      type: "constant"
    }
  }
}
layer {
  name: "relu2"
  type: "ReLU"
  bottom: "conv2"
  top: "relu2"
  relu_param {
    negative_slope: 0.01
  }
}
layer {
  name: "bn2"
  type: "BatchNorm"
  bottom: "relu2"
  top: "bn2"
  param {
    lr_mult: 0
    decay_mult: 0
  }
  param {
    lr_mult: 0
    decay_mult: 0
  }
  param {
    lr_mult: 0
    decay_mult: 0
  }
}
layer {
  name: "conv3"
  type: "Convolution"
  bottom: "bn2"
  top: "conv3"
  convolution_param {
    num_output: 50
    pad: 2
    kernel_size: 5
    stride: 1
    weight_filler {
      type: "xavier"
    }
    bias_filler {
      type: "constant"
    }
  }
}
layer {
  name: "relu3"
  type: "ReLU"
  bottom: "conv3"
  top: "relu3"
  relu_param {
    negative_slope: 0.01
  }
}
layer {
  name: "bn3"
  type: "BatchNorm"
  bottom: "relu3"
  top: "bn3"
  param {
    lr_mult: 0
    decay_mult: 0
  }
  param {
    lr_mult: 0
    decay_mult: 0
  }
  param {
    lr_mult: 0
    decay_mult: 0
  }
}
layer {
  name: "conv4"
  type: "Convolution"
  bottom: "bn3"
  top: "conv4"
  convolution_param {
    num_output: 50
    pad: 2
    kernel_size: 5
    stride: 1
    weight_filler {
      type: "xavier"
    }
    bias_filler {
      type: "constant"
    }
  }
}
layer {
  name: "relu4"
  type: "ReLU"
  bottom: "conv4"
  top: "relu4"
  relu_param {
    negative_slope: 0.01
  }
}
layer {
  name: "bn4"
  type: "BatchNorm"
  bottom: "relu4"
  top: "bn4"
  param {
    lr_mult: 0
    decay_mult: 0
  }
  param {
    lr_mult: 0
    decay_mult: 0
  }
  param {
    lr_mult: 0
    decay_mult: 0
  }
}
layer {
  name: "conv5"
  type: "Convolution"
  bottom: "bn4"
  top: "conv5"
  convolution_param {
    num_output: 1
    pad: 2
    kernel_size: 5
    stride: 1
    weight_filler {
      type: "xavier"
    }
    bias_filler {
      type: "constant"
    }
  }
}
layer {
  name: "relu5"
  type: "ReLU"
  bottom: "conv5"
  top: "relu5"
  relu_param {
    negative_slope: 0.01
  }
}
layer {
  name: "bn5"
  type: "BatchNorm"
  bottom: "relu5"
  top: "bn5"
  param {
    lr_mult: 0
    decay_mult: 0
  }
  param {
    lr_mult: 0
    decay_mult: 0
  }
  param {
    lr_mult: 0
    decay_mult: 0
  }
}
layer {
  name: "fc"
  type: "InnerProduct"
  bottom: "bn5"
  top: "fc"
  inner_product_param {
    num_output: 362
    weight_filler {
      type: "xavier"
    }
    bias_filler {
      type: "constant"
    }
  }
}
layer {
  name: "softmax_output"
  type: "SoftmaxWithLoss"
  bottom: "fc"
  bottom: "label"
  top: "softmax_output"
  include {
    phase: TRAIN
  }
}
I0406 11:44:56.148350 15817 layer_factory.hpp:77] Creating layer data
I0406 11:44:56.148370 15817 net.cpp:84] Creating Layer data
I0406 11:44:56.148373 15817 net.cpp:380] data -> data
I0406 11:44:56.148387 15817 net.cpp:380] data -> label
I0406 11:44:56.148396 15817 image_data_layer.cpp:38] Opening file dataset_train.txt
I0406 11:44:56.270253 15817 image_data_layer.cpp:53] Shuffling data
I0406 11:44:56.348575 15817 image_data_layer.cpp:63] A total of 289608 images.
I0406 11:44:56.351680 15817 image_data_layer.cpp:90] output data size: 64,3,19,19
I0406 11:44:56.353533 15817 net.cpp:122] Setting up data
I0406 11:44:56.353544 15817 net.cpp:129] Top shape: 64 3 19 19 (69312)
I0406 11:44:56.353549 15817 net.cpp:129] Top shape: 64 (64)
I0406 11:44:56.353550 15817 net.cpp:137] Memory required for data: 277504
I0406 11:44:56.353556 15817 layer_factory.hpp:77] Creating layer conv1
I0406 11:44:56.353579 15817 net.cpp:84] Creating Layer conv1
I0406 11:44:56.353583 15817 net.cpp:406] conv1 <- data
I0406 11:44:56.353595 15817 net.cpp:380] conv1 -> conv1
I0406 11:44:56.355537 15817 net.cpp:122] Setting up conv1
I0406 11:44:56.355546 15817 net.cpp:129] Top shape: 64 50 19 19 (1155200)
I0406 11:44:56.355549 15817 net.cpp:137] Memory required for data: 4898304
I0406 11:44:56.355567 15817 layer_factory.hpp:77] Creating layer relu1
I0406 11:44:56.355576 15817 net.cpp:84] Creating Layer relu1
I0406 11:44:56.355578 15817 net.cpp:406] relu1 <- conv1
I0406 11:44:56.355583 15817 net.cpp:380] relu1 -> relu1
I0406 11:44:56.355612 15817 net.cpp:122] Setting up relu1
I0406 11:44:56.355617 15817 net.cpp:129] Top shape: 64 50 19 19 (1155200)
I0406 11:44:56.355619 15817 net.cpp:137] Memory required for data: 9519104
I0406 11:44:56.355621 15817 layer_factory.hpp:77] Creating layer bn1
I0406 11:44:56.355626 15817 net.cpp:84] Creating Layer bn1
I0406 11:44:56.355628 15817 net.cpp:406] bn1 <- relu1
I0406 11:44:56.355633 15817 net.cpp:380] bn1 -> bn1
I0406 11:44:56.355818 15817 net.cpp:122] Setting up bn1
I0406 11:44:56.355823 15817 net.cpp:129] Top shape: 64 50 19 19 (1155200)
I0406 11:44:56.355824 15817 net.cpp:137] Memory required for data: 14139904
I0406 11:44:56.355835 15817 layer_factory.hpp:77] Creating layer conv2
I0406 11:44:56.355845 15817 net.cpp:84] Creating Layer conv2
I0406 11:44:56.355847 15817 net.cpp:406] conv2 <- bn1
I0406 11:44:56.355852 15817 net.cpp:380] conv2 -> conv2
I0406 11:44:56.357229 15817 net.cpp:122] Setting up conv2
I0406 11:44:56.357237 15817 net.cpp:129] Top shape: 64 50 19 19 (1155200)
I0406 11:44:56.357240 15817 net.cpp:137] Memory required for data: 18760704
I0406 11:44:56.357246 15817 layer_factory.hpp:77] Creating layer relu2
I0406 11:44:56.357251 15817 net.cpp:84] Creating Layer relu2
I0406 11:44:56.357254 15817 net.cpp:406] relu2 <- conv2
I0406 11:44:56.357259 15817 net.cpp:380] relu2 -> relu2
I0406 11:44:56.357278 15817 net.cpp:122] Setting up relu2
I0406 11:44:56.357282 15817 net.cpp:129] Top shape: 64 50 19 19 (1155200)
I0406 11:44:56.357285 15817 net.cpp:137] Memory required for data: 23381504
I0406 11:44:56.357286 15817 layer_factory.hpp:77] Creating layer bn2
I0406 11:44:56.357291 15817 net.cpp:84] Creating Layer bn2
I0406 11:44:56.357293 15817 net.cpp:406] bn2 <- relu2
I0406 11:44:56.357298 15817 net.cpp:380] bn2 -> bn2
I0406 11:44:56.357482 15817 net.cpp:122] Setting up bn2
I0406 11:44:56.357486 15817 net.cpp:129] Top shape: 64 50 19 19 (1155200)
I0406 11:44:56.357488 15817 net.cpp:137] Memory required for data: 28002304
I0406 11:44:56.357517 15817 layer_factory.hpp:77] Creating layer conv3
I0406 11:44:56.357525 15817 net.cpp:84] Creating Layer conv3
I0406 11:44:56.357528 15817 net.cpp:406] conv3 <- bn2
I0406 11:44:56.357533 15817 net.cpp:380] conv3 -> conv3
I0406 11:44:56.358085 15817 net.cpp:122] Setting up conv3
I0406 11:44:56.358091 15817 net.cpp:129] Top shape: 64 50 19 19 (1155200)
I0406 11:44:56.358093 15817 net.cpp:137] Memory required for data: 32623104
I0406 11:44:56.358098 15817 layer_factory.hpp:77] Creating layer relu3
I0406 11:44:56.358104 15817 net.cpp:84] Creating Layer relu3
I0406 11:44:56.358106 15817 net.cpp:406] relu3 <- conv3
I0406 11:44:56.358110 15817 net.cpp:380] relu3 -> relu3
I0406 11:44:56.358129 15817 net.cpp:122] Setting up relu3
I0406 11:44:56.358134 15817 net.cpp:129] Top shape: 64 50 19 19 (1155200)
I0406 11:44:56.358135 15817 net.cpp:137] Memory required for data: 37243904
I0406 11:44:56.358137 15817 layer_factory.hpp:77] Creating layer bn3
I0406 11:44:56.358141 15817 net.cpp:84] Creating Layer bn3
I0406 11:44:56.358145 15817 net.cpp:406] bn3 <- relu3
I0406 11:44:56.358150 15817 net.cpp:380] bn3 -> bn3
I0406 11:44:56.358330 15817 net.cpp:122] Setting up bn3
I0406 11:44:56.358335 15817 net.cpp:129] Top shape: 64 50 19 19 (1155200)
I0406 11:44:56.358336 15817 net.cpp:137] Memory required for data: 41864704
I0406 11:44:56.358342 15817 layer_factory.hpp:77] Creating layer conv4
I0406 11:44:56.358350 15817 net.cpp:84] Creating Layer conv4
I0406 11:44:56.358351 15817 net.cpp:406] conv4 <- bn3
I0406 11:44:56.358356 15817 net.cpp:380] conv4 -> conv4
I0406 11:44:56.358906 15817 net.cpp:122] Setting up conv4
I0406 11:44:56.358911 15817 net.cpp:129] Top shape: 64 50 19 19 (1155200)
I0406 11:44:56.358912 15817 net.cpp:137] Memory required for data: 46485504
I0406 11:44:56.358922 15817 layer_factory.hpp:77] Creating layer relu4
I0406 11:44:56.358925 15817 net.cpp:84] Creating Layer relu4
I0406 11:44:56.358928 15817 net.cpp:406] relu4 <- conv4
I0406 11:44:56.358932 15817 net.cpp:380] relu4 -> relu4
I0406 11:44:56.358950 15817 net.cpp:122] Setting up relu4
I0406 11:44:56.358954 15817 net.cpp:129] Top shape: 64 50 19 19 (1155200)
I0406 11:44:56.358956 15817 net.cpp:137] Memory required for data: 51106304
I0406 11:44:56.358958 15817 layer_factory.hpp:77] Creating layer bn4
I0406 11:44:56.358963 15817 net.cpp:84] Creating Layer bn4
I0406 11:44:56.358965 15817 net.cpp:406] bn4 <- relu4
I0406 11:44:56.358970 15817 net.cpp:380] bn4 -> bn4
I0406 11:44:56.359180 15817 net.cpp:122] Setting up bn4
I0406 11:44:56.359184 15817 net.cpp:129] Top shape: 64 50 19 19 (1155200)
I0406 11:44:56.359187 15817 net.cpp:137] Memory required for data: 55727104
I0406 11:44:56.359192 15817 layer_factory.hpp:77] Creating layer conv5
I0406 11:44:56.359200 15817 net.cpp:84] Creating Layer conv5
I0406 11:44:56.359202 15817 net.cpp:406] conv5 <- bn4
I0406 11:44:56.359207 15817 net.cpp:380] conv5 -> conv5
I0406 11:44:56.359483 15817 net.cpp:122] Setting up conv5
I0406 11:44:56.359488 15817 net.cpp:129] Top shape: 64 1 19 19 (23104)
I0406 11:44:56.359490 15817 net.cpp:137] Memory required for data: 55819520
I0406 11:44:56.359495 15817 layer_factory.hpp:77] Creating layer relu5
I0406 11:44:56.359499 15817 net.cpp:84] Creating Layer relu5
I0406 11:44:56.359503 15817 net.cpp:406] relu5 <- conv5
I0406 11:44:56.359506 15817 net.cpp:380] relu5 -> relu5
I0406 11:44:56.359524 15817 net.cpp:122] Setting up relu5
I0406 11:44:56.359527 15817 net.cpp:129] Top shape: 64 1 19 19 (23104)
I0406 11:44:56.359529 15817 net.cpp:137] Memory required for data: 55911936
I0406 11:44:56.359531 15817 layer_factory.hpp:77] Creating layer bn5
I0406 11:44:56.359535 15817 net.cpp:84] Creating Layer bn5
I0406 11:44:56.359537 15817 net.cpp:406] bn5 <- relu5
I0406 11:44:56.359541 15817 net.cpp:380] bn5 -> bn5
I0406 11:44:56.359730 15817 net.cpp:122] Setting up bn5
I0406 11:44:56.359735 15817 net.cpp:129] Top shape: 64 1 19 19 (23104)
I0406 11:44:56.359737 15817 net.cpp:137] Memory required for data: 56004352
I0406 11:44:56.359743 15817 layer_factory.hpp:77] Creating layer fc
I0406 11:44:56.359760 15817 net.cpp:84] Creating Layer fc
I0406 11:44:56.359763 15817 net.cpp:406] fc <- bn5
I0406 11:44:56.359767 15817 net.cpp:380] fc -> fc
I0406 11:44:56.360554 15817 net.cpp:122] Setting up fc
I0406 11:44:56.360558 15817 net.cpp:129] Top shape: 64 362 (23168)
I0406 11:44:56.360560 15817 net.cpp:137] Memory required for data: 56097024
I0406 11:44:56.360565 15817 layer_factory.hpp:77] Creating layer softmax_output
I0406 11:44:56.360570 15817 net.cpp:84] Creating Layer softmax_output
I0406 11:44:56.360574 15817 net.cpp:406] softmax_output <- fc
I0406 11:44:56.360576 15817 net.cpp:406] softmax_output <- label
I0406 11:44:56.360581 15817 net.cpp:380] softmax_output -> softmax_output
…
I0406 11:44:56.361042 15817 net.cpp:294] The NetState phase (1) differed from the phase (0) specified by a rule in layer data
I0406 11:44:56.361057 15817 net.cpp:294] The NetState phase (1) differed from the phase (0) specified by a rule in layer softmax_output
I0406 11:44:56.361171 15817 net.cpp:51] Initializing net from parameters: 
name: "Go_player"
state {
  phase: TEST
}
layer {
  name: "data"
  type: "ImageData"
  top: "data"
  top: "label"
  include {
    phase: TEST
  }
  image_data_param {
    source: "dataset_test.txt"
    batch_size: 4
    shuffle: true
  }
}
layer {
  name: "conv1"
  type: "Convolution"
  bottom: "data"
  top: "conv1"
  convolution_param {
    num_output: 50
    pad: 2
    kernel_size: 5
    stride: 1
    weight_filler {
      type: "xavier"
    }
    bias_filler {
      type: "constant"
    }
  }
}
layer {
  name: "relu1"
  type: "ReLU"
  bottom: "conv1"
  top: "relu1"
  relu_param {
    negative_slope: 0.01
  }
}
layer {
  name: "bn1"
  type: "BatchNorm"
  bottom: "relu1"
  top: "bn1"
  param {
    lr_mult: 0
    decay_mult: 0
  }
  param {
    lr_mult: 0
    decay_mult: 0
  }
  param {
    lr_mult: 0
    decay_mult: 0
  }
}
layer {
  name: "conv2"
  type: "Convolution"
  bottom: "bn1"
  top: "conv2"
  convolution_param {
    num_output: 50
    pad: 2
    kernel_size: 5
    stride: 1
    weight_filler {
      type: "xavier"
    }
    bias_filler {
      type: "constant"
    }
  }
}
layer {
  name: "relu2"
  type: "ReLU"
  bottom: "conv2"
  top: "relu2"
  relu_param {
    negative_slope: 0.01
  }
}
layer {
  name: "bn2"
  type: "BatchNorm"
  bottom: "relu2"
  top: "bn2"
  param {
    lr_mult: 0
    decay_mult: 0
  }
  param {
    lr_mult: 0
    decay_mult: 0
  }
  param {
    lr_mult: 0
    decay_mult: 0
  }
}
layer {
  name: "conv3"
  type: "Convolution"
  bottom: "bn2"
  top: "conv3"
  convolution_param {
    num_output: 50
    pad: 2
    kernel_size: 5
    stride: 1
    weight_filler {
      type: "xavier"
    }
    bias_filler {
      type: "constant"
    }
  }
}
layer {
  name: "relu3"
  type: "ReLU"
  bottom: "conv3"
  top: "relu3"
  relu_param {
    negative_slope: 0.01
  }
}
layer {
  name: "bn3"
  type: "BatchNorm"
  bottom: "relu3"
  top: "bn3"
  param {
    lr_mult: 0
    decay_mult: 0
  }
  param {
    lr_mult: 0
    decay_mult: 0
  }
  param {
    lr_mult: 0
    decay_mult: 0
  }
}
layer {
  name: "conv4"
  type: "Convolution"
  bottom: "bn3"
  top: "conv4"
  convolution_param {
    num_output: 50
    pad: 2
    kernel_size: 5
    stride: 1
    weight_filler {
      type: "xavier"
    }
    bias_filler {
      type: "constant"
    }
  }
}
layer {
  name: "relu4"
  type: "ReLU"
  bottom: "conv4"
  top: "relu4"
  relu_param {
    negative_slope: 0.01
  }
}
layer {
  name: "bn4"
  type: "BatchNorm"
  bottom: "relu4"
  top: "bn4"
  param {
    lr_mult: 0
    decay_mult: 0
  }
  param {
    lr_mult: 0
    decay_mult: 0
  }
  param {
    lr_mult: 0
    decay_mult: 0
  }
}
layer {
  name: "conv5"
  type: "Convolution"
  bottom: "bn4"
  top: "conv5"
  convolution_param {
    num_output: 1
    pad: 2
    kernel_size: 5
    stride: 1
    weight_filler {
      type: "xavier"
    }
    bias_filler {
      type: "constant"
    }
  }
}
layer {
  name: "relu5"
  type: "ReLU"
  bottom: "conv5"
  top: "relu5"
  relu_param {
    negative_slope: 0.01
  }
}
layer {
  name: "bn5"
  type: "BatchNorm"
  bottom: "relu5"
  top: "bn5"
  param {
    lr_mult: 0
    decay_mult: 0
  }
  param {
    lr_mult: 0
    decay_mult: 0
  }
  param {
    lr_mult: 0
    decay_mult: 0
  }
}
layer {
  name: "fc"
  type: "InnerProduct"
  bottom: "bn5"
  top: "fc"
  inner_product_param {
    num_output: 362
    weight_filler {
      type: "xavier"
    }
    bias_filler {
      type: "constant"
    }
  }
}
layer {
  name: "softmax_output_test"
  type: "SoftmaxWithLoss"
  bottom: "fc"
  bottom: "label"
  top: "softmax_output_test"
  include {
    phase: TEST
  }
}
I0406 11:44:56.361253 15817 layer_factory.hpp:77] Creating layer data
I0406 11:44:56.361263 15817 net.cpp:84] Creating Layer data
I0406 11:44:56.361268 15817 net.cpp:380] data -> data
I0406 11:44:56.361274 15817 net.cpp:380] data -> label
I0406 11:44:56.361281 15817 image_data_layer.cpp:38] Opening file dataset_test.txt
I0406 11:44:56.363298 15817 image_data_layer.cpp:53] Shuffling data
I0406 11:44:56.363956 15817 image_data_layer.cpp:63] A total of 3620 images.
I0406 11:44:56.364073 15817 image_data_layer.cpp:90] output data size: 4,3,19,19
I0406 11:44:56.365370 15817 net.cpp:122] Setting up data
I0406 11:44:56.365378 15817 net.cpp:129] Top shape: 4 3 19 19 (4332)
I0406 11:44:56.365382 15817 net.cpp:129] Top shape: 4 (4)
I0406 11:44:56.365384 15817 net.cpp:137] Memory required for data: 17344
I0406 11:44:56.365387 15817 layer_factory.hpp:77] Creating layer conv1
I0406 11:44:56.365398 15817 net.cpp:84] Creating Layer conv1
I0406 11:44:56.365401 15817 net.cpp:406] conv1 <- data
I0406 11:44:56.365406 15817 net.cpp:380] conv1 -> conv1
I0406 11:44:56.365705 15817 net.cpp:122] Setting up conv1
I0406 11:44:56.365710 15817 net.cpp:129] Top shape: 4 50 19 19 (72200)
I0406 11:44:56.365711 15817 net.cpp:137] Memory required for data: 306144
I0406 11:44:56.365720 15817 layer_factory.hpp:77] Creating layer relu1
I0406 11:44:56.365736 15817 net.cpp:84] Creating Layer relu1
I0406 11:44:56.365738 15817 net.cpp:406] relu1 <- conv1
I0406 11:44:56.365742 15817 net.cpp:380] relu1 -> relu1
I0406 11:44:56.365761 15817 net.cpp:122] Setting up relu1
I0406 11:44:56.365764 15817 net.cpp:129] Top shape: 4 50 19 19 (72200)
I0406 11:44:56.365767 15817 net.cpp:137] Memory required for data: 594944
I0406 11:44:56.365767 15817 layer_factory.hpp:77] Creating layer bn1
I0406 11:44:56.365772 15817 net.cpp:84] Creating Layer bn1
I0406 11:44:56.365774 15817 net.cpp:406] bn1 <- relu1
I0406 11:44:56.365778 15817 net.cpp:380] bn1 -> bn1
I0406 11:44:56.365941 15817 net.cpp:122] Setting up bn1
I0406 11:44:56.365945 15817 net.cpp:129] Top shape: 4 50 19 19 (72200)
I0406 11:44:56.365947 15817 net.cpp:137] Memory required for data: 883744
I0406 11:44:56.365957 15817 layer_factory.hpp:77] Creating layer conv2
I0406 11:44:56.365964 15817 net.cpp:84] Creating Layer conv2
I0406 11:44:56.365967 15817 net.cpp:406] conv2 <- bn1
I0406 11:44:56.365972 15817 net.cpp:380] conv2 -> conv2
I0406 11:44:56.366479 15817 net.cpp:122] Setting up conv2
I0406 11:44:56.366483 15817 net.cpp:129] Top shape: 4 50 19 19 (72200)
I0406 11:44:56.366485 15817 net.cpp:137] Memory required for data: 1172544
I0406 11:44:56.366490 15817 layer_factory.hpp:77] Creating layer relu2
I0406 11:44:56.366494 15817 net.cpp:84] Creating Layer relu2
I0406 11:44:56.366495 15817 net.cpp:406] relu2 <- conv2
I0406 11:44:56.366502 15817 net.cpp:380] relu2 -> relu2
I0406 11:44:56.366518 15817 net.cpp:122] Setting up relu2
I0406 11:44:56.366520 15817 net.cpp:129] Top shape: 4 50 19 19 (72200)
I0406 11:44:56.366523 15817 net.cpp:137] Memory required for data: 1461344
I0406 11:44:56.366524 15817 layer_factory.hpp:77] Creating layer bn2
I0406 11:44:56.366528 15817 net.cpp:84] Creating Layer bn2
I0406 11:44:56.366530 15817 net.cpp:406] bn2 <- relu2
I0406 11:44:56.366534 15817 net.cpp:380] bn2 -> bn2
I0406 11:44:56.366739 15817 net.cpp:122] Setting up bn2
I0406 11:44:56.366742 15817 net.cpp:129] Top shape: 4 50 19 19 (72200)
I0406 11:44:56.366744 15817 net.cpp:137] Memory required for data: 1750144
I0406 11:44:56.366753 15817 layer_factory.hpp:77] Creating layer conv3
I0406 11:44:56.366760 15817 net.cpp:84] Creating Layer conv3
I0406 11:44:56.366762 15817 net.cpp:406] conv3 <- bn2
I0406 11:44:56.366767 15817 net.cpp:380] conv3 -> conv3
I0406 11:44:56.367283 15817 net.cpp:122] Setting up conv3
I0406 11:44:56.367288 15817 net.cpp:129] Top shape: 4 50 19 19 (72200)
I0406 11:44:56.367290 15817 net.cpp:137] Memory required for data: 2038944
I0406 11:44:56.367295 15817 layer_factory.hpp:77] Creating layer relu3
I0406 11:44:56.367300 15817 net.cpp:84] Creating Layer relu3
I0406 11:44:56.367301 15817 net.cpp:406] relu3 <- conv3
I0406 11:44:56.367305 15817 net.cpp:380] relu3 -> relu3
I0406 11:44:56.367324 15817 net.cpp:122] Setting up relu3
I0406 11:44:56.367327 15817 net.cpp:129] Top shape: 4 50 19 19 (72200)
I0406 11:44:56.367329 15817 net.cpp:137] Memory required for data: 2327744
I0406 11:44:56.367331 15817 layer_factory.hpp:77] Creating layer bn3
I0406 11:44:56.367336 15817 net.cpp:84] Creating Layer bn3
I0406 11:44:56.367337 15817 net.cpp:406] bn3 <- relu3
I0406 11:44:56.367341 15817 net.cpp:380] bn3 -> bn3
I0406 11:44:56.367523 15817 net.cpp:122] Setting up bn3
I0406 11:44:56.367527 15817 net.cpp:129] Top shape: 4 50 19 19 (72200)
I0406 11:44:56.367529 15817 net.cpp:137] Memory required for data: 2616544
I0406 11:44:56.367535 15817 layer_factory.hpp:77] Creating layer conv4
I0406 11:44:56.367542 15817 net.cpp:84] Creating Layer conv4
I0406 11:44:56.367543 15817 net.cpp:406] conv4 <- bn3
I0406 11:44:56.367548 15817 net.cpp:380] conv4 -> conv4
I0406 11:44:56.368038 15817 net.cpp:122] Setting up conv4
I0406 11:44:56.368042 15817 net.cpp:129] Top shape: 4 50 19 19 (72200)
I0406 11:44:56.368044 15817 net.cpp:137] Memory required for data: 2905344
I0406 11:44:56.368052 15817 layer_factory.hpp:77] Creating layer relu4
I0406 11:44:56.368055 15817 net.cpp:84] Creating Layer relu4
I0406 11:44:56.368057 15817 net.cpp:406] relu4 <- conv4
I0406 11:44:56.368068 15817 net.cpp:380] relu4 -> relu4
I0406 11:44:56.368085 15817 net.cpp:122] Setting up relu4
I0406 11:44:56.368088 15817 net.cpp:129] Top shape: 4 50 19 19 (72200)
I0406 11:44:56.368090 15817 net.cpp:137] Memory required for data: 3194144
I0406 11:44:56.368093 15817 layer_factory.hpp:77] Creating layer bn4
I0406 11:44:56.368096 15817 net.cpp:84] Creating Layer bn4
I0406 11:44:56.368098 15817 net.cpp:406] bn4 <- relu4
I0406 11:44:56.368101 15817 net.cpp:380] bn4 -> bn4
I0406 11:44:56.368260 15817 net.cpp:122] Setting up bn4
I0406 11:44:56.368264 15817 net.cpp:129] Top shape: 4 50 19 19 (72200)
I0406 11:44:56.368265 15817 net.cpp:137] Memory required for data: 3482944
I0406 11:44:56.368270 15817 layer_factory.hpp:77] Creating layer conv5
I0406 11:44:56.368278 15817 net.cpp:84] Creating Layer conv5
I0406 11:44:56.368279 15817 net.cpp:406] conv5 <- bn4
I0406 11:44:56.368283 15817 net.cpp:380] conv5 -> conv5
I0406 11:44:56.368476 15817 net.cpp:122] Setting up conv5
I0406 11:44:56.368480 15817 net.cpp:129] Top shape: 4 1 19 19 (1444)
I0406 11:44:56.368482 15817 net.cpp:137] Memory required for data: 3488720
I0406 11:44:56.368486 15817 layer_factory.hpp:77] Creating layer relu5
I0406 11:44:56.368490 15817 net.cpp:84] Creating Layer relu5
I0406 11:44:56.368492 15817 net.cpp:406] relu5 <- conv5
I0406 11:44:56.368496 15817 net.cpp:380] relu5 -> relu5
I0406 11:44:56.368511 15817 net.cpp:122] Setting up relu5
I0406 11:44:56.368515 15817 net.cpp:129] Top shape: 4 1 19 19 (1444)
I0406 11:44:56.368516 15817 net.cpp:137] Memory required for data: 3494496
I0406 11:44:56.368518 15817 layer_factory.hpp:77] Creating layer bn5
I0406 11:44:56.368522 15817 net.cpp:84] Creating Layer bn5
I0406 11:44:56.368525 15817 net.cpp:406] bn5 <- relu5
I0406 11:44:56.368527 15817 net.cpp:380] bn5 -> bn5
I0406 11:44:56.368686 15817 net.cpp:122] Setting up bn5
I0406 11:44:56.368690 15817 net.cpp:129] Top shape: 4 1 19 19 (1444)
I0406 11:44:56.368692 15817 net.cpp:137] Memory required for data: 3500272
I0406 11:44:56.368697 15817 layer_factory.hpp:77] Creating layer fc
I0406 11:44:56.368703 15817 net.cpp:84] Creating Layer fc
I0406 11:44:56.368705 15817 net.cpp:406] fc <- bn5
I0406 11:44:56.368710 15817 net.cpp:380] fc -> fc
I0406 11:44:56.370122 15817 net.cpp:122] Setting up fc
I0406 11:44:56.370128 15817 net.cpp:129] Top shape: 4 362 (1448)
I0406 11:44:56.370131 15817 net.cpp:137] Memory required for data: 3506064
I0406 11:44:56.370136 15817 layer_factory.hpp:77] Creating layer softmax_output_test
I0406 11:44:56.370141 15817 net.cpp:84] Creating Layer softmax_output_test
I0406 11:44:56.370143 15817 net.cpp:406] softmax_output_test <- fc
I0406 11:44:56.370146 15817 net.cpp:406] softmax_output_test <- label
I0406 11:44:56.370151 15817 net.cpp:380] softmax_output_test -> softmax_output_test
…
